cifar-10/cifar-net.pt (torch_old, 260475 bytes, 10 tensors)

weight f4 [6, 3, 5, 5]
000000 12 2a f2 bc bb eb 44 bd 85 1c 58 3e 35 69 12 3e
       -0.029561076 -0.048076373 0.2110463 0.14297946
000010 15 53 48 3e a1 b8 9d bb 8c e2 0f be 0b 9b e5 3d
       0.19562943 -0.0048132692 -0.14051265 0.11211213
000020 7a 4f c0 3d 39 21 6c 3e 9b 1a 3e be e7 cd 88 3c
       0.09390159 0.23059548 -0.18564837 0.016699744
000030 1a c8 cf bd 44 19 58 3e a5 59 07 3e 45 c1 4d be
       -0.10145588 0.21103388 0.1321779 -0.20093258
000040 be 00 4f bc 59 25 68 bd 2f b8 a1 3c 05 1f 1e bc
       -0.012634454 -0.056676243 0.019741146 -0.00965095
000050 56 53 c7 bd fe 32 1d be 1c 41 8b bd 08 a9 fc 3d
       -0.09732692 -0.15351483 -0.06799528 0.12336928
000060 b5 33 0f 3e 46 64 e1 bb 71 dc 28 be 48 2a b3 bd
       0.13984568 -0.0068784086 -0.16490342 -0.08748299
000070 f0 dc 5b 3e 96 3f 55 3d a2 0b 25 be 8a 72 58 be
       0.21471 0.052062593 -0.16117719 -0.21137443
000080 4e aa 2b bd 01 4b 0c 3e fa c8 60 bc 6d d0 27 be
       -0.041910462 0.13700487 -0.013719792 -0.16388102
000090 10 70 18 be d1 fa 29 be 7f e0 b1 3d 49 44 86 bc
       -0.14886498 -0.16599585 0.08685397 -0.016389983
0000a0 27 80 6e bd e3 ce 44 be e9 19 9f bd 70 37 9f bd
       -0.058227684 -0.19219546 -0.07768614 -0.07774246
0000b0 ba a4 dc 3d 24 81 90 3c 3d 4c ba 3c 37 1a 02 bd
       0.107736066 0.017639704 0.022741431 -0.03176328
0000c0 80 cf c6 bd 7f 89 bc 3d 9a e4 1c be 29 81 14 be
       -0.09707546 0.09205913 -0.1532158 -0.14502396
0000d0 e7 f5 cd 3d de ff 17 3e e3 ec a2 3d 59 3a 37 be
       0.10056668 0.148437 0.07955339 -0.17893352
0000e0 c5 7c 67 be f4 58 12 3c cc 47 27 3d ce 32 8d bd
       -0.2260619 0.008932341 0.040839955 -0.06894456
0000f0 51 8b 14 be 28 1b 8e bd 8a 8b 27 bc c9 29 ac 3d
       -0.1450627 -0.069387734 -0.01022614 0.084064074
000100 5f bf df 3c f5 16 13 be 48 b8 18 bd 6e eb 9f bd
       0.027312933 -0.14364226 -0.03728512 -0.078085765
000110 f8 43 81 bd db f1 84 3d c3 3b dc bc 95 8a 31 be
       -0.06311792 0.06491443 -0.026883965 -0.17338021
000120 ad 3b 20 3d 79 f1 c6 bd de cd 10 3e e7 e4 09 3e
       0.03911941 -0.09714026 0.14141032 0.13466226
000130 a8 79 f6 39 c6 d9 a1 3d a8 58 a0 3d 19 60 d5 bc
       0.00047011417 0.07902865 0.0782941 -0.0260468
000140 fd 86 eb 3c f7 8b b4 3d 1c c0 84 3d 44 bd de 3c
       0.02875089 0.08815759 0.064819545 0.027189858
000150 eb 60 ad 3c 84 dc 14 bd e9 e8 ff bd 6f 3f 31 bd
       0.021164378 -0.036343113 -0.12495596 -0.043273386
000160 55 b9 07 bd 17 4e 2d bc 0e c7 fd 3c 23 a8 08 be
       -0.03313573 -0.0105777 0.030978706 -0.13345389
000170 9f 16 4c 3d a7 7d 2c 3c 4a bc 2a 3d c4 16 b3 3d
       0.04982626 0.010528005 0.041683473 0.087445766
000180 25 a7 9c bd 87 4a e2 3c af e7 fd 3d ec aa e7 bd
       -0.07649068 0.027623428 0.12397706 -0.11311898
000190 28 3c 83 3b 70 06 5f 3d 7e c9 bd 3d 38 bd 50 bd
       0.004004974 0.0544495 0.09266947 -0.050961703
0001a0 44 5e cd 3d f8 ec 86 bd df 26 12 3e 74 4f 81 bd
       0.10027745 -0.06588167 0.1427264 -0.063139826
0001b0 c7 16 38 3d d6 9e 32 3d 68 54 9b bd fe 25 9a 3c
       0.044943597 0.04360851 -0.075844586 0.018816944
0001c0 43 5b 42 3d 18 b9 b8 bb 98 4e 30 3c c3 14 46 3c
       0.047450315 -0.0056372993 0.010760926 0.012089911
0001d0 5c 2d fe 3d b6 59 e4 3c ce 05 0f 3e 11 94 ce 3c
       0.12410995 0.027874809 0.13967058 0.025217088
0001e0 89 e6 9f 3d 30 02 c2 bc c9 2f 59 bd c0 7c 6c bd
       0.07807643 -0.023682684 -0.053024087 -0.05773616
0001f0 19 36 c1 3d 54 bb 52 3d 8f 2f 23 3e b0 1f 3b 3e
       0.094341464 0.05144818 0.15936111 0.18273807
000200 05 73 9d 3d 9f 53 bb 3d 6c 1c 2e 3e 13 1f 36 3e
       0.07687954 0.09146809 0.1700303 0.17785291
000210 c7 5e 5b 3d ac 46 82 3b f6 89 34 3e 0f 87 9a bd
       0.053557184 0.00397571 0.17630753 -0.07545292
000220 a2 f8 1a bb 2f 70 e1 3c 3a 7d a6 3c 90 36 8f 3d
       -0.0023646732 0.027519314 0.020323385 0.06992829
000230 f5 99 7c bd 06 03 0c 3e 78 49 68 bc fc 45 01 3e
       -0.061670262 0.13673028 -0.014177673 0.12624353
000240 59 af 6e ba 57 3b 16 3e 36 4a 90 3d 30 f4 ee 3d
       -0.00091051083 0.14671074 0.070454046 0.11667669
000250 b1 13 d2 3d 90 e5 3d 3e d1 e9 c7 3d 3a 25 1d 3e
       0.10257662 0.18544602 0.09761394 0.15346232
000260 72 b1 1b 3e 21 17 0a 3e 7a 42 49 3d ed 37 b4 3d
       0.15204409 0.13485385 0.049135663 0.087997295
000270 0e 0d 15 3e 02 bf ff 3d af 75 b2 3d 3e cc 02 3e
       0.14555761 0.12487604 0.087138526 0.12773225
000280 d8 9a aa bc e6 e1 1b 3e 85 6c 0e 3e c9 43 52 3d
       -0.020825788 0.15222892 0.13908584 0.051334176
000290 5c 07 b8 3d 1c 3a 13 bd 44 75 5c 3c d2 23 10 bd
       0.08985779 -0.03594409 0.013455693 -0.03519041
0002a0 ce a5 0f b7 b5 ee b3 bd 87 3b 20 be af b5 ab 3c
       -8.562069e-06 -0.08785764 -0.15647708 0.020960657
0002b0 bb a9 02 bd 48 e4 fd bd d3 10 51 be 0d 34 d7 3d
       -0.03190015 -0.12397057 -0.20416574 0.10507975
0002c0 f3 13 e2 3d f2 a5 2a 3e 04 b8 f3 3d e3 18 3d 3c
       0.11038961 0.16664866 0.119003326 0.011541578
0002d0 1d ce 12 3e 15 c9 95 3d 89 c9 3c 3e c9 f3 18 3d
       0.14336438 0.07313744 0.18436255 0.037341867
0002e0 a3 44 0a 3e dd d1 dd 3d 6e 84 1d 3e 66 14 1e 3e
       0.13502745 0.10831044 0.15382549 0.15437469
0002f0 1c 1c f0 3d 34 5f 6b 3d 9e f5 7a 3d 5c 68 01 3e
       0.117241114 0.05746384 0.061269395 0.12637466
000300 b1 74 b9 3d 96 3c c1 3c cc 48 9c bd 92 26 a5 bd
       0.0905546 0.02358846 -0.076310724 -0.08063997
000310 64 50 23 bc 27 bb 0f bd 9e 33 15 be 67 d4 43 be
       -0.009967897 -0.03509059 -0.14570472 -0.19123994
000320 c7 e7 9e 3d c5 fe 36 3e 38 92 8b bc 0e fb b3 3d
       0.07759052 0.17870624 -0.017037496 0.08788119
000330 03 55 45 bd 24 78 4b 3e 98 9f d9 3c e0 bd b1 3d
       -0.048176777 0.19870049 0.026565358 0.08678794
000340 64 3a 24 3e 3f 62 ce bc 1e b5 ab 3d 4b 13 f7 3d
       0.160379 -0.025193332 0.08384155 0.12064227
000350 4a 81 98 3d c9 42 8c bd a8 4f af bd 35 e1 9c 3d
       0.07446535 -0.06848676 -0.08560115 0.07660142
000360 67 3c a5 3d 29 3a c6 3b 4e 7e 0b be 3c 15 1e be
       0.080681615 0.0060494137 -0.136224 -0.15437788
000370 ed b6 0d bd 20 7f c6 3d b2 53 32 bd 1d a0 17 be
       -0.03459828 0.09692216 -0.04353685 -0.14807172
000380 98 1b e0 bd 55 18 25 3e 18 a1 94 bd 00 93 e2 bd
       -0.10942763 0.16122563 -0.07257289 -0.11063194
000390 c8 f6 d1 39 6b 5b d9 bc bf 96 17 3e 72 de 6b 3d
       0.00040047453 -0.02653285 0.14803599 0.057585187
0003a0 f9 2e d1 3d 89 51 41 3d 46 59 a0 3c 76 f1 dc bc
       0.102140374 0.0471969 0.019573819 -0.026970606
0003b0 8c 61 09 3d 99 65 a0 bd 93 1c f1 bd 1f 6e d7 3c
       0.033540294 -0.07831878 -0.11773028 0.026297627
0003c0 78 64 e0 bc ca 26 cd bd ba f2 ba 3b 3b 87 2b be
       -0.027391657 -0.10017164 0.005705205 -0.16750805
0003d0 da 7d 68 3d 08 db ce 3d 08 2c e4 bd de a8 f6 bd
       0.056760646 0.10100371 -0.11141211 -0.120439276
0003e0 58 04 22 3d d9 86 28 3d 6e 54 4a bd ea a5 57 bd
       0.039554924 0.041144226 -0.049396925 -0.052648462
0003f0 e5 13 09 bd c5 3e d6 bd 11 56 91 3d 6f ac 3f 3b
       -0.03346624 -0.10461191 0.07096494 0.0029247066

bias f4 [6]
000000 40 f5 cb 3c d7 09 32 3d 5a 15 ae 3d 2c fb b6 3d
       0.024897218 0.043466415 0.08500166 0.08934626
000010 a7 e4 55 3e 8d 2f f1 3d
       0.20888005 0.11776648

weight f4 [16, 6, 5, 5]
000000 b7 8f 35 bd 65 9b 4e 3d 85 4f 17 3b 56 40 9c bc
       -0.04432651 0.050441165 0.0023088169 -0.019073647
000010 f7 38 87 3d e1 4a 3c 3c a8 a5 20 3c e1 42 12 bd
       0.06602662 0.011492462 0.0098051205 -0.035708312
000020 77 0a 54 bd 8f 26 fe 3c ce 7a 97 3c 81 86 0f 3d
       -0.051767793 0.031024246 0.018491175 0.035040382
000030 a4 42 6d bc 27 b0 cd 3d 3c c7 67 bc 68 f8 8a bd
       -0.01448122 0.10043364 -0.014146622 -0.06785661
000040 01 6f 05 3d 39 6b 48 3d d6 d4 07 3b 7e 7c d4 3c
       0.032576565 0.04893038 0.0020726225 0.025938269
000050 b7 5a 91 3c 46 80 a4 3c ee 45 dc bd 8c c4 e7 bd
       0.017743452 0.020080697 -0.107555255 -0.11316785
000060 c7 4b 23 3d 6e 69 b1 3d 74 cf f4 3d c4 1a e8 3d
       0.03986719 0.08662687 0.11953631 0.1133323
000070 18 37 70 3d 38 77 52 bc 96 fd 4a bc 55 ae 2d 3d
       0.05864629 -0.012845807 -0.012389561 0.042402584
000080 50 3d da 3d 2f ab e7 3d 3b 82 8a 3d de 1d 64 bd
       0.10656226 0.113119476 0.06763121 -0.055692546
000090 b1 c7 40 bc a4 5a 89 3c dd e2 dc bc 74 23 ea 3c
       -0.01176636 0.016766854 -0.026963646 0.028581358
0000a0 ff 87 0b bd 58 1b 41 bc 0e 06 65 3c 45 a3 e3 3d
       -0.034065243 -0.011786304 0.013978494 0.111151256
0000b0 bc 1d 01 3e a8 ad b6 ba b6 5e d1 3d 88 77 a3 3d
       0.12608999 -0.0013937252 0.10223143 0.07981783
0000c0 5b e7 7b bc c8 94 a5 bc 7a ad e7 3d d3 5d cf 3d
       -0.015374984 -0.020212546 0.11312385 0.101253174
0000d0 36 67 f5 3d 09 8a a3 3d 31 72 cd 3d 28 27 e8 3d
       0.119825765 0.079853125 0.10031546 0.113355935
0000e0 04 10 c3 3d 4a 67 06 3e e6 19 10 3e d1 4c b9 3d
       0.09524539 0.13125339 0.1407238 0.09047855
0000f0 d5 eb d3 ba 14 c0 d4 bc 3c 57 dd 3d a1 93 94 3d
       -0.0016168306 -0.025970496 0.10807654 0.072547205
000100 ae 1f 04 bd 53 f0 b5 bc 91 5e 0c be b5 07 b6 bd
       -0.032256775 -0.022209322 -0.13707949 -0.08888189
000110 2d 22 be 3c d4 8f 3e bd 4c 61 a0 3c 2a 1c e7 3d
       0.023209656 -0.046523884 0.019577645 0.11284669
000120 41 07 c4 3c 4a 12 f9 bb 1f 56 0f 3d e0 fc 5a bd
       0.02392924 -0.007601057 0.03499424 -0.053463817
000130 6a c8 38 3d b0 15 11 3d a0 a4 9c bd e7 4a ae bd
       0.045113005 0.035421073 -0.07648587 -0.0851038
000140 94 57 65 3d c4 08 fc bc 9d 4f 51 bd f0 7c e8 3d
       0.055991724 -0.030765899 -0.051101316 0.11351955
000150 99 bc 57 bd 3a 48 d4 3d 4c 09 9e 3d 88 6f 58 bd
       -0.052670095 0.103653386 0.07716617 -0.05284074
000160 d7 3a ea 3d dc 7f dc 3d 10 2c 59 bd c9 f7 2e bc
       0.11437004 0.10766575 -0.053020537 -0.010679194
000170 13 c0 14 bd 26 92 39 bd e1 be 56 bd 5a 05 fc 3c
       -0.03631599 -0.045305394 -0.05242813 0.03076427
000180 91 84 fd bc 79 36 74 3d 72 8c fe 3c b0 85 31 bd
       -0.030947002 0.05962226 0.031072829 -0.043340385
000190 a3 45 fd bd 2c d6 f5 bd 54 28 9a bd a6 f7 5f bc
       -0.12366798 -0.12003741 -0.07527223 -0.013669884
0001a0 f7 f1 fe bd 75 fd 93 bd 12 c0 1a 3b a8 dd b0 bd
       -0.12448495 -0.072260775 0.0023613018 -0.086360276
0001b0 ee 51 c9 bd 54 68 e7 bd 8a 35 31 3d 3c 64 ed 3d
       -0.0983008 -0.11299196 0.04326395 0.11591384
0001c0 4d 11 e4 3d 33 45 fc 3d 5d b2 18 3e 37 34 08 3d
       0.11136112 0.12317886 0.1491179 0.03325292
0001d0 52 c2 97 3d 10 9f 02 3e 78 64 9f 3d f9 60 37 3d
       0.074101105 0.1275599 0.07782835 0.044770215
0001e0 1c 5d dd ba 3a 31 ed bd fe bc b1 bc c0 e9 2d be
       -0.0016888711 -0.11581655 -0.021696564 -0.169837
0001f0 b5 62 ec bd f3 34 8e bd 8e a8 25 3d 94 bd 5a bc
       -0.11542264 -0.06943693 0.04044395 -0.013350863
000200 2d 65 df bd ef a2 19 bd 75 27 cd 3b 86 2e 3f bd
       -0.109079696 -0.0375089 0.006260807 -0.046675228
000210 3d b7 ab 3d 7d ca 5f 3d f5 a7 a1 bc f9 9e 17 bd
       0.08384559 0.054636467 -0.019733408 -0.037016843
000220 74 11 b9 3c 8b 26 03 bd c6 5e de bd 30 ea 2d 3c
       0.02259133 -0.03201918 -0.1085792 0.010614917
000230 17 43 e5 3c 88 3d 86 3d bd ab ae bc a5 14 ac 3c
       0.027986092 0.06554705 -0.021322126 0.021005938
000240 16 69 55 3d d5 5d 6f bd 7a d6 31 bd fa 95 44 b8
       0.05210217 -0.058439095 -0.04341743 -4.6869718e-05
000250 18 6e ad 3c c6 f2 ff 3c 06 30 aa bd bc d8 01 be
       0.02117066 0.031243693 -0.08309941 -0.12680334
000260 9e ed 03 3e f6 07 90 3d 45 e7 5f bd ca 95 6e 3d
       0.12883613 0.070327684 -0.054663915 0.05824832
000270 33 7f 89 3b 1a b5 35 bd ac 39 22 3e 3a 48 bb 3d
       0.0041960715 -0.044362165 0.15842313 0.091446355
000280 d0 49 e8 3c fb e1 d3 bd 0e 5b aa bc dd c1 90 3d
       0.028355509 -0.10345837 -0.020795371 0.070682265
000290 4d ba 95 3d bc a6 01 3d 44 79 29 bd a4 ac f4 3c
       0.07310925 0.03165315 -0.041375414 0.029867478
0002a0 d1 70 38 bd e6 23 97 3d 31 6a b2 bd e1 e5 93 bd
       -0.045029465 0.07379894 -0.08711661 -0.0722158
0002b0 ef d8 0d bb c0 80 b5 3d 38 ad 7c bc 21 37 6b 3d
       -0.0021644195 0.08862448 -0.015422158 0.057425622
0002c0 d7 c9 01 bd fe 2b ee bd 8e 83 40 3d 63 cf ff bd
       -0.03168663 -0.116294846 0.04700046 -0.12490728
0002d0 24 ee c8 3c 16 90 93 3d ec 93 1e bd 3c 30 f4 bc
       0.024527617 0.072052166 -0.038715288 -0.029808156
0002e0 b0 9b 6b bd 3b aa 7a bd 44 aa 9d bd 37 0b 93 3c
       -0.057521522 -0.0611975 -0.07698491 0.017949684
0002f0 7e 18 bb bc 19 a7 ed bd 40 0b 5a 3d 66 b0 f7 bc
       -0.022838827 -0.11604137 0.053233385 -0.03023548
000300 d1 7b 8a bc 6d e7 56 bc ab c9 b5 bd 79 8a 0e 3d
       -0.016904743 -0.0131167 -0.08876356 0.034800027
000310 b3 56 59 bd 3a 3d c3 bd fb f0 47 bd 34 30 02 bd
       -0.0530612 -0.095331624 -0.0488138 -0.03178425
000320 35 88 0a 3e 7d b2 ce 3c e2 6f 4c 3d de df 51 bc
       0.13528521 0.025231594 0.049911387 -0.012809722
000330 b9 03 c9 3d d7 72 10 3d 37 d6 33 3d 70 96 10 3d
       0.09815163 0.03526577 0.043905463 0.03529972
000340 cd c4 20 3b e7 c1 09 3d ea cc 1c bd 2d 16 b5 3d
       0.0024531365 0.033632185 -0.03828136 0.0884212
000350 02 77 97 3c 2c cd 53 bd db 22 da bc 6f 29 a9 3d
       0.018489365 -0.05170934 -0.026627949 0.08259856
000360 4e ad c3 3d 99 f6 a0 bd d6 d8 39 bd 94 d4 13 3d
       0.095545396 -0.07859535 -0.045372806 0.036091402
000370 be 0c 17 3d 55 09 95 3d 91 e5 d0 bb ee 9e 86 3c
       0.036877386 0.072771706 -0.0063750227 0.016433205
000380 a2 32 c8 3d 67 28 9b 3d 24 d0 0f 3d e9 dc 84 3b
       0.097752824 0.075760655 0.035110608 0.004054655
000390 f9 78 22 3d d8 93 bd 3d 43 52 5f 3d d1 e3 a3 ba
       0.03966615 0.092567146 0.05452181 -0.0012503808
0003a0 80 23 cf bc 20 3b 88 3d 5a 87 d0 bc 40 61 ec bb
       -0.025285482 0.06651902 -0.025455166 -0.0072137415
0003b0 fa 5c 70 3d 46 9e 23 3d 2d 35 97 3d 4f e2 93 3d
       0.05868242 0.039945863 0.07383189 0.07220899
0003c0 24 14 02 bb 04 44 29 3b ed 84 a7 3d 41 2a ee 3c
       -0.001984843 0.0025827894 0.081796505 0.029072883
0003d0 2b 43 a7 bd cf eb 35 3c 00 11 bc 3d 73 c8 1e bc
       -0.08167108 0.011103584 0.0918293 -0.0096913455
0003e0 7f b8 70 bd 65 85 58 bb 09 94 ee bd 24 5a a2 bd
       -0.0587697 -0.0033038494 -0.11649329 -0.07927349
0003f0 91 ec 88 3d 38 25 9c 3d 75 e2 c7 bc aa 8b da 3d
       0.066857465 0.076242864 -0.024399975 0.1067117

bias f4 [16]
000000 6b b6 5c bc 80 ec 14 3c 80 62 4c 3d 7b 15 30 3d
       -0.013471226 0.009089589 0.049898624 0.042989235
000010 22 89 16 3d 80 fa 87 3d 12 98 39 bd 73 2f a0 3d
       0.036751874 0.06639576 -0.04531104 0.0782155
000020 73 83 bb 3d dc 8e 38 3c dd 84 ad 3c f4 18 99 3d
       0.09155931 0.011264529 0.021181518 0.074754626
000030 6a 2b 58 bb 5c 38 ef bc 1d de 8f bc c5 e7 43 3d
       -0.0032984861 -0.029201679 -0.017561967 0.047828455

weight f4 [120, 400]
000000 0a 54 86 3b 4d c5 d6 3c 34 2a c9 3c 7d fb b2 bb
       0.0040993737 0.026217127 0.024556257 -0.0054621086
000010 5a 8b 0c bc 5c dd 8d 3d 37 1c 8f 3d c8 2e 42 3c
       -0.008578146 0.069269866 0.069878034 0.011851974
000020 18 ff 8d 3c 11 d0 b8 bb cf d2 72 bd fd 6f 07 bd
       0.017333552 -0.005640038 -0.059283074 -0.033065785
000030 be e6 41 bd 4d 54 ea bc e2 83 c4 bd 9b 58 b9 3d
       -0.047339194 -0.02860465 -0.09595467 0.09050103
000040 52 93 bf 3d ee 14 d5 3d d3 b9 3b 3d 33 ea bd 3d
       0.09354271 0.10404383 0.045831513 0.092731856
000050 8a 26 1c bd 44 d3 37 bd 40 89 86 3c 3f fa 74 bd
       -0.03812269 -0.044879213 0.016422868 -0.059808966
000060 30 30 95 bd 04 27 0c 3c 45 ee 09 3d 63 47 55 3d
       -0.07284582 0.008554224 0.033674497 0.052070033
000070 54 4a 04 bd 93 7b a2 3d af ab c2 bb 03 81 7f 3d
       -0.032297447 0.07933726 -0.0059408764 0.062378895
000080 9a f3 cc 3c c2 71 58 bb 34 5d f6 3c 6a 72 37 3d
       0.025018502 -0.003302679 0.03007374 0.044786848
000090 55 ae 60 bd 14 4f 81 3c d7 cf 4d bd 74 40 19 3d
       -0.054853756 0.015784778 -0.05024704 0.037414983
0000a0 9a 73 c2 3a b8 1e f2 3c c8 82 41 bc bd 77 d1 3c
       0.0014835477 0.029555663 -0.011810966 0.025569791
0000b0 4c 61 23 3d 0f 9a 5b 3d 82 78 54 bd 91 73 c8 3c
       0.03988771 0.05361372 -0.051872738 0.024469169
0000c0 3d 40 d6 3c ec c1 ad 3d 9d cc b5 bd 71 a0 02 3e
       0.026153678 0.08484253 -0.088769175 0.12756516
0000d0 02 68 43 bd 6d c4 9d 3d ae 0a bd bc 48 01 ac bd
       -0.04770661 0.07703481 -0.023076382 -0.08398682
0000e0 9c 99 85 3d ba d4 86 bd 61 d5 be 3d f2 cb f8 bc
       0.06523439 -0.06583543 0.093180425 -0.030370686
0000f0 2b fc 99 bd 4e e9 d6 3c bd dc a9 bd e5 22 3d 3d
       -0.075188 0.026234295 -0.082940556 0.046175856
000100 b0 ab a6 bc a7 b2 15 bd f7 40 02 3e 40 a5 be bd
       -0.020345539 -0.03654733 0.12720095 -0.09308863
000110 f1 86 f5 3d 52 65 a5 bd e8 0f b5 bd 10 18 96 3d
       0.11988629 -0.08075966 -0.088409245 0.07328808
000120 d1 af cc bd 12 40 94 3d 64 fb c6 bd b0 fc b2 3b
       -0.09994472 0.07238783 -0.09715918 0.0054622516
000130 4d 74 9f bd c6 92 6c 3c e4 47 5b bd 53 a3 55 bd
       -0.077858545 0.01443929 -0.053535357 -0.05215771
000140 41 9e b6 bc 8c 6c 32 bd 98 41 6e 3d 2f 72 7f bb
       -0.022292258 -0.04356055 0.058168024 -0.003897797
000150 4a 17 d6 3c bd 0e 90 bc 34 f8 95 bd 23 32 5e 3d
       0.026134152 -0.017585153 -0.073227316 0.054247033
000160 1b 0b 18 bd ad 18 c8 bc ea 48 b6 bc 94 a2 b1 bd
       -0.037119966 -0.024425829 -0.022251565 -0.086735874
000170 72 18 76 3d ce 06 9d bd e1 f2 0b 3d 78 0c 7a bd
       0.060081907 -0.076673135 0.034167174 -0.061047047
000180 03 e7 b1 bd 3f 3c de bc 43 f7 f8 bd 9d 77 25 bd
       -0.0868664 -0.027128337 -0.121565364 -0.040397275
000190 49 0e dc 3c aa b7 08 3c 6e 75 a8 3d 5f 0d 9c 3b
       0.02686228 0.00834457 0.08225523 0.004762336
0001a0 cd 74 70 3d 7d af a9 bd 41 90 96 3d 29 f6 74 bd
       0.05870514 -0.08285425 0.07351733 -0.05980507
0001b0 4e af 18 3d 03 94 71 bd 27 db 1a bc 65 c3 ea bc
       0.03727656 -0.058979046 -0.009451664 -0.028657624
0001c0 83 18 54 3d f7 ab 46 3c 36 4f a5 3d 7e a5 2b bc
       0.05178119 0.012125961 0.08071749 -0.010476468
0001d0 64 d3 e7 3d 7f 12 3e bd 46 58 c7 3d 71 c3 6b bb
       0.113196164 -0.046404358 0.09733634 -0.0035974646
0001e0 cb 4b 6b 3d 59 4b 4e 3d 1b 5f f0 3d 15 46 ef 3c
       0.05744533 0.050364826 0.1173689 0.029208222
0001f0 3e 97 a1 3d fa c6 5a bc 43 d5 d4 bc 71 aa 34 bb
       0.07890175 -0.013353104 -0.025980597 -0.0027567411
000200 20 66 42 3c e0 4b cf bd dd 83 4b bd 39 68 73 3c
       0.011865169 -0.10121894 -0.0496863 0.014856392
000210 8e 27 34 3d a1 7c 8a 3b d1 44 23 3d 27 62 ae bd
       0.043983035 0.0042262827 0.03986055 -0.08514815
000220 3d 65 b8 3b 36 3f 8d bc 6a d1 28 3d b3 ec 33 bd
       0.005627303 -0.017242055 0.041215338 -0.043926906
000230 4e 96 02 3d 74 60 44 3d 4c d7 a9 ba fc f2 8f 3d
       0.031881623 0.047943547 -0.001295784 0.070287675
000240 1d 48 1f 3d 44 88 c1 bc 4f 6f 11 bd 35 79 83 bd
       0.038887132 -0.023624547 -0.035506543 -0.06419603
000250 f3 79 f7 bc 5b a2 b6 bc 6b 2f a3 bd 8e cf 04 3d
       -0.030209517 -0.022294214 -0.07968029 0.032424502
000260 b2 dc 9d bd 4d cc 35 3d 4b 85 79 bd b6 91 f5 bc
       -0.0770811 0.04438429 -0.060918134 -0.029976707
000270 66 74 b3 3c 52 22 f2 bc 8d 7f 26 bd 96 f9 16 3b
       0.021906089 -0.02955738 -0.040648986 0.0023036948
000280 9b 64 c8 bd fa a7 fe 3c 51 0d 9d bc 66 7d fb 3a
       -0.09784814 0.031085957 -0.019171389 0.0019187152
000290 7a b7 c1 bd e1 74 f8 3b 22 13 24 bc a2 6e 09 3c
       -0.094588235 0.0075822924 -0.010014327 0.008388193
0002a0 ab 2c 17 bd a3 52 81 bc f5 56 e5 bd 44 7b bf bb
       -0.036907833 -0.015786475 -0.11198226 -0.005843552
0002b0 bf dc 8f bc 5c 10 11 bd 6a 2a 87 bd e0 50 94 3d
       -0.017561315 -0.035415992 -0.06599887 0.07241988
0002c0 8a 39 65 3d de e0 78 3d ca 0c 16 3d 99 93 64 3d
       0.055963077 0.060761325 0.03663329 0.055804823
0002d0 06 8b 00 3d b4 25 ce 3c 19 aa 8d bc ec 35 eb 3c
       0.031382583 0.025164463 -0.017293023 0.028712235
0002e0 0b 52 79 3d 24 f0 ae bc e6 5d 6b 3d ac 30 ac 3c
       0.060869258 -0.021354742 0.057462595 0.021019302
0002f0 d1 06 24 3d d5 c9 67 3d 50 b2 c8 bc 82 5c 96 3c
       0.040045563 0.056588966 -0.024499089 0.018354658
000300 9b ac 81 3c c9 fa 4d 3d 24 3a 93 bb 2d 9c 39 3d
       0.015829375 0.050287995 -0.004493015 0.045314956
000310 97 56 a0 3d c7 85 26 3d 58 e6 56 3d d3 59 93 3d
       0.07829016 0.040654924 0.052465767 0.07194867
000320 36 4d dc bb 97 60 e7 3d 32 05 2f bc 3e 37 ea 3c
       -0.0067230714 0.1129772 -0.010682391 0.028590795
000330 a0 3a 2b bc bb 5f 30 3c e0 8c 90 bc cd c5 fc bc
       -0.010450989 0.010765011 -0.0176453 -0.030856038
000340 93 56 0e bb 50 e3 6a bc f9 ec c0 3b 03 30 a2 3d
       -0.0021719083 -0.014336422 0.0058876243 0.07919314
000350 18 de 2b 3d e2 b0 d9 3c 25 b4 17 3c d6 6c 8a bd
       0.041959852 0.026573602 0.009259258 -0.0675904
000360 32 64 c8 bc 7d 18 c7 bc 31 74 d5 3c d1 57 09 3d
       -0.02446184 -0.02430367 0.026056381 0.033531014
000370 ca 5a e1 bb b5 3c 77 3d 67 55 81 3d 81 80 dc 3d
       -0.006877278 0.06036063 0.06315117 0.10766698
000380 50 c2 8b 3c 42 a8 8f 3c 9f ac 92 3d 12 74 91 3c
       0.017060429 0.017536286 0.07161831 0.017755542
000390 4c ad 4f bc a0 09 a0 3d f7 b3 37 bd de 93 cd 3c
       -0.012675595 0.07814336 -0.044849362 0.025094923
0003a0 cf 91 53 bd 69 53 30 3c 13 a1 6c bd ec c4 79 3b
       -0.051652726 0.010762074 -0.0577708 0.003811176
0003b0 cf 2a 41 3d 15 09 61 bc e0 72 dc 3c 6a 19 b0 bb
       0.047159966 -0.0137350755 0.026910245 -0.0053741233
0003c0 c1 e7 91 bd 64 26 9c 3d ef db ab bb 2f a6 74 b8
       -0.07124282 0.0762451 -0.005244724 -5.8328904e-05
0003d0 75 58 e8 bc 86 76 d0 3c f3 98 88 3d dc 6a 14 3b
       -0.028362492 0.025447141 0.06669798 0.00226467
0003e0 70 aa a9 3d fb 5d aa 3d 1e c5 d9 bd fc 2b e4 3c
       0.082844615 0.083187066 -0.106333 0.027853005
0003f0 3c 18 2f bd c1 23 eb 3c a5 fb a7 bd 78 71 0c bd
       -0.04274772 0.028703572 -0.08202294 -0.0342879

bias f4 [120]
000000 f7 5e 9f bc 1e 1e ca ba 33 8e db 3b d2 d7 7e 3d
       -0.019454462 -0.0015420353 0.006700301 0.06221754
000010 3f ef a9 3a 50 dc 7b 3a b7 63 ba 3c 9c 9e c2 3b
       0.0012964978 0.0009607719 0.022752626 0.005939318
000020 cf 0c 42 3d 8f 2e 24 bd ea a8 d8 3c 1e eb 03 bd
       0.047375496 -0.040083464 0.026447732 -0.032206647
000030 d8 6a 85 3b c4 76 d8 bc 2a e9 cf 3c f0 8c 3c 3d
       0.0040715747 -0.02642382 0.025379736 0.046032846
000040 6e 05 da 3c 08 65 ae 3c 6b 35 4f bd 89 d3 3c 3c
       0.026613917 0.02128841 -0.050588053 0.011525043
000050 16 11 89 3c 04 07 d2 3c 5e 52 ab 3c 28 dd ec 3c
       0.01673178 0.025638111 0.0209133 0.02891405
000060 1e b0 39 bc 2a 86 51 3d c6 15 f6 3c 01 de 18 bd
       -0.0113334935 0.05115334 0.03003968 -0.037321094
000070 31 bc ef bc 6f f1 ba 3c c5 d9 b7 bb e2 6a ef 3c
       -0.029264541 0.022820203 -0.005610677 0.02922577
000080 74 b9 18 bd 60 a9 25 bd 7f b4 9e bc fb 25 e1 bc
       -0.037286237 -0.04044473 -0.019373177 -0.02748393
000090 20 70 1f bd 28 a0 7c 3d 77 e1 63 bd af f2 2c bc
       -0.03892529 0.061676174 -0.055634942 -0.010555907
0000a0 a0 39 69 3d c8 1f 63 bc 85 97 5f bc af dd a3 3c
       0.05693972 -0.013862558 -0.013646965 0.020003168
0000b0 51 44 6a bb 71 4d 33 3c 22 48 27 3b 9c 18 d8 bb
       -0.0035746286 0.010943756 0.0025525172 -0.0065947305
0000c0 78 4c d0 bc a1 66 45 3d 1f 27 71 bb 25 20 79 bc
       -0.025427088 0.048193578 -0.0036797 -0.015205418
0000d0 5b 0a 13 3c dd 88 a6 bc 98 b2 51 bd 36 19 7d 3d
       0.008974637 -0.020328933 -0.05119571 0.06179162
0000e0 1f 66 5f b8 76 ee 3f bd 26 91 a4 bc a6 4e a0 bc
       -5.326245e-05 -0.046858273 -0.020088743 -0.019568752
0000f0 a5 b6 65 bd fc 1e 02 bd 95 b0 25 bd 13 f0 34 bb
       -0.056082387 -0.03176783 -0.040451605 -0.0027608916
000100 fa 6e 8c 3d 92 a3 e8 3c a2 3b 2b bc 25 6e a1 3c
       0.068571046 0.028398309 -0.010451229 0.019705841
000110 0c bf 06 bd e4 88 ff 3c ed 95 17 3d 58 8e 59 bc
       -0.03289704 0.031193204 0.037008215 -0.013278566
000120 14 37 85 bc c4 69 4f bd 66 c7 6b 3a 5f 0c 43 3d
       -0.016261615 -0.050637975 0.0008994251 0.04761922
000130 c0 43 03 3d 68 76 98 3d 24 d6 62 bd 80 66 0a 3d
       0.032047033 0.07444459 -0.05538 0.033789158
000140 d6 3c 57 bb 4c 30 b5 3b 89 c5 40 bd 29 c9 5f 3d
       -0.0032842658 0.005529439 -0.047063384 0.0546352
000150 78 32 1a bd 75 49 ef bc 73 eb e3 bc e4 61 28 bd
       -0.037645787 -0.029209832 -0.027822232 -0.04110898
000160 84 e1 7e 3d 9d f7 2c bb f5 46 27 3d c5 c0 1c 3d
       0.062226787 -0.0026392706 0.040839154 0.038269777
000170 ae 03 03 bc fa f9 8e 3d 0e 1c 19 bd d2 d3 2e 3c
       -0.007996483 0.06981273 -0.03738027 0.010670619
000180 cb 71 98 3d a2 c9 b6 3c 10 35 75 3d 64 ee 89 3d
       0.07443579 0.022312943 0.059865057 0.067349225
000190 33 18 86 3d 6a 8f 80 3d ed 0c 36 3c e6 1c d0 3c
       0.065475844 0.06277354 0.01111148 0.025404405
0001a0 6e c5 86 bb 3f 2e 00 3d 3d c4 c1 3c f7 af ed bc
       -0.004112891 0.031294104 0.023653144 -0.02901457
0001b0 90 81 6c 3c 42 d4 8f bc ff f1 a5 bb 28 9c 58 bc
       0.014435187 -0.017557267 -0.0050642486 -0.013220824
0001c0 ff d2 17 bd e8 20 15 3d 93 05 d9 3c a2 30 19 3d
       -0.037066456 0.036408335 0.026491916 0.037399895
0001d0 68 6f 85 3d 40 f2 7b 3d c5 84 9d bc 42 4f 52 3d
       0.0651539 0.061510324 -0.019228349 0.051345117

weight f4 [84, 120]
000000 72 39 d5 bd 03 7a dd 3c 20 94 f8 3c 13 d7 79 3d
       -0.104113474 0.027035719 0.030344069 0.060996126
000010 53 ef 5d 3d 63 70 67 bc 1b 76 6d bd dd 92 2e 3d
       0.054183315 -0.014125916 -0.057973962 0.04262053
000020 50 13 9d 3d 94 58 ae bd 73 a4 5d bd 1d f8 b1 3d
       0.07669699 -0.08512989 -0.05411191 0.08689902
000030 8d 87 b8 bd 2d ab 35 3d 74 95 e1 3c d0 36 02 3e
       -0.09010229 0.0443527 0.027537085 0.12716222
000040 f8 73 57 bc ef 25 d9 3c 93 d7 8a bd 26 5b 14 bc
       -0.013150208 0.026507346 -0.06779399 -0.009054935
000050 ba 4d 28 bd be f8 de 3d 38 65 bb bb 39 a1 4d 3d
       -0.04108975 0.108872876 -0.0057188533 0.050202582
000060 96 05 80 3d ea ee 42 bc 6b 8b 78 bd 88 9d a7 bd
       0.062510654 -0.011897782 -0.060679834 -0.081843436
000070 67 6e 52 3c 70 b9 df 3c d0 0c e9 3b ce cc 6c 3d
       0.012843705 0.027310103 0.007112123 0.057812504
000080 32 ba 1f bc 86 f3 86 3d c6 d0 7e bd 90 27 11 bd
       -0.009748982 0.06589417 -0.06221082 -0.03543812
000090 b3 ac be bd 04 df d2 3d f0 ab 35 3d 25 97 b8 3d
       -0.093102835 0.10296443 0.044353426 0.090132035
0000a0 b1 34 f8 3d 73 aa 19 3d 64 de 53 bd c6 27 84 bd
       0.12119425 0.03751607 -0.05172576 -0.06452899
0000b0 f3 c4 24 bd 55 e3 c4 bc 01 35 13 bc 72 c7 c0 3c
       -0.040226888 -0.024034182 -0.008984805 0.023532603
0000c0 ca d2 9e 3d 67 79 2c bd 47 28 0b 3d da 3f 57 3d
       0.077550486 -0.042107966 0.03397396 0.052551128
0000d0 cc 60 c3 bc d1 1d 40 3d fe 49 b5 bd d9 e0 94 bd
       -0.023849867 0.046903435 -0.088520035 -0.07269449
0000e0 2d 44 a4 bd 66 65 0c bd 41 b2 b6 3d 88 ee 10 bc
       -0.08020816 -0.03427639 0.08920718 -0.008845933
0000f0 2b 05 82 bd bb 6a 1d bd 45 1c 7a 3d e3 91 4c 3d
       -0.06348642 -0.038431864 0.061062116 0.049943816
000100 64 ff 32 3d 1d 7e ac 3d d4 d7 34 bd e1 a1 1e 3d
       0.04370059 0.08422492 -0.044151142 0.0387286
000110 93 48 d3 bd d1 bb 0f bd b8 53 8c bd a9 93 a5 bd
       -0.10316577 -0.035091225 -0.068519056 -0.080848046
000120 61 14 d5 ba b8 fc 9e 3c 13 70 50 bd 71 36 1e bd
       -0.0016256684 0.019407615 -0.050888132 -0.038626138
000130 73 15 80 3d f8 1e b0 bc 80 07 49 3d b5 96 b5 3c
       0.06254091 -0.021499142 0.04907942 0.02216659
000140 8a 8c bb 3d 89 98 fa 3c 69 1b a1 bd 59 8e 82 bc
       0.09157665 0.030590313 -0.07866556 -0.015937017
000150 a9 cb c6 bc c8 1a d0 3d d8 b5 d1 3c 30 9c 16 3d
       -0.024267035 0.10161358 0.025599405 0.036770046
000160 d9 11 91 bd f2 54 ae 3d 10 27 b9 bc 44 f9 c5 3d
       -0.07083482 0.08512296 -0.022601634 0.09666684
000170 7d 31 38 bc f7 4d 7c 3d 90 f2 bf 3c 24 5e 12 bd
       -0.011242268 0.06159779 0.023431093 -0.03573431
000180 7d a5 40 bd e3 ea 74 bc fd 81 1d bd 85 d6 12 bc
       -0.047032822 -0.0149485795 -0.038454045 -0.008962278
000190 5c 23 dc 3d b8 74 3f bc 65 96 bd bd 83 fb 0a 3e
       0.10748932 -0.011685543 -0.09257201 0.13572507
0001a0 dd 9f ac bd e1 47 d9 ba 3e f0 c3 3b 39 a8 e6 bc
       -0.08428929 -0.0016577208 0.005979567 -0.028156387
0001b0 78 a5 97 bd 48 95 49 bd 25 f8 1e 3d e8 6a a0 bd
       -0.074046075 -0.04921463 0.038810868 -0.07832891
0001c0 5f be 82 3d e4 d9 9d bc 16 51 93 bd 35 40 59 bd
       0.06383967 -0.019268937 -0.071932 -0.05303975
0001d0 07 61 92 3d 60 34 a8 3d 56 f8 72 3c 72 ab a4 3d
       0.07147413 0.08213115 0.014829716 0.08040513
0001e0 2a 41 eb bd de c6 05 bc 61 17 94 3d ce 42 09 bd
       -0.114870384 -0.008165089 0.07231022 -0.033510976
0001f0 13 2f 8a bd 59 8f 60 bc e1 19 96 3d 30 61 f1 bd
       -0.0674726 -0.013706052 0.07329155 -0.11786115
000200 6a 36 97 bd 53 f8 f4 3d 46 50 48 bd ea 27 0a 3e
       -0.073834255 0.119614266 -0.04890468 0.13491789
000210 9c b1 57 bd f9 f0 39 bd dd c7 38 3d 23 74 54 bd
       -0.052659616 -0.045395825 0.04511248 -0.05186857
000220 87 f5 ab bd fb 48 2d 3d 39 01 81 3d bb 4c 98 bd
       -0.0839644 0.042305928 0.06299061 -0.0743651
000230 d6 bc a3 3d 42 db 53 bd c3 12 2f 3d 73 b2 2e 3d
       0.07995002 -0.051722772 0.042742502 0.04265065
000240 3d 31 a8 bd d5 b9 d3 3d 84 93 4a bd ad 9f a8 3d
       -0.082125165 0.10338179 -0.049457088 0.08233581
000250 1a 5e d2 3b 03 73 82 bd 11 9d 9f 3d 18 2f cf 3c
       0.006419909 -0.06369593 0.0779363 0.02529101
000260 71 1b 10 3d a0 7c 0f 3d 7c 5e c6 bc c9 45 86 bd
       0.03518242 0.03503096 -0.024214976 -0.06556279
000270 ee b3 07 3e 86 0a 87 3c 8b 56 18 bd a7 c5 f6 3d
       0.13252231 0.01648451 -0.03719191 0.12049418
000280 db 00 81 bd c8 47 38 bd 6b 8a 5c 3d 9a 46 52 bd
       -0.06298991 -0.04499033 0.053842943 -0.051336862
000290 4c 6f fe 3c 7c 13 b1 3d ba 44 f0 3d c0 32 99 3d
       0.03105893 0.086462945 0.117318586 0.07480383
0002a0 f5 33 9e bd f3 94 c5 3c c6 ee 92 3d ef e1 72 bd
       -0.07724754 0.024118876 0.07174449 -0.0592975
0002b0 5d e1 c5 bd 97 d3 d8 3d f1 8d 70 bc eb f5 e4 3d
       -0.09662125 0.105872326 -0.014682279 0.11179718
0002c0 b7 eb 89 3c f3 4f 51 3b 17 f3 b4 3d b7 44 b4 3d
       0.01683603 0.0031938523 0.08835428 0.08802169
0002d0 b9 56 eb 3d 29 f8 79 3d 63 4e 46 3d 35 38 86 bc
       0.114911504 0.06102768 0.0484146 -0.016384223
0002e0 f0 aa 14 bc 2e 25 40 3c b9 ce 70 3d 02 50 e2 3d
       -0.009073958 0.011727614 0.058790896 0.110504165
0002f0 b9 e5 ab bc 92 88 89 bd 94 86 95 bd bc 7d 45 3d
       -0.020983564 -0.06715502 -0.07301059 0.048215613
000300 de ad fe 3b 5c b1 ab 3d f2 38 b4 bc e9 7b c5 3a
       0.0077721914 0.08383438 -0.02199981 0.0015066835
000310 66 55 cf bd 9b d4 e9 bc 7b a9 fb bc 73 41 9a bd
       -0.1012371 -0.028543761 -0.030720463 -0.07532015
000320 8b e4 d8 3d e2 f8 90 3c 30 61 ec bb 5a 8b 9a 3d
       0.10590466 0.017696802 -0.007213734 0.075461105
000330 f1 bf 58 3d 9c e1 b7 bd be 24 2d bd c6 68 9c bd
       0.052917425 -0.089785784 -0.04227137 -0.076371714
000340 38 43 ba bd 27 d5 7c 3d 15 c5 46 bd 39 2d 7e 3d
       -0.09094852 0.061726715 -0.048527796 0.062054846
000350 3f b7 0b 3e 67 88 37 3c 3c 92 92 3b 66 93 95 3d
       0.13644122 0.011201954 0.004472999 0.07303505
000360 8b 20 dd bd 21 f5 02 3e fc 30 a1 3d 58 67 e5 3d
       -0.10797223 0.12788822 0.07870671 0.11201352
000370 0b 93 23 3d 30 0d 3d bb 3f 08 4a 3d c0 ba 87 3d
       0.039935153 -0.0028846972 0.04932427 0.066274166
000380 b5 2f 2a 3d f5 45 a0 bd 41 c6 44 3d 4d 94 4b bd
       0.041549403 -0.07825843 0.048040632 -0.049701978
000390 eb 10 de 3c 07 16 e6 bc e3 6c ca bb 1f 79 92 3c
       0.027107676 -0.028086675 -0.006177531 0.01788002
0003a0 4f c1 e6 bd bf 6f 83 3d d6 9f 81 3c 6a bd 0c bd
       -0.112673394 0.06417798 0.015823286 -0.034360327
0003b0 98 78 09 3e c2 7b 1c bd 8e 02 b5 bd cb d4 c2 bd
       0.13424909 -0.038203962 -0.08838378 -0.09513243
0003c0 2f d1 02 bc cc 23 f4 b9 af 2d b9 bd af 81 ca b9
       -0.007984444 -0.00046565977 -0.090419166 -0.00038625064
0003d0 f4 30 bf 3d e0 00 f0 3d 8c 65 1a 3e d0 ff 8c bd
       0.09335509 0.11718917 0.150778 -0.0688473
0003e0 bb 5f 3d 3d fa cc a0 bc 58 63 15 3c ba 0d cd 3d
       0.046233874 -0.01962899 0.009117924 0.10012384
0003f0 80 72 1c bd 84 84 65 3d 02 0e e3 bc 71 f3 30 3e
       -0.038195133 0.05603458 -0.02771664 0.17280366

bias f4 [84]
000000 78 79 b3 bc b5 61 a0 3d cd a0 43 bd a8 60 49 bd
       -0.021908507 0.07831136 -0.047760773 -0.049164444
000010 78 15 c1 bd e7 52 2e bd 17 b1 1f 3d 14 0b a8 3b
       -0.09427923 -0.04255953 0.038987245 0.0051282737
000020 b2 73 20 bd 1a 6c 37 3d 33 46 8b 3d 6a 12 93 3d
       -0.039172836 0.044780828 0.06800499 0.071812466
000030 0a 3a ab bd bf 3d c1 3d 45 b4 09 bd 31 ff d2 3b
       -0.083606794 0.09435605 -0.033619184 0.0064391126
000040 64 2f fd 3d 64 c1 27 3d d4 af 3a 3d a1 d3 63 bd
       0.12362555 0.040955916 0.04557784 -0.055621747
000050 e0 d8 8b 3d d3 95 ba bc 2c 43 d7 3d 71 d9 d9 3c
       0.06828475 -0.02277652 0.10510859 0.026592942
000060 9c ed 82 3d 6d f8 a5 3c 16 b8 88 3d 4e 1f 14 3d
       0.06392977 0.02026006 0.066757366 0.036162667
000070 07 8f 91 3d e0 7b 62 3d 32 08 fe 3a 3f bd aa 3d
       0.071073584 0.055293918 0.0019381105 0.08336877
000080 89 83 cb 3d d6 24 84 bd b4 47 cb 3c 2b 15 8d bd
       0.09937198 -0.064523384 0.024814464 -0.06888803
000090 4f d2 59 bd 30 b1 4c 3d b2 7b 83 3d 74 e2 fe 3d
       -0.05317908 0.049973667 0.064200774 0.12445536
0000a0 18 13 b8 3d d8 e1 4d 3d 31 25 da 3d a1 5c 2a bd
       0.08988017 0.05026421 0.10651625 -0.041592244
0000b0 cf 55 a4 bd 0c 89 83 3d 9a 96 96 3d ec 5b b1 3d
       -0.08024179 0.06422624 0.07352944 0.08660111
0000c0 1a 93 5f 3d e9 9d 9e bd 47 aa 5b bd c3 af 6a 3d
       0.054583646 -0.07744963 -0.053629186 0.057296526
0000d0 3f af 23 3d 1e 7d 0f 3d 2c 13 3b 3b d6 dd 83 3d
       0.03996205 0.03503143 0.0028545363 0.06438796
0000e0 8f cf 43 3b f1 e8 b6 3d 4a 2b 6b bd 58 63 9d 3d
       0.0029878353 0.08931149 -0.05741433 0.07684964
0000f0 25 1a 8f 3d 4f 4a ee bc a4 0d 7e 3d 4e bb 63 bd
       0.069874085 -0.029088167 0.062024727 -0.05559855
000100 ed b3 a8 bd 82 65 39 bc 13 f9 78 3d 91 98 2c bd
       -0.08237443 -0.011315705 0.06078441 -0.042137686
000110 e0 cd f5 bc d4 36 4d 3c 62 04 f3 bb b4 9e b8 3d
       -0.030005395 0.012525279 -0.007416294 0.09014645
000120 7f ba 74 3d db 22 a1 3d ae 27 c4 bd 1a 4e 96 3d
       0.05974817 0.07867976 -0.09577881 0.073391154
000130 5b 8e 0b 3c d8 27 29 bd 5d 52 15 bd 21 1d 03 3c
       0.008517827 -0.041297764 -0.0364555 0.00800255
000140 bc 21 3b bd eb d4 32 3d ac ae cd bc cb d7 69 3d
       -0.04568647 0.043660086 -0.025107704 0.05709056

weight f4 [10, 84]
000000 96 5c 26 3d 0d 53 05 bd 3e 72 4f be d2 70 25 bd
       0.04061564 -0.032549907 -0.20258424 -0.040390797
000010 ce 10 15 bc c2 8f 98 3d cf c5 90 3c 66 78 e7 bd
       -0.009098245 0.074492946 0.017672447 -0.11302261
000020 08 22 2b bb 96 d9 c8 3d 3a 7c f1 bc 90 24 3f bd
       -0.0026112814 0.09807126 -0.029478181 -0.046665728
000030 36 43 a9 3d d0 86 0e be 0d 2b bf bd 02 e1 07 3b
       0.082647726 -0.13918614 -0.09334383 0.002073348
000040 52 66 0a 3e 82 93 f3 bd b4 76 1e 3d 4b 33 36 bd
       0.13515595 -0.11893369 0.038687423 -0.04448251
000050 a9 b2 c6 bd 87 65 9d bc 20 cf 08 3e 65 c8 e2 3b
       -0.097020455 -0.019213451 0.13360262 0.0069208615
000060 5a 6c e5 3d 69 26 37 3d 66 67 d4 bd 10 91 6a bd
       0.11202307 0.044714365 -0.10371284 -0.05726725
000070 7c 8c 79 3d 5b ee e7 bd e1 f2 bd bd 36 06 44 3d
       0.060924992 -0.113247596 -0.09274841 0.047857486
000080 62 88 09 be d5 dd c2 bb a1 72 ad 3c 92 26 89 3d
       -0.13430932 -0.0059468546 0.021172823 0.0669681
000090 7c 38 1f bc 39 d3 f1 3d 35 0c 83 3d 23 b1 07 bd
       -0.009718057 0.11807866 0.06398813 -0.033127915
0000a0 53 4f ba bc ff 86 4e 3d fd 89 57 3d cb bb 32 bb
       -0.022742903 0.05042171 0.05262183 -0.0027272578
0000b0 60 35 cb 3d 9b 48 51 3d 07 3b b9 3d 84 be ed 3d
       0.0992229 0.051094633 0.09044462 0.116086036
0000c0 51 2c 24 bd f0 b6 15 3d dc f3 c1 3d 44 a8 03 3e
       -0.040081326 0.036551416 0.094703406 0.12857157
0000d0 04 6d ca 3d a2 63 4f 3d 9b c5 02 3e 43 3d 8c bd
       0.09884074 0.050632127 0.12770693 -0.06847622
0000e0 77 12 33 3e 61 ff 13 bc ad c7 3c 3d 5a fb 1e bd
       0.17487513 -0.009033055 0.046088863 -0.038813926
0000f0 2f 03 a1 bd 32 d5 06 bb b2 ee 4a 3d b8 b5 ad bd
       -0.07861935 -0.0020573852 0.049544044 -0.08481926
000100 42 13 ab bd 8b 87 31 3d 29 84 22 be 5e 67 ad bd
       -0.083532825 0.043342154 -0.15870728 -0.08466981
000110 e9 b9 e1 3c 22 5e c1 bd 11 04 d6 3d 5e 4e 25 be
       0.02755447 -0.094417825 0.10449994 -0.16143176
000120 39 53 15 bd 7d b7 10 bd ef 69 69 3c eb 11 c7 bd
       -0.03645632 -0.035331238 0.014246448 -0.097202145
000130 18 6b 6a bd 29 f3 94 bd fb b6 2f be 56 1c 4b bd
       -0.05723104 -0.072729416 -0.17159645 -0.04958757
000140 ba 0d c4 3d ff d8 17 3e f0 c5 af 3d d3 ea ca 3d
       0.09572931 0.14828871 0.085826755 0.099080704
000150 57 06 b3 bd 3d 2c b4 bc c5 32 39 be 33 f7 62 bc
       -0.087414436 -0.02199375 -0.18085773 -0.013852882
000160 61 1e 3c bd c3 97 03 be 9f 8e 11 3e ae 30 ff bd
       -0.04592741 -0.12850861 0.14214562 -0.12460457
000170 8b dc fc bd 78 af 8c 3d 3d 91 8a bd 52 fc 86 3d
       -0.12346753 0.068694055 -0.06765983 0.06591095
000180 1f f0 24 3d 01 44 11 be e4 03 f5 bd ab 1b e3 3d
       0.04026806 -0.14186098 -0.11963633 0.110892616
000190 8a 19 5b 3d 54 e3 da 3d b2 68 d3 bd ab fc 22 3c
       0.053491153 0.10687891 -0.103227034 0.009947936
0001a0 43 76 a6 bd 5a 91 80 3c 75 19 83 bd 47 cf 8b bd
       -0.081280254 0.015694309 -0.0640134 -0.068266444
0001b0 cd fb f3 bd d9 66 cd 3d 4f 33 d9 3c 94 a4 e4 bd
       -0.119132616 0.10029382 0.026513724 -0.11164203
0001c0 a4 88 ca bd e8 c3 72 bd 5b 55 51 bd 19 ab 24 3d
       -0.098893434 -0.059268862 -0.051106792 0.040202234
0001d0 be 24 96 3c b7 19 1f bd 72 3e 8d bd 31 fd 92 3d
       0.018328067 -0.038842883 -0.06896676 0.07177199
0001e0 e3 2c 82 3d f8 90 4d 3d f4 30 9f 3d 01 09 97 3d
       0.06356218 0.05018708 0.07773009 0.07374764
0001f0 de e4 fa bc 53 ae 8b 3d 76 c1 f2 3d 81 4a 65 3d
       -0.03062671 0.06820359 0.11853306 0.055979256
000200 f4 01 af 3d ac 15 b4 3d 50 04 1b 3d d9 79 85 3d
       0.085452944 0.08793196 0.03784591 0.06517381
000210 61 04 ed bc 63 90 2a bd 15 17 fc 3c e3 23 b1 3d
       -0.028932752 -0.041641604 0.030772725 0.08649423
000220 b7 84 f1 bd 19 d1 b5 bb d3 3a 86 3d d6 7f 0e bc
       -0.117928915 -0.005548608 0.065541886 -0.008697471
000230 8b 6c 45 bd 53 a9 d1 bd 8e 10 5c 3d a4 04 fd 3d
       -0.048199218 -0.10237374 0.053726725 0.12354401
000240 01 cb 1c 3d 49 82 04 bd 80 da 97 bd 37 8f 6f bc
       0.038279537 -0.032350812 -0.074147224 -0.014621547
000250 3d 8b 49 3d 4e 01 13 bd e2 32 17 bd 4d 56 ee 3c
       0.049205054 -0.035889916 -0.03691376 0.029093886
000260 b3 ec 3f 3c 61 27 72 3d c1 d0 2a bc 6f 74 02 be
       0.011714148 0.059119586 -0.010425747 -0.12739728
000270 a0 90 ff 3d e9 01 fc 3d 61 ff b3 3d 09 38 ee bd
       0.12478757 0.12305052 0.08788944 -0.116317816
000280 6d c0 9d bc a7 0b 71 3d b9 38 3e 3d d4 90 c9 3c
       -0.019256795 0.058849003 0.046440814 0.024605192
000290 da 94 80 3d ee 6c 96 bd de eb 8b 3c 22 80 8b 3c
       0.06278391 -0.073449954 0.017080244 0.017028872
0002a0 87 67 29 bb dd 14 3a bd a8 d5 6f bd 47 a0 0c 3d
       -0.002584906 -0.045430053 -0.058553368 0.03433254
0002b0 6e 9a 8a bd 9b f6 93 3d e4 f1 4b bd 17 90 ca 3d
       -0.067677364 0.07224771 -0.04979123 0.09890764
0002c0 ec be 92 bc 64 15 f0 3c 86 3e 60 3d 68 a4 89 bd
       -0.017913304 0.029307075 0.054747127 -0.06720811
0002d0 99 62 0f 3d 09 10 86 3d 7b 57 83 bc aa b1 9e 3c
       0.03500614 0.06546027 -0.016032925 0.019371826
0002e0 27 ff 0e 3e d9 52 ad bd 1b 30 bd bc c9 ad 0a be
       0.1396452 -0.084630676 -0.023094228 -0.13542856
0002f0 83 4b f3 bc cf a4 9a 3d 43 6f b5 3b 76 ac 06 bd
       -0.029699093 0.07550966 0.005536945 -0.032879315
000300 88 db ce bd c8 9b b5 3d c7 65 95 3d 5f db 6d 3d
       -0.10100466 0.088676035 0.07294803 0.058070537
000310 1a 62 43 bd 46 30 b3 bd 67 ce 7a bd 80 ca f3 bd
       -0.04770098 -0.08749442 -0.061231997 -0.11903858
000320 33 95 1d b9 df 7a 55 3b 14 63 bc 3d cc 99 10 3c
       -0.00015028268 0.0032574458 0.09198585 0.0088257305
000330 35 bb 0d 3d 69 98 5e bc 79 c2 63 3d 56 32 10 3e
       0.034602363 -0.013586142 0.055605385 0.14081702
000340 b4 62 10 3c 64 26 68 3d 7f 16 e2 bc 0b 12 cf bc
       0.008812595 0.056677237 -0.027598618 -0.025277158
000350 33 5d 50 3d 12 d5 c7 3d 98 3a 0b be a5 e0 d6 bd
       0.05087013 0.09757437 -0.1359657 -0.10492066
000360 17 0f 8a 3c 90 ad 00 3d 61 0a f5 3a 25 62 e5 bd
       0.016852899 0.031415522 0.001869511 -0.1120036
000370 f7 7f 98 bd fd ce a1 3d 82 6e b0 bd 1b 12 83 3d
       -0.07446282 0.07900808 -0.08614828 0.06399938
000380 0b 7d 4c bd c6 91 6a bd 14 bd b2 3d 7a 8e 71 3d
       -0.049923938 -0.057267927 0.0872747 0.058973767
000390 83 8b 0a bd a4 58 ad 3d 98 ca e3 3d 9a 7e 61 3d
       -0.033824455 0.084641725 0.11122626 0.055052377
0003a0 a2 9a be bc b3 af c9 3c 76 f3 d9 3d b5 e0 b2 bc
       -0.023267094 0.024619913 0.106421396 -0.021835664
0003b0 19 dc 73 bd aa ec 04 3e 6a f8 a7 3d 2e 40 37 3d
       -0.059536073 0.12980905 0.08201678 0.04473894
0003c0 09 27 a9 bd 9a 23 0e 3c 19 f7 78 bd e4 de 92 3d
       -0.082593985 0.00867548 -0.060782526 0.07171419
0003d0 ae f7 1e bd 16 d5 66 3d d5 87 87 bd 3c 1a b5 3d
       -0.038810425 0.05635556 -0.06617705 0.088428944
0003e0 10 2a 34 bc 3a 78 97 bd da b2 bd 3d e8 cc b3 3d
       -0.010996357 -0.07395978 0.09262629 0.08779317
0003f0 4b 71 b2 3c 6e e1 de bd f8 7c 5e bd e1 7c 2f bd
       0.021782538 -0.10882841 -0.0543184 -0.042843703

bias f4 [10]
000000 9c c1 b3 bd 5c fc cf bd 77 17 ad bd ed 8c be 3d
       -0.087771624 -0.101555556 -0.08451741 0.09304223
000010 84 a8 b8 3d 24 15 ae bd 64 7d 8d 3d 1f 95 65 3c
       0.09016517 -0.08500126 0.06908682 0.014012604
000020 22 fe ef bc 46 3d 62 3d
       -0.029295985 0.055234216
