cifar-10/cifar-net.pt (torch_old, 260471 bytes, 10 tensors)

weight f4 [6, 3, 5, 5]
00000000: 98d6 263e c69d 333e cef2 023d 0851 733d
00000010: ee8b 663a d8fa 543d be28 3b3d b070 343e
00000020: 393d 3d3e 52d2 0e3e 91e2 503e 862b fc3d
00000030: dbc4 9f3d 8dcf 973d 2f7d 073e aa7b 333e
00000040: 98f1 a8bb 4578 253e 27fe 883d b052 053e
00000050: ab51 f53d 0b36 c43d 6952 1a3e 62e5 3238
00000060: 1d70 183d 6419 733c 10b5 423d 74c7 a63d
00000070: 3904 cabd 1380 6dba 3548 5ebb e8a9 fe3c
00000080: bd75 b33b a6c6 003e 1800 9abc c7ea f5bc
00000090: b056 aa3d 9660 3e3e f8b7 f6bc a926 b33d
000000a0: 7526 ed3d 08f7 683d 53c0 003e 969c c1bb
000000b0: bd7e c63a 3790 e3bd d9f5 853d 9d4b 183e
000000c0: 5845 163e de27 b03d 79d5 30be bebc 8a3d
000000d0: 187d 07bd 88dd 2b3d ef38 29bd 7919 f9bd
000000e0: d5d0 b73b d30c 093e 2b63 aa3d 86bf cd3d
000000f0: 359d 07bc 2a7d 80ba b3b4 0b3e 6e1b 643c
00000100: ff9f 183e 708d 81bd bc1c 1f3e 7355 453e
00000110: d092 443e 5ee6 c63d 94fa aabc 0862 9cbd
00000120: c013 c1bc 5c5b 63bd 5f0e d63d d00c babb
00000130: 2276 7abd cf24 4c3d 3ccb 303b 0690 ae3d
00000140: c61e b2bc 7adb aa3c 8438 bebc 013e 04be
00000150: a24d 7dbd 4010 a0bd 94d9 2b3c 632a 11be
00000160: 7c30 30be 4952 1bbe 3f3f f23c d549 05be
00000170: 9917 27be 3f53 61bc 869e a6bc 3cbe 7f3c
00000180: 9db2 15be 4581 c4bb 3b8e ae3c 744a ecbd
00000190: 84c6 1f3c e8d2 9a3d 0243 203e fa89 c43d
000001a0: f061 063e 60f4 bbbd a3e3 07be b6b0 30bd
000001b0: 34a3 ec3b 0dcf 043d 60d9 a0bc 8f16 b0bd
000001c0: 97e3 9fbd d9b2 f03c 5bdf 11be e085 f5bd
000001d0: 6fc9 b1bd adf1 2bbd 31e7 04be d60e 97bd
000001e0: f0c2 7ebd 995c 87bd ef26 b9bd 4577 a33d
000001f0: acb2 8a3d dcf1 333e 2b04 5cbd 6ca2 413e
00000200: 1973 c13d 4863 0bbd 5a60 29bd 7a22 fa3d
00000210: fcfe a53d 654a 103d 923c 4abb 4069 f03c
00000220: 48f4 c93d b1e5 f13d af43 09ba f6a5 17bd
00000230: b62e f4bd c3c1 a93d eaf1 8abd 1b18 f93d
00000240: fb4c c83d c3fc b33d 4b02 97bd e24f bd3c
00000250: 143e 90bd 3968 123e 9c0d 86bd 8cd4 e2bd
00000260: 8ecc f0bd 6917 013d d9c1 9cbd b1e0 62bd
00000270: a211 943d 4423 ddbc 1517 303b 33f1 d9bc
00000280: d0c3 68bd 1677 9f3d dc69 0d3e f545 883d
00000290: bcb1 46bd 7446 adbc 75d3 65bc 1b56 d4bd
000002a0: 4099 0fbc e4f4 3bbd 5f02 9abc 6835 2d3d
000002b0: ef1f a2bd f6fd 73bc 2e32 51bd c224 e13d
000002c0: 8bfc 833d a3d0 e53d 8c27 1dbd 685f 5cbd
000002d0: 4efc 303e 5453 87bc 8d5e 483e ad8a fa3d
000002e0: 3fd3 303d 7cf2 ac3d 7374 3d3e 98c1 323e
000002f0: a016 813d 40cb 773d e75e 9d3d b6fc 2d3e
00000300: 5dd3 1a3d 1dc3 bc3c 60a8 663d c6eb 1d3e
00000310: 1ad9 1b3e 783f c13d 89b9 3b3e 95a3 ef3b
00000320: 082f 78bb 25cd d0bd 5f3a 8b3d 7e69 f5bb
00000330: ccc5 8fbc 51d7 4a3d 1ce7 033d a8f5 80bd
00000340: e690 e63d 1820 33bd 7d2f 3bbc b4e1 06bd
00000350: 53b1 763c 1572 5b3d d32d 573d a2c0 acbc
00000360: 4d5d f73d 62a2 f93d 086a 303e bf7b 6bbd
00000370: 7af6 c0bb 807f c63d bde8 cc3d cbc6 d83d
00000380: 3171 243d c199 93bd 2dff 4fbd 928b e83c
00000390: 0fed 13bd e722 36be 1263 1abe 0606 11be
000003a0: 2dcc d0bd 4d40 d73c c8ae b7bc f2f3 5ebd
000003b0: d87f d2bd e079 3bbd 7421 e5bc e44c ffbd
000003c0: d0c5 f3bd ee00 c2bd b0cc d8bd 1ce9 563d
000003d0: 0301 b63c 2bae d7bd fbc7 0cbe bbb0 f3bb
000003e0: 7351 12be 58cf 0c3d 4c45 183e 9db3 b23d
000003f0: eafc 313e 56f6 d3bb 6254 323e 3d2d d63d
0.16292799 0.17540655 0.031969838 0.05940345 0.0008794655 0.051997036 0.04569315 0.17621112
0.18480386 0.13947418 0.20398928 0.12312989 0.07801219 0.07412634 0.13231348 0.17527643
-0.0051557533 0.1615916 0.06689101 0.13019824 0.119784676 0.095806204 0.150705 4.2652136e-05
0.037216295 0.014837597 0.047535956 0.081435114 -0.09864087 -0.0009059917 -0.003391755 0.031086877
0.005476682 0.12575778 -0.018798873 -0.030019177 0.083173156 0.18591532 -0.03011702 0.08747608
0.11579601 0.056876212 0.12573366 -0.005908559 0.0015143972 -0.11111491 0.06541032 0.14872594
0.1467489 0.08601354 -0.17268933 0.06774281 -0.033078283 0.041959316 -0.04131406 -0.12163062
0.0056096115 0.13383798 0.08319696 0.10046296 -0.008277227 -0.0009802927 0.1364315 0.013922555
0.14904784 -0.06325805 0.15538305 0.19270878 0.1919663 0.09711908 -0.020871438 -0.076358855
-0.023568988 -0.05550705 0.1045196 -0.005677797 -0.061147816 0.04983979 0.0026976606 0.08523564
-0.02174319 0.020856608 -0.023220308 -0.12914278 -0.061841615 -0.078155994 0.010488886 -0.14176326
-0.17205995 -0.15168108 0.029571174 -0.13016446 -0.16317596 -0.013752758 -0.020339262 0.01560932
-0.14618917 -0.0059968554 0.021308055 -0.11537638 0.00975192 0.075597584 0.15650561 0.095966294
0.13123298 -0.0917747 -0.1327043 -0.043137275 0.0072216038 0.03242402 -0.019634902 -0.08598053
-0.07807081 0.029382156 -0.1424536 -0.11988425 -0.086809985 -0.041978527 -0.12978818 -0.073758766
-0.062197626 -0.066094585 -0.09040629 0.07981733 0.0677236 0.17572731 -0.053714912 0.18909615
0.09445781 -0.03403023 -0.041351654 0.12213607 0.08105275 0.0352272 -0.0030858857 0.029347062
0.09861046 0.11811388 -0.0005236221 -0.037023507 -0.11922972 0.0828891 -0.06784423 0.12162801
0.09780308 0.08788445 -0.07373484 0.02310938 -0.070430905 0.1429757 -0.065455645 -0.11075696
-0.11757766 0.031516466 -0.07654161 -0.055390064 0.07229926 -0.026994355 0.0026869227 -0.02660427
-0.056827366 0.07786386 0.13809913 0.06653968 -0.048509344 -0.021151759 -0.014027466 -0.10367986
-0.008764565 -0.045887843 -0.018799959 0.04228726 -0.07916247 -0.014892092 -0.051073246 0.10993339
0.06444653 0.11221435 -0.038367793 -0.053801924 0.17283747 -0.016519226 0.19567318 0.122334816
0.04317021 0.08444688 0.18501453 0.17456663 0.063031435 0.06049657 0.07684117 0.16990933
0.037799228 0.023042256 0.05631292 0.15421972 0.15219536 0.09435934 0.18332495 0.0073132017
-0.003786983 -0.10195378 0.06798243 -0.0074893823 -0.017550372 0.049521748 0.032202825 -0.06296855
0.11258106 -0.04373178 -0.011424896 -0.03293009 0.015056926 0.053575594 0.052533936 -0.021087948
0.120783426 0.12189175 0.17227948 -0.05749106 -0.0058887573 0.096922874 0.10005329 0.10584792
0.04014701 -0.072070606 -0.050780464 0.028386865 -0.03611475 -0.17786752 -0.15076855 -0.14162454
-0.101951934 0.026275778 -0.02242221 -0.054431863 -0.102782905 -0.045770526 -0.027970053 -0.124658376
-0.11902964 -0.094728336 -0.10585916 0.052468404 0.02221728 -0.10531267 -0.13748161 -0.0074368394
-0.14288883 0.034377426 0.14870185 0.08725665 0.17381635 -0.0064685745 0.17415002 0.10457847

bias f4 [6]
00000000: ea81 483e 07c7 0e3e 2e32 bd3d de3e d1bc
00000010: a200 28bd e631 2f3c
0.19580808 0.1394311 0.09238087 -0.025542673 -0.04101623 0.010693049

weight f4 [16, 6, 5, 5]
00000000: 1716 8fbd 27e0 8fbc d434 4fbd ffa3 61bd
00000010: e9c5 88bd de2f 333c a807 4e3d 5299 d6bc
00000020: 5ccb 933d c68d 1e3d 3101 343d 8f20 153c
00000030: 06c8 d73c 39ca 43bc 319a 58bd 176d cb3c
00000040: b801 a0bd 34bb 5dbd 4ee2 4f3d d5db 77bd
00000050: 6a6b 86bc ab0c d3bd 79bf b03c b3bc ba3d
00000060: 1a1f a6bc 4360 78bd f574 ecbd 2c5b 99bd
00000070: 6baa 213c 57bc b9bd be4b e0bd 097a 52bd
00000080: 6a33 a7bd af39 8ebb 9c6f 95bd 8676 d2bd
00000090: 0798 edbd 05c6 ecbc 012d 10bd 1b5b 6f3d
000000a0: ebd9 45bd 9f76 513d 19e0 85bd 34c1 85bd
000000b0: ce06 173d c52b d63c e066 b2bd f22d c8bd
000000c0: 0a5b 9cbd 4dfd 84bd 6d91 113c ca79 a93d
000000d0: 101a 103d ed18 b73d e16b 863d 1464 9c3d
000000e0: a88b c1bc f15e 993c 5421 b83d d0a9 b23c
000000f0: 176d a53d 5a51 cf3d 3723 d23d 3a73 c73d
00000100: 2c7b 0b3e fb4c 8d3d 8209 973d d8f0 0fbd
00000110: 51e7 113d 127d d83d c6cf 8b3d da14 ee3b
00000120: 3f53 343d 549c cf3c f88b e93d 7548 cf3d
00000130: 163e 063e b9bf 223e effe 9d3d b8ed 013d
00000140: fba4 973d 9796 0a3e 931e 713d 0c5f 9d3d
00000150: 518f f03d 6f94 1f3e bc10 4a3d e462 aa3d
00000160: 6bed 273e 6ddb 993c 958c 903d be30 103e
00000170: 3ff9 fa3d 7d26 9a3d 5c18 7d3d 605c b13d
00000180: 37a2 273e e1f8 273e 0a4f e73d 1097 f93b
00000190: 5241 e63d cbe0 8d3d 332f d23d 4970 0b3c
000001a0: bc36 f33d d695 debc e115 91bb 0a35 c13c
000001b0: 540d 323d 6772 893d 9c89 4b3d 4d64 563d
000001c0: 0448 a43d a001 9d3c 0f61 f43d ea6e e6bb
000001d0: 91e7 57bd f571 6d3c 31e3 3b3d 3b11 673d
000001e0: e6d9 723d 4594 ea3d 5b06 063c c144 573d
000001f0: ed4e 933d 6258 9c3a 0629 873d cc3f 7f3d
00000200: c5a6 963c 8d84 f5bd 9912 9f3d 30c4 b03d
00000210: 02a0 dfbb 2b23 993d 9766 a8bd 5c53 06bd
00000220: 236d 2ebb f3ca aa3d 0b3b 693d 0edc 903b
00000230: 7db9 8fbd d77d 883d 6694 a33d d346 a83d
00000240: 5008 52bd 81b1 4ebc 053a 17bc 58d2 8bbd
00000250: 8823 303d f91b 5ebd 4c5f 32bc 5ca4 a3ba
00000260: d2fb b0bc 005b 223d 7a3c ecbc 31bc fb3c
00000270: 0d41 57bc 3799 22bc acfd 15bd 3147 18bd
00000280: 2a3c 89bb 6169 a83d 7273 8c3d 2a2a 5b3d
00000290: 0f14 bf3c 3b78 8a3d 2a69 d03d b402 3a3d
000002a0: ea2e d83d 4dbd 633d 4bb6 17bc 024c 0dbd
000002b0: 8516 e73c bb51 8b3c 208a 97bd f761 983b
000002c0: 2db6 9bbb 1553 91bc 74bf 8f3d df0c 803d
000002d0: 6902 613c d6e7 0a3d 90c2 9abd e42c 77bc
000002e0: 9877 813d 865d 623c 0641 ae3c c5fa 16bd
000002f0: 6904 51bc 6b6f 4cbd 24ea eebd 332c 33bd
00000300: 02dd 8ebd 2ac4 a6bd 9a91 9fbd 360a 2c3b
00000310: 0bf3 ef3d 4170 d73d df5a f6bc 8c9c dbbc
00000320: fe77 8cbd 48d3 6f3d 4846 423c 3031 a2bd
00000330: 0763 ffbd 386e 97bd d13c 84bb a8fa bc3c
00000340: 3f57 6a3c 022f 90bd 79f5 c2bd 73cd b43d
00000350: 6c41 c53d 7020 98bd d1ab 69bd 984b 683b
00000360: 8dd2 dc3d f60c 5b3c 7118 a43d 52a7 39bd
00000370: dff1 f43c ddf1 50bd a2db 323d a186 babd
00000380: 0751 98bd 936a 5abd 1106 28bc 6c43 ad3d
00000390: 6bff 1bbd bc82 bdba 795f 8a3d 2ae9 7abd
000003a0: 7391 b5bc c4dd 8dbd 2233 da3d 42b6 eb3b
000003b0: 5041 34bd 871c 14be 74c6 8abd 5afa a83b
000003c0: 8e84 ad3c b969 24bd 56d5 9bbd 8b4a e2bd
000003d0: ad2c d83c 0e5f 803c e571 9cbc 0a45 593d
000003e0: 8c14 39bd 3e4c 373d 334d 02be 9a4c aabd
000003f0: cb00 babc d453 d1bd 312d 183c e6a1 7abc
-0.06986635 -0.017562939 -0.05058749 -0.05508804 -0.06678373 0.010936705 0.05030027 -0.026196156
0.07216522 0.038709424 0.04394645 0.009102001 0.026340496 -0.011950069 -0.052881423 0.024832292
-0.07812828 -0.05413361 0.05075293 -0.060512383 -0.01640864 -0.103051506 0.021575676 0.09118023
-0.020278502 -0.060638677 -0.11545745 -0.07488093 0.009867291 -0.09069126 -0.10951947 -0.051385913
-0.08164103 -0.0043403725 -0.072966784 -0.10276513 -0.116012625 -0.028903017 -0.03519917 0.058436494
-0.048303526 0.051138517 -0.06536884 -0.06530991 0.036871724 0.026143918 -0.08711028 -0.097743884
-0.07634552 -0.06493626 0.00888477 0.082751825 0.035181105 0.08940301 0.06563545 0.07636276
-0.023626164 0.01872203 0.08990732 0.021809489 0.08077448 0.101229385 0.10260623 0.097387746
0.13621205 0.068994485 0.0737486 -0.035141796 0.03562099 0.1057073 0.06826739 0.0072656693
0.044024702 0.025343098 0.1140365 0.10121242 0.13109621 0.15893449 0.0771464 0.031720847
0.074045144 0.13534008 0.05886705 0.076841444 0.117460854 0.15583967 0.049332365 0.08319643
0.16399162 0.018781388 0.07058064 0.14081094 0.12254571 0.07526872 0.06179081 0.08660197
0.16370474 0.16403534 0.112943724 0.007616885 0.112429276 0.069276415 0.10262909 0.008510658
0.11875674 -0.027171057 -0.004427657 0.023584861 0.043469742 0.06711274 0.04969178 0.052341748
0.080215484 0.019165814 0.11932575 -0.007032265 -0.052711073 0.0144925015 0.045870963 0.056412917
0.059289835 0.114540614 0.008180226 0.052555803 0.07192788 0.0011928196 0.065996215 0.0623167
0.018390069 -0.11988173 0.07767219 0.0863117 -0.0068244943 0.07477411 -0.082226925 -0.03279434
-0.0026615344 0.08339491 0.056941073 0.004420764 -0.07017801 0.06664627 0.07987289 0.08216634
-0.05127746 -0.012615562 -0.0092301415 -0.06827229 0.043002635 -0.054225896 -0.010886978 -0.0012484896
-0.021604452 0.039637566 -0.028837431 0.030729385 -0.013138068 -0.009924225 -0.036618873 -0.03717727
-0.0041880803 0.082232244 0.06857957 0.053507008 0.023324994 0.067612134 0.101763085 0.045412734
0.10555823 0.055600453 -0.009259771 -0.034496315 0.02820898 0.017006746 -0.07399392 0.00465035
-0.0047519417 -0.017739812 0.07018939 0.06252455 0.013733485 0.033912502 -0.07556641 -0.015086386
0.06321639 0.013816243 0.02127124 -0.036860246 -0.012757399 -0.049910944 -0.116657525 -0.043743324
-0.06975748 -0.08142884 -0.07791443 0.0026251203 0.11716279 0.105194576 -0.030072628 -0.026808046
-0.06858824 0.058551103 0.011857577 -0.07919538 -0.1247006 -0.073940694 -0.00403557 0.023068741
0.014303028 -0.07040216 -0.095194764 0.08828249 0.09631619 -0.07428062 -0.057048623 0.0035445448
0.10782347 0.013369789 0.08012474 -0.045325585 0.02990049 -0.05101191 0.04366649 -0.0910771
-0.0743733 -0.053324293 -0.010255353 0.08460125 -0.038085382 -0.0014458518 0.06756491 -0.06125752
-0.022164082 -0.06927064 0.10654284 0.0071933577 -0.0440076 -0.14464007 -0.06776133 0.0051567974
0.021181371 -0.040139887 -0.0760905 -0.11049374 0.02638849 0.015670326 -0.019097278 0.053044356
-0.04518561 0.044750445 -0.12724762 -0.08315392 -0.022705456 -0.10221067 0.009288118 -0.015297389

bias f4 [16]
00000000: d46d cabd 68c8 173d 4ed7 233d d847 7f3d
00000010: d06f cabd 8615 7c3d c0cc 00bb 8fc1 493d
00000020: a006 403d ee96 3b3b e8c6 bf3c 0e4a b93d
00000030: b9ea 6abb 8b2f d23d fd3f a53d f3b3 953d
-0.09884229 0.037056357 0.040000252 0.062324375 -0.09884608 0.061543964 -0.001965329 0.049256857
0.046881318 0.0028623897 0.023410276 0.09047328 -0.0035845472 0.10262974 0.080688454 0.07309713

weight f4 [120, 400]
00000000: 0078 ff3c d45b d3bc 8c87 383d ee62 413d
00000010: ceae f2b9 b955 e4bc d555 cd3c f190 a3bb
00000020: f7c0 33bd 932a f8bc cf67 963c 8d37 2b3d
00000030: 70ec f7bc e920 06bd 33d8 bc3b 1c66 d03c
00000040: eebc 98bc 0474 7c3d eec6 003b 5d9a 353d
00000050: f380 84bc 992e f13c 732a 02bd d26c 1f3c
00000060: 7791 44bc 1ce0 6c3c d1a8 7dbd 528f b8bd
00000070: bbef a3bc ea37 55bd 34ba 02bd 9ca0 82bb
00000080: 8d36 33bd 4cb5 7ebb be46 d8bc aabb da3b
00000090: 0cc9 a13c 0fcc 153b 0e2b 30bd 2f6f 3d3c
000000a0: 38f9 933c baab b2bc c342 043d c988 2bbd
000000b0: 7941 c0bc e0be 043c b3cc 983c d8d1 19ba
000000c0: 3c77 a93a f5b0 433d c9c9 5a3d db3e e63c
000000d0: 7edb b33c bf2a b03c 0310 3f3d 21d0 9d3d
000000e0: 4739 82bc 207c 473c 2830 803d 7c4f f43c
000000f0: c81a 6a3c 916a e83b c212 9c3c bfc6 ab3a
00000100: d682 ab3d 4091 5e3d 7345 7e3d bbc9 113d
00000110: 46f1 233d e435 8e3d e1fc 383b 61c3 b33c
00000120: e492 903d 21af 6abc eef2 083d e3df 923d
00000130: 8a01 923d 7e7c 833d 6b90 cc3b 8a9a 293d
00000140: c7ce d73c 2afe 293d e401 0e3d e4e7 63bc
00000150: e523 18bc c5e6 2dbc fda4 b0bc 74a7 8f3c
00000160: 6d11 d53c 1f7e 4cbb 4dd1 57bc 1b29 633d
00000170: 6179 20bc ffdc 793c 8f75 f73a 2028 a03d
00000180: e064 c73d b275 2b3c c531 653d 00da ba3b
00000190: bce5 a73d f6a7 563d 16a7 3b3d 15ba 0b3b
000001a0: 7ea1 043d 458c a63d ac92 61bc 97a1 69bc
000001b0: e9bb ad3c 4adc 8ebb 2851 803c 84ab b73a
000001c0: 0960 e43a d3f3 c9bc 682f 4c3d 939a a13d
000001d0: 098e 113c d66b a93a d74a 3cbd 4a3d c2bc
000001e0: 91b5 a43b 5415 203d 7226 993c 95ff 26bd
000001f0: f21d 4bbc 98d5 3dbd 1479 50bd 5f5e 2cbd
00000200: b996 ae3c b4ec bf37 c542 84bd d2f3 e53c
00000210: 1a40 3ebd 4db9 ba3c 3443 14bd 23d1 62bd
00000220: 57de 39bd 8833 11bc 978e 8e3b eecf 3cbc
00000230: c1b0 0ebd 7650 0f3c c3d1 a23c ec12 05bd
00000240: 5415 c0bc 6b07 cbbc e8e0 cbbc 4f93 c3bc
00000250: f6f8 5cbb 1d93 07bd 56f3 ca3c f18d b8bc
00000260: 76c7 023d b99a 443d c6fc 983d ecb8 1f3d
00000270: f9fd fd3c 5340 f7bc 3013 bcbb bd3d 343d
00000280: 0928 38bc 1afa 143d 6f4b 393c 0a3f 633d
00000290: e2c2 173c 8fa6 343d 5b49 0c3d 2474 903d
000002a0: 36d4 afbc 250e 403d a5b9 833c 0d19 b43c
000002b0: cd4c a33d 812a 8d3c c376 673d ddf6 54bd
000002c0: 9015 08bd 5a13 1b3c e430 eabc 6aa2 6fbb
000002d0: bb45 8bbc fac3 8bbc 9f82 a6bc 0f15 5ebd
000002e0: d315 da3c 2d91 efbc 4cff 0a3c 9854 55bd
000002f0: a29c 983c d61f 0dbc bda4 723c c0d7 f13c
00000300: c833 a63c a686 5cbd 4eef dabc 055e 163d
00000310: 507d c2bc f009 8b3d dae2 f53b bc43 23bc
00000320: 9095 ce3d 4d74 203d aab4 c03d fc93 343d
00000330: aced ba3d db53 903c 1ee8 94bc dcba 3b3d
00000340: 168f 413d 4513 f73c f865 f9bb 2fbe 6fbd
00000350: 1079 d23c ed89 9cbd 5753 753d a414 7b3c
00000360: 4c73 ac3c 3673 30b9 f7f0 743c a9a0 af3c
00000370: 8746 16bd ee39 03bd 15db 28bd b780 81bd
00000380: 9f7f a8bc 746e 79bd e4e5 82ba 5bd1 54bc
00000390: dbff 87bc e2fc 18bc d3b0 42bd f5ae 433c
000003a0: e4f6 e3bc 0e4e a8bc e0ef b6bc bbaf fabc
000003b0: c48d 503c 330e 5e3d 91e3 883d 2d61 863d
000003c0: 7a3e 343b 08ed ba3c 4c28 1f3d 3279 4abc
000003d0: 249f cf38 bb46 11bd 259a 10bd 6df2 063a
000003e0: c817 03bd 6dec 31bd 7e80 143d 3e27 253d
000003f0: 6629 3a3d eea9 02bc b281 b33d 315a 293d
0.03118515 -0.025800623 0.045051143 0.047213487 -0.00046288077 -0.027872907 0.025065342 -0.0049916436
-0.043885197 -0.030293738 0.018360047 0.041801024 -0.03026411 -0.03274623 0.0057630776 0.025439315
-0.018644776 0.06163408 0.0019649821 0.044336665 -0.016174769 0.029441165 -0.031778764 0.009730535
-0.011997572 0.014457729 -0.061928574 -0.09011711 -0.020011773 -0.052055277 -0.03191586 -0.0039864313
-0.043753196 -0.0038865386 -0.02640092 0.0066752033 0.019749187 0.0022857224 -0.04300981 0.011562153
0.018063173 -0.021810401 0.03229023 -0.041878495 -0.02346872 0.008102149 0.018652296 -0.0005867756
0.0012929211 0.04777618 0.053415094 0.028106144 0.021955248 0.021504758 0.04664613 0.07705713
-0.015896453 0.01217559 0.06259185 0.029823057 0.014288612 0.007092782 0.019051913 0.0013105496
0.08374564 0.05433774 0.06207795 0.035592776 0.04002502 0.069438726 0.00282269 0.02194375
0.07059267 -0.014323981 0.0334348 0.07171609 0.071292 0.064202294 0.006242802 0.041407146
0.026343716 0.041502155 0.03466977 -0.0139102675 -0.009285902 -0.010614102 -0.021563048 0.017535903
0.026009286 -0.0031203104 -0.01317246 0.055459123 -0.009794564 0.0152504435 0.001887964 0.07820153
0.09736037 0.0104650725 0.055955667 0.005702257 0.08198115 0.052406274 0.045813642 0.002132063
0.032380573 0.08132223 -0.013767879 -0.014259717 0.021207767 -0.0043597566 0.015663698 0.0014012908
0.001742364 -0.024652397 0.049849898 0.07890811 0.0088839615 0.0012925814 -0.04596981 -0.023710866
0.005026527 0.03908284 0.01869509 -0.040771086 -0.012397276 -0.046346277 -0.05089672 -0.042082187
0.021312105 2.2879198e-05 -0.06458048 0.028070364 -0.04644785 0.022793436 -0.036196902 -0.05537523
-0.045378055 -0.008862384 0.004350494 -0.011524184 -0.034836534 0.008747211 0.019875413 -0.03248875
-0.02344767 -0.02478381 -0.024887517 -0.023873953 -0.0033717728 -0.033099283 0.024774235 -0.02252862
0.031928502 0.047999118 0.07470088 0.038994715 0.031004893 -0.03018204 -0.005739592 0.04400419
-0.011240014 0.036371328 0.011309489 0.05548004 0.009262772 0.044104155 0.034249645 0.07053402
-0.021463495 0.04688849 0.016079733 0.021984601 0.07973633 0.017232182 0.056509744 -0.05199324
-0.03322369 0.009465063 -0.028587766 -0.0036565312 -0.017001024 -0.017061222 -0.020325957 -0.0542193
0.026621735 -0.02924403 0.008483719 -0.052082628 0.018629376 -0.008613547 0.0148097845 0.029521823
0.020288363 -0.05383935 -0.026725437 0.036710758 -0.023741394 0.06789005 0.0075038495 -0.00996488
0.100871205 0.039173413 0.09409459 0.04408644 0.091273636 0.01761811 -0.018177088 0.0458325
0.047255598 0.030160556 -0.0076110326 -0.058530983 0.025692493 -0.07643495 0.059893932 0.015324745
0.021051072 -0.00016827587 0.014950029 0.021438913 -0.036688354 -0.032037668 -0.041224558 -0.063233785
-0.020568667 -0.060896352 -0.0009986726 -0.012989367 -0.016601494 -0.009337636 -0.047531914 0.0119435685
-0.027827688 -0.020545032 -0.022331178 -0.030601373 0.012729112 0.05421276 0.0668403 0.065615036
0.002750306 0.022818103 0.03885679 -0.012357997 9.9001714e-05 -0.035467844 -0.035303254 0.00051478186
-0.0320051 -0.043438364 0.036255352 0.040320627 0.045449637 -0.007975085 0.08764972 0.04134578

bias f4 [120]
00000000: c73b 52bc 2b0b 32bc 7470 793d 75a7 bf3d
00000010: 7fa2 a83c 6f9b 4dbd 938a 133d dc3d 2ebd
00000020: 5d9a 903d 591d 3dbc 7de0 e43c ab79 033d
00000030: 6f9d cdbc c429 e5ba 55ba 39bd 6146 04bd
00000040: 2b90 0dbd 2108 053c ccc9 3abc c494 353d
00000050: ca57 3abd 8ffb b6bc 0145 71bc 4404 cd3c
00000060: 933a 40bd a873 6d3d 0a0c 7a3c 1241 71bb
00000070: 32b2 95bc 83b3 69bc 4d78 423d ca0e 9c3b
00000080: 8ab0 8f3d 087a 883d e466 883d 39df 0d3c
00000090: 306d b13c 127f f13c 48be 2f3c 945f f03b
000000a0: 86f6 143c 752b fd3c 734c f43c cea1 823d
000000b0: e00b 973d 05e3 0fbd 67a1 6a3c 76a2 0e3c
000000c0: 4fb2 083d 509e 1e3a ac30 ca3d 1c5f 08bc
000000d0: fdb4 b33c 3b9a ac3d 6a17 3bbd 92dc 6abd
000000e0: 4798 31bc c775 fd3a 3883 9fbd b0a9 e43c
000000f0: a6c6 68bd 8a97 943d a06b 50bd 6c4c 033c
00000100: 1154 ae3d cac6 fa3c f1a5 5bbd 92cd 32bb
00000110: 0eee 763d 9e57 673d e220 b93d 0dbc f53b
00000120: 2b55 82bd 4371 25bc 61ac 16bd 3687 963d
00000130: 6676 1cbd 5b5f 7cbd d3bf 29bd a394 8bbb
00000140: 6df0 c3bc 290a 39bc fe76 b4bb 385f 713d
00000150: b12a 843d 5c1a 5fbd 2c86 e83b 21f0 eabc
00000160: a5b7 fb3c 1664 e83b 9a55 01bd 894a 6f3c
00000170: 0028 823c 95f1 88bb 5f24 8d3b 2c7d 00bc
00000180: cba1 703c 0126 6bbb 77ca dfbc 3d5e 293c
00000190: 1d9b 88bd 3055 68bd b5eb fbbc ca8c 023d
000001a0: 00eb e3bb f0ff 623c 4aaa 49bd 4991 833d
000001b0: 9bda 9b39 9eb3 b73d e9b0 843d e7f0 9c3d
000001c0: 20c1 f03c 3cc0 773c 934e 213b 1cc7 cd3c
000001d0: 7616 5fbd 9c1e 923d e375 80bd 62f6 023d
-0.012831635 -0.01086692 0.06089826 0.09358112 0.020585297 -0.05019706 0.036020827 -0.042539462
0.070606925 -0.011542642 0.027939076 0.032098453 -0.025099484 -0.0017483761 -0.045343716 -0.03229368
-0.034561317 0.008119614 -0.011400651 0.044331327 -0.04549388 -0.02233675 -0.0147259245 0.025026448
-0.04693086 0.057971627 0.015261659 -0.0036812467 -0.018273447 -0.01426399 0.04747801 0.004762505
0.07016094 0.066639006 0.0666025 0.008659177 0.02165851 0.029479537 0.010726519 0.0073356126
0.009091979 0.030904511 0.02982161 0.06378518 0.07375312 -0.035128612 0.014320708 0.008705726
0.033373173 0.0006050812 0.09872565 -0.008323457 0.021936888 0.084278546 -0.045676626 -0.05733926
-0.010839528 0.0019337469 -0.077887 0.027912945 -0.05683007 0.07255466 -0.05088389 0.008013826
0.08512128 0.030612368 -0.05362505 -0.0027283174 0.06028562 0.056480043 0.09039475 0.007499224
-0.06363901 -0.0100978045 -0.036785487 0.07350008 -0.03819885 -0.061614376 -0.041442703 -0.0042596622
-0.023918355 -0.011293926 -0.005507349 0.0589287 0.06453455 -0.054468498 0.0070960727 -0.028678956
0.030727217 0.0070920093 -0.031575777 0.014605173 0.015888214 -0.0041791894 0.0043073143 -0.007842343
0.014687012 -0.0035880806 -0.027318222 0.01033741 -0.066702105 -0.056721866 -0.030752042 0.03187255
-0.0069555044 0.013854966 -0.049234666 0.06424195 0.00029726778 0.08969806 0.064790554 0.07663136
0.029388964 0.015121516 0.0024613484 0.025119357 -0.05446478 0.071347445 -0.06272485 0.03197325

weight f4 [84, 120]
00000000: 53c4 183d 7cad 863c b1c4 0abd 9670 c4bd
00000010: 884f 883d c830 5dbc 48a2 b4bd c001 653d
00000020: b105 fd3c 4570 20bd a985 4ebd 411b b0bc
00000030: 8f47 20bd 2937 88bd 531b 4cbd 6f7d 883d
00000040: b88d 653d 2847 25bd 1ea4 36bd a795 97bc
00000050: e86d 06bc e233 a3bb 3504 43bd a151 c0bd
00000060: 74e1 df3c 7bf4 c2bd 97cb ed3d 0cf8 10ba
00000070: a20c d0bc 3175 e33c d25f 883d a6c4 60bb
00000080: 050b c2bd d2cf 8ebd 8513 acba 414f 3cbd
00000090: 3574 173c bd3c b2bb 43a8 cd3c 1d1e 9e3d
000000a0: d35f 063d fe60 ff3d cfe2 463d 9d95 cebd
000000b0: 7724 d83c 37f9 d3bc 8d01 223e f4c1 753d
000000c0: a7fa e13d dc46 e33c 4aee 863c 16b3 6f3a
000000d0: 9ba2 8fbd 06d3 8dbc 5f9d f73c ba30 6c3d
000000e0: 4b08 d53c a63c 943c 0052 b63d 125a bd3d
000000f0: 2ab9 91bd b9d7 76bc 5165 363d 0e60 31bd
00000100: 0721 a33d fe45 a9bd 4938 3f3c 2436 e1bc
00000110: a248 963d 09b0 d4bd ee9e 6ebd cd32 d1bc
00000120: 6973 633d 5036 7cbd cfa3 9a3d 175c 9fbd
00000130: b6cc b43d e86c 87bd 0b1a 6f3d 6ef4 193d
00000140: 381f a0bd 369c 8f3d 7313 8c3c d9a8 25bd
00000150: accb 8a3d a8a3 7b3d db1c a33d 9ce7 c13c
00000160: c41c c33d f853 c43b dcb5 4ebd 9ff3 ebbc
00000170: f7de b63d 4f8b 4bbc 14a7 6dbd 5cb9 a3bd
00000180: 8a73 ebbc cf3e f63c 60c6 35bd 6a53 40bd
00000190: 8e3b 283d 578f 913d 4469 c23d 54e7 7e3d
000001a0: 4082 93bc b49b 893d fa27 b43a 1fed 9cbd
000001b0: e256 6b3d cab2 1ebd ba02 35bd 5078 55bd
000001c0: 6554 443d 71d5 ab3d aee8 d43d b743 b6bc
000001d0: 972e fd3c b11c 0f3d bac3 503d 083d 1d3d
000001e0: a7a6 f03d 0104 a53d 6965 383b 09f2 94bd
000001f0: 8c3d ca3d 8c88 04bd afe3 133d aa1b c6bd
00000200: 848f 53bd 1f17 cc3d 6fbb b83d a08f 88bd
00000210: 891f da3d 5482 863d 7104 db3d aa42 6dbd
00000220: 4463 1cbd df2b d53d c003 733b ba4e 383d
00000230: b0ec ba3d 0083 383d 3382 be3d f7e3 f23d
00000240: 7254 a73d 0241 893d ff61 3abd 4a15 b6bd
00000250: d00f 23bb db97 133d d88b 2b3d 72e3 40bd
00000260: 9777 7bbd acc5 e33c 2a0a 3a3d 2103 7a3d
00000270: 092b 793d 80da 133d 1345 903d 6b4f 65bd
00000280: cb0f cfbc 2f5f 20bb 26e8 3cbd 2ced 2b3d
00000290: 5485 d1bd 0f58 42bd e574 19bd 9658 4c3d
000002a0: 54f3 953d a20c 95bd 6e2a 173d 707a 473d
000002b0: 70a9 a03c 2424 ba3d 1fc4 4abd 9a51 2fbd
000002c0: dac5 853d 0040 bb38 4233 90bb c066 09bc
000002d0: 1680 013d fb5e fdbc aa40 d63b c6c4 ee3d
000002e0: 1cef 813c 5dc3 00bc fc55 e8bc 63eb 85bd
000002f0: 8b7e c23c ee09 3ebd dcf5 24bd d68e 6e3c
00000300: dd99 bf3d 38dd 213d 04e2 8f3d 51f0 a9bd
00000310: 19f9 18bd 18f7 0abd 487d babc adfe b83d
00000320: 2e8c b63d 011f f03c 743c da3b 1066 fbbc
00000330: d034 5e3c 8ae7 81bd 753f 953d d8fd 64bd
00000340: 07d9 b13c 28f2 9ebd f813 493d 2400 613d
00000350: a241 6ebd 8a07 bb3b 2436 6f3d ba6e 993d
00000360: 155b 9fbd 4968 7ebd 447d db3c 1f02 3c3d
00000370: 0639 4e3d 9363 db3d ac64 a73a 2dea 62bc
00000380: 87fa 783d 704a e3bc 66c3 f9bc 0dbd fa3c
00000390: 5e0e 073d 50de 7abd 96a6 ccbc ea9c 1dbd
000003a0: 4940 acbd eab2 a43d 695b a43c 5e35 493d
000003b0: f892 763d 5a06 713b eba4 52bd 2884 9c3d
000003c0: 07cf 273d fc01 d43d 0ecf 363d e50e a83d
000003d0: 36ac 8c3d a034 3cbd f44b a83c 50a0 0cbd
000003e0: d049 1b3e 79cb 8b3d 823f 80bd faf4 a63d
000003f0: e853 773c 8929 87bd b9d3 6fbd 47b3 a63c
0.037296604 0.016440146 -0.033878986 -0.095917866 0.066557944 -0.0135004 -0.08820015 0.055909872
0.030886503 -0.03916957 -0.050420437 -0.02149737 -0.039130744 -0.06651146 -0.049830746 0.066645496
0.056043357 -0.040351063 -0.044590108 -0.018503977 -0.008204915 -0.00498055 -0.047611434 -0.093905695
0.027329184 -0.09519287 0.11611097 -0.0005530126 -0.025396649 0.027765842 0.06658901 -0.00342969
-0.09474758 -0.06973232 -0.0013128376 -0.04597402 0.0092440145 -0.0054393695 0.025104648 0.077205874
0.03280623 0.12469672 0.048556145 -0.1008713 0.026384575 -0.02587567 0.15820904 0.05999942
0.11034136 0.02774375 0.016471047 0.00091438123 -0.070134364 -0.017312538 0.030226408 0.057663657
0.026004931 0.018095326 0.08902359 0.09245695 -0.07115395 -0.015066081 0.044530217 -0.043304496
0.07965284 -0.08265303 0.011671134 -0.027491637 0.07338072 -0.103851385 -0.058257036 -0.025536919
0.055529986 -0.061575234 0.07550775 -0.077812366 0.08828108 -0.06612569 0.058374446 0.037586622
-0.078184545 0.07012217 0.017099118 -0.04044423 0.067771286 0.06143537 0.07964488 0.02367001
0.09526971 0.005991455 -0.050466403 -0.028802691 0.08929246 -0.0124233505 -0.058020666 -0.07994339
-0.028741617 0.030059246 -0.04437864 -0.04695455 0.04107242 0.07107418 0.09492734 0.06223233
-0.018006444 0.06719151 0.0013744824 -0.07662415 0.057455905 -0.038744725 -0.044192053 -0.052116692
0.047932047 0.0839032 0.10395943 -0.022249086 0.030906005 0.03493947 0.05096791 0.038388282
0.117505364 0.08057404 0.0028136617 -0.07272727 0.098750204 -0.032356784 0.036105808 -0.09673245
-0.05165054 0.099653475 0.09020125 -0.06668019 0.10650546 0.06567827 0.106942065 -0.057924904
-0.038180605 0.10408758 0.0037081093 0.044996955 0.09127176 0.045046806 0.09302177 0.11859887
0.081704035 0.067018524 -0.045503613 -0.08890779 -0.002488125 0.036033493 0.041881412 -0.04709191
-0.061393347 0.027804218 0.04541985 0.06103814 0.060832057 0.03609705 0.07044425 -0.055983942
-0.025276085 -0.0024470796 -0.04611983 0.04197423 -0.102305084 -0.04744726 -0.037464995 0.04988917
0.07321802 -0.072778 0.0369057 0.04870075 0.019612044 0.090889245 -0.049503442 -0.04280243
0.06531878 8.928776e-05 -0.0044006417 -0.008386314 0.031616293 -0.03092908 0.0065384703 0.11658625
0.015861087 -0.007859078 -0.028361313 -0.06539037 0.023741981 -0.04639619 -0.040273532 0.014560422
0.09355519 0.03951761 0.07025531 -0.0829779 -0.037346933 -0.033927053 -0.022764817 0.090329506
0.08913456 0.029311659 0.0066600386 -0.030688316 0.013562396 -0.06342991 0.07287494 -0.055906147
0.021709932 -0.077610314 0.04909131 0.054931775 -0.05816806 0.005707686 0.058401242 0.074918225
-0.077810444 -0.062111173 0.02679313 0.04590046 0.05034735 0.10712352 0.0012771091 -0.013849777
0.060785796 -0.027745456 -0.030488681 0.030607725 0.032972686 -0.06124717 -0.024981778 -0.038479723
-0.08410699 0.08041938 0.020063119 0.04912316 0.060198754 0.0036777467 -0.05142681 0.07642394
0.04096892 0.10351941 0.044631056 0.08205966 0.06868784 -0.045948625 0.02054403 -0.034332573
0.15164876 0.06825919 -0.06262113 0.08152194 0.015095688 -0.06599719 -0.058551524 0.020349158

bias f4 [84]
00000000: da6e acbd 340e abbd 6e18 633d d1c6 b1bd
00000010: 8861 513d cecd 0c3c 3a7d 663d fe47 ad3c
00000020: bb74 1f3c 756f e83c 5177 02bd 885b 0ebd
00000030: 2bcf aebd 5620 ccbd 565a cdbd 8a4f 95bd
00000040: b7e5 443d 6813 a43c 7ae8 913d f85c f93b
00000050: f355 063d 9828 9dbd a225 7c3d 3f3b 95bd
00000060: 4ddc 6b3d bd92 d73c 9f6b 863d 8ec1 abbd
00000070: e806 a93d 55de 66bc 5db6 633c 665c 64bd
00000080: 8c65 003d 4172 2bbd 7b89 91bc 392e 15bd
00000090: 52cc 973d 159e ab3d 1e13 c3bd 769a 99bd
000000a0: 2511 91bd c9c9 0bba 6cd2 b6bd 3930 be3c
000000b0: 0f06 b03c 5c8f 653d d35e 78bd aa7f 04bd
000000c0: 2fcb 84bd 6ac0 903d ff3b a8bd dced 85bc
000000d0: 29d1 bd3c 06f7 c9bc a1bf c6bd 1899 91bd
000000e0: 180c 8d3d 1a0e a2bd c8f5 763d 59e8 ca3c
000000f0: 0c31 293d 35f7 e13d 5683 8b3d 367b a33d
00000100: 43ae 79bc 4a8a 723d 51f0 7bbc 1ca1 283d
00000110: deb2 383d 3bf6 d63d c57e 893d 1887 b83d
00000120: 7153 873d 9904 cfbd 1f53 173e cbea 903d
00000130: 21a0 603d 22d0 ff3c b7be 933d 6f73 54bd
00000140: bfe9 af3d 2ea0 3f3d 847c 7cbd de5c 56bd
-0.08419581 -0.083523184 0.05544322 -0.08680499 0.051118404 0.00859399 0.05627177 0.021152493
0.009732421 0.02837346 -0.03185207 -0.03475526 -0.08535608 -0.09967105 -0.10026996 -0.072905615
0.048070636 0.020028785 0.071244195 0.0076099597 0.03279681 -0.07673758 0.061559327 -0.07286691
0.057583142 0.026315087 0.06563496 -0.08386527 0.082532704 -0.014091094 0.013898459 -0.05575218
0.031346843 -0.041857008 -0.017765751 -0.036421034 0.07412018 0.08379761 -0.09525131 -0.07500164
-0.07083348 -0.00053324975 -0.089268535 0.023216354 0.021487264 0.05604492 -0.060637306 -0.032348312
-0.06484067 0.0706795 -0.08214568 -0.016348772 0.023171024 -0.024653923 -0.09704519 -0.071092784
0.06887072 -0.07912846 0.06029299 0.024768995 0.04130654 0.11033479 0.0681216 0.07982485
-0.015239301 0.059213914 -0.01537712 0.04116927 0.045092456 0.104961835 0.067136325 0.09010142
0.06607712 -0.10108299 0.14777802 0.07076033 0.05484021 0.031227175 0.0721411 -0.0518679
0.085895054 0.04678362 -0.061642185 -0.05233466

weight f4 [10, 84]
00000000: ba39 0d3e 6e0e 1a3d c899 a9bc 7360 623d
00000010: 48bb 96bd 28e2 f53c 4790 903d 79d3 0b3e
00000020: 2921 71bc a974 a73d 9744 43bd 9d27 9dbd
00000030: a1f8 f83c 5e00 a3bd 14c5 acbd 366c 6e3d
00000040: 14d3 103d 9d94 483d 23e2 27be 073e 9a3d
00000050: dceb 9f3d 7b8c 5c3d 7b3f 3e3c 4a27 f1bc
00000060: 4881 2a3d 22a9 7b3d 4362 533a 8e5c bebb
00000070: f267 593d 6d53 4cbd ab3f 953d 0024 913a
00000080: 63f0 73bd bc15 15bd 7851 60bd 368b ac3c
00000090: f982 f23d 7f5b bcbd 2f6a 443d e84b d1bd
000000a0: 550f 903d 7d60 4d3d 05df ae3c dc82 fbbd
000000b0: bb81 59bd a142 f43d 0e13 bf3d 0ed7 a8bc
000000c0: 9ace acbb 7580 6ebd fa84 963d 33c6 e2bc
000000d0: a7f8 263d 7a57 0d3d 8c06 abbd 4dc3 48bd
000000e0: bba2 1ebd a2a4 b93d f827 15bd 9350 013e
000000f0: 15a5 303c b129 f9bd 330e 923d 9d21 6dbd
00000100: d2cb 18bd f662 29be 90c3 ae3d e982 a6bd
00000110: 2306 863d ed29 43be f7fb 8b3c 65c0 01be
00000120: f0f8 243b 3777 fdbc 6523 1fbe 2e61 e2bd
00000130: 1301 2fbd 4f3e a53d a67e ddbc 7c1c f03d
00000140: 41c3 a2bc c405 b1bd fad5 603d 7881 14be
00000150: 5c30 21bd 5193 023d 9fe6 4ebd 22c6 71bc
00000160: d7ed e13d 1846 cd3d 301f ba3c 2ce0 aa3d
00000170: beff da3d 70e1 9d3d 08e8 803d 1734 b33d
00000180: 3602 8abd 81f4 a53d b7ff c2bd cb44 db3d
00000190: d308 ccbd 289a 17bc 6693 243b 00d5 c43d
000001a0: 7d34 fe3d c8c1 dcbd 2c6a 8ebd f9ce f5bc
000001b0: 9600 ef3d 07af 1cbd 02c7 633c 21fc aabd
000001c0: 33c9 133d e749 7abd 6eda 29bc 6f73 563d
000001d0: 146d 6ebd f332 ad3c 06de 2ebd ca95 a8bb
000001e0: db0f 013e 0a1d 0fbe 8bce 523d 7496 cdbb
000001f0: 12c6 a03d cbc3 8b3d 399b ec3c b853 43bd
00000200: 637e cdbd 2d75 bd3d 032e 023e 496c c7bc
00000210: 0398 803c 96ae c63d 05a2 8b3c c2c5 8f3d
00000220: c96a 1ebe ba0d 2b3d 5a75 113b 542d 1f3d
00000230: a22d a5bc 59bb 8b3c 6f0a 73bd dc23 81bd
00000240: b202 d53d 333e 2ebe 05f9 a13c 1cca 9cbd
00000250: e380 713d 4aee bcbd 5ade 5dbd 94b2 903c
00000260: 0f19 ea3b 5be9 16bd 9505 92bc 218f 4e3d
00000270: fe43 c03d 6f91 303d 19a7 c33d c952 6bbd
00000280: 979a bfbd 94fe 4abd 2fa2 cf3a a7a9 1b3c
00000290: 86a8 b8bd b348 3cbd a7ca 803d 8af4 a6bd
000002a0: 67e0 f2bd 726a 20be 48b0 17bd 6458 39bd
000002b0: 64cc f8bc fa41 433d 1aed 0c3e ceed 123e
000002c0: 15cd a83c 4d10 103e de8a 4fbe 9092 933b
000002d0: 62c4 65bd 7dec efbd c3dd a8bd 7cf7 91bd
000002e0: 6871 b7bc 849f 31bc c147 cfbd 0217 c9bc
000002f0: 8df3 88bd 10f3 f03c af76 ebbd bf42 27bc
00000300: a591 023e 6a2a b4bd e984 5bbd f3f0 efbc
00000310: d8d2 243e eb0d a83d 9207 1d3e 247c 58bb
00000320: fc5d 0ebe 1b51 86bd ab85 02bc 2602 df3b
00000330: 6160 da3c 9c07 af3d 8adc 64be db2b f4bd
00000340: b339 e53c 986d 88bd 6881 2d3d deac dc3c
00000350: 90a8 c9bb 27e8 1cbd 4e55 f9ba bc05 5cbd
00000360: 8866 dbbc 7e08 d73d 11f2 4bbd e53b ce3c
00000370: 7727 a73d ca2c 4cbe 7e52 a1bd cc67 7bbd
00000380: 7b67 843c 6df5 903d 0b63 9c3c b3fb 95bd
00000390: 2434 72bd 8869 893d 7486 dfbd 6370 42be
000003a0: 94e4 c1bd a783 6dbd 4a2e a7bd d6bb 90bd
000003b0: 10f7 ebbc f4ca 8c3d 1c40 15be 30d3 55bd
000003c0: cfc4 3fbe fbc7 ddbc 6e71 183e 626e 0f3e
000003d0: 6a8a f73d 33e5 acbc c571 dd3b 5b77 2bbe
000003e0: ca1d e33c e368 16be d75a 31be bdc5 f63d
000003f0: 04b4 953d 92bd a1bd 0456 573c 8c62 11bc
0.13791552 0.037611417 -0.020703211 0.055267762 -0.0735994 0.030015066 0.07058769 0.13654889
-0.014717379 0.08176548 -0.047672834 -0.07673571 0.030391993 -0.079590544 -0.08436027 0.058208667
0.03535755 0.048969854 -0.16394858 0.07531362 0.078086585 0.05384491 0.011611815 -0.02943768
0.0416272 0.061440594 0.00080636534 -0.005809373 0.053077646 -0.04988425 0.07287534 0.0011073351
-0.059555423 -0.03639768 -0.054765195 0.021062475 0.11841387 -0.09197139 0.047952827 -0.10219556
0.07034174 0.050140847 0.021346578 -0.12280819 -0.053102236 0.11926771 0.09329806 -0.020610359
-0.0052736523 -0.058227975 0.07349582 -0.0276824 0.040764477 0.034507252 -0.08350858 -0.04901438
-0.03872941 0.09064604 -0.03641507 0.12628393 0.010781546 -0.12166155 0.071316145 -0.057893384
-0.037303753 -0.16541657 0.08533394 -0.08130438 0.06544139 -0.19058962 0.01708792 -0.12671049
0.0025172792 -0.030940635 -0.15540846 -0.11053692 -0.042725634 0.08068525 -0.02703793 0.11724183
-0.019868495 -0.08643678 0.054891564 -0.14502513 -0.03935276 0.031878773 -0.050512906 -0.014756711
0.110316925 0.10023135 0.02271995 0.08343539 0.1069331 0.077090144 0.062942564 0.0875017
-0.06738703 0.08103276 -0.0952143 0.107064806 -0.099626206 -0.009253062 0.002511227 0.09610939
0.12412355 -0.10779148 -0.069538444 -0.030005919 0.11670034 -0.038252857 0.013902428 -0.08348871
0.03608055 -0.061105635 -0.010367019 0.05235618 -0.058209494 0.021142459 -0.042692207 -0.0051448094
0.12603705 -0.13975921 0.051466506 -0.006274039 0.07850279 0.06824454 0.02888261 -0.047687262
-0.10033872 0.09250865 0.12712865 -0.024343627 0.015697485 0.097012684 0.01704503 0.07020141
-0.15470423 0.041761138 0.002219519 0.038861588 -0.020163361 0.017057108 -0.059336122 -0.06305668
0.10400905 -0.17015915 0.019772062 -0.07655737 0.058960807 -0.092251375 -0.05416713 0.017663278
0.0071441005 -0.03684364 -0.017824927 0.050429467 0.093879685 0.043107446 0.09553356 -0.057451997
-0.093556575 -0.04955919 0.0015841181 0.0095008975 -0.09016518 -0.04596777 0.06288653 -0.08152111
-0.118592076 -0.15665606 -0.03703335 -0.04525031 -0.030370899 0.047670342 0.13762322 0.14348528
0.020605603 0.14068718 -0.20267817 0.0045035556 -0.05609549 -0.117150284 -0.08245423 -0.07127282
-0.022392944 -0.010841254 -0.10121108 -0.024547104 -0.066870786 0.029412776 -0.114972465 -0.010208785
0.12750871 -0.08797152 -0.05359355 -0.029289698 0.16096056 0.0820578 0.15334919 -0.0033032978
-0.1390304 -0.065584384 -0.007966439 0.006805676 0.026657285 0.08546373 -0.22349754 -0.11922427
0.027981615 -0.06661528 0.04235974 0.026937898 -0.0061541274 -0.038307335 -0.0019022615 -0.053716406
-0.02678229 0.10499667 -0.0497914 0.025175044 0.08161824 -0.1993896 -0.07877062 -0.061378285
0.016162625 0.07078061 0.019090196 -0.073233984 -0.059131756 0.067095816 -0.10914317 -0.18988185
-0.09467426 -0.05798688 -0.08163126 -0.07067077 -0.028804332 0.06874648 -0.14575237 -0.052203357
-0.1872742 -0.027072897 0.1488702 0.14006951 0.12086947 -0.021105384 0.006757947 -0.16744749
0.027724165 -0.14688449 -0.17319809 0.12049434 0.07309726 -0.07897486 0.013143066 -0.008873593

bias f4 [10]
00000000: 73ba 303c 6dac 9a3d 3252 2b3e 6269 093d
00000010: da85 243d f677 a2bc 79de 60bc 271c 283d
00000020: 8db8 60bd 151e a8bb
0.01078664 0.07552419 0.16730574 0.033547767 0.040166713 -0.019832592 -0.013724917 0.041042473
-0.0548635 -0.005130539
