cifar-10/netD.pt (torch_old, 698423 bytes, 12 tensors)

weight f4 [32, 3, 4, 4]
0	0xbd0750c6	-0.033036016
1	0x3c46bde3	0.012130233
2	0xbd8ff63b	-0.070293866
3	0x3d4260d2	0.047455616
4	0x3d2240a0	0.039612412
5	0x3bbf6d20	0.005841866
6	0x3ce058f1	0.02738616
7	0xbc06c52b	-0.008225719
8	0xbbd348ee	-0.006447903
9	0x3d020ba4	0.031749383
10	0xbd76c567	-0.06024685
11	0xbcd5fe84	-0.02612234
12	0x3d1d72e4	0.038439646
13	0x3cf4ed70	0.029898375
14	0xbb359674	-0.0027708085
15	0xbc96f909	-0.018429296
16	0xbbc40776	-0.0059823347
17	0x3d11d1fc	0.035600647
18	0x3cad264d	0.021136427
19	0x3c25c1b9	0.010116988
20	0x3c705667	0.014669037
21	0xbd5b14ee	-0.053486757
22	0xbd1c313e	-0.0381329
23	0x3baf9883	0.005358757
24	0xbc6af449	-0.014340469
25	0x3d02f098	0.03196773
26	0xbcc62d24	-0.024191447
27	0x3c534e67	0.012897111
28	0xbd00bfa9	-0.03143278
29	0x3b0b3fed	0.002124782
30	0x3c40c6fc	0.011766192
31	0x3cb12520	0.021624148
32	0xbc6514a1	-0.013981969
33	0x3c6b8238	0.014374308
34	0xbc92df93	-0.017928874
35	0xbd4dd151	-0.050248448
36	0xbc0ad114	-0.0084727
37	0x3d4d8aad	0.05018108
38	0x3bb72933	0.005589628
39	0x3c8af38d	0.016961837
40	0xbc14cda2	-0.00908223
41	0xbc0f55c0	-0.008748472
42	0x3cf6534b	0.030069014
43	0x3d03eb78	0.032206982
44	0x3b0b8be7	0.0021293105
45	0xbd1735fd	-0.03691672
46	0x3ce59a4d	0.028027678
47	0xbd16b554	-0.03679402
48	0xbb7976ad	-0.003806512
49	0x3cdf25fc	0.027239792
50	0x3cd43e44	0.025908597
51	0x3cda7aa2	0.026669804
52	0xbbbd554d	-0.005777991
53	0x3cc3c7c7	0.023898972
54	0x3ce13680	0.027491808
55	0x3cd3761d	0.025813157
56	0x3d137ccc	0.036007687
57	0x3cb489a2	0.022038285
58	0x3d2e073c	0.042487368
59	0x3d7b16d6	0.061301075
60	0x39b41e1c	0.0003435471
61	0x3d1c6d2f	0.038190063
62	0x3d2ff764	0.04296054
63	0x3d44fe32	0.048093982
64	0x3bb37571	0.0054766466
65	0x3cdbb2c4	0.02681864
66	0x38f2dcf2	0.000115806135
67	0x3b625a3d	0.003453865
68	0xb9c5678d	-0.0003765192
69	0xba823773	-0.0009934738
70	0x3cfb4001	0.030670168
71	0xb9dd66de	-0.00042229047
72	0xbbbacdd8	-0.005700808
73	0x3c382fa6	0.011241829
74	0x3bd1258c	0.0063826498
75	0x3ba3d2f8	0.0049995147
76	0xbc99b507	-0.018763078
77	0xbc3ea4d5	-0.011635979
78	0xbb578202	-0.0032883887
79	0x3d182c9f	0.03715193
80	0xbd21a5a2	-0.0394646
81	0xbccc3bf5	-0.024930933
82	0xbbf76011	-0.007549294
83	0x3ac42094	0.0014963322
84	0xbd20d0e8	-0.03926173
85	0xbd135fbf	-0.035979982
86	0xbbbb0e80	-0.0057085156
87	0xbc984e8f	-0.018592147
88	0xbcdc192d	-0.026867473
89	0xbcf19a4f	-0.029492525
90	0xbcb51975	-0.022106865
91	0xbcf0374a	-0.029323239
92	0xbc03b5c2	-0.00803894
93	0xbd29ea36	-0.041483127
94	0x3af50da1	0.0018696078
95	0xbcaa2b5b	-0.020772627
96	0xbca1e614	-0.01976303
97	0x3d2216bc	0.039572462
98	0x3cad91e2	0.021187726
99	0x3c5dbe93	0.013534206
100	0xbb28072c	-0.002563904
101	0xbd03a733	-0.032141875
102	0xbbada578	-0.0052992664
103	0x3bbaf66b	0.005705645
104	0xbcf6e3df	-0.030137954
105	0xbd44c0e1	-0.048035506
106	0x3d163edd	0.036681045
107	0x3cca10ac	0.024666153
108	0x3d369516	0.044575773
109	0xbc9120cf	-0.01771584
110	0xbd20de19	-0.03927431
111	0x3b2acc22	0.0026061614
112	0x3cb906a4	0.022586174
113	0x3bf78c3f	0.0075545604
114	0xbd26b810	-0.04070288
115	0xbd4a3d9d	-0.049375165
116	0x3cfc9505	0.030832777
117	0x3ccbea9c	0.024892144
118	0xbc128c42	-0.008944573
119	0x3c06e14f	0.008232429
120	0x3d3a5397	0.045489874
121	0xbc05f68a	-0.008176455
122	0xba657483	-0.00087530183
123	0x3c804dbc	0.015662067
124	0xbd59f6d3	-0.053213906
125	0x3cdda433	0.027055835
126	0xbcfab676	-0.030604582
127	0xbc69929f	-0.014256149
128	0xbbe124da	-0.006870848
129	0x3cde0d99	0.027106093
130	0xbd0a2c93	-0.033733916
131	0x3d14fb59	0.036372516
132	0xbd7156f9	-0.058920834
133	0x3cd27ddc	0.02569478
134	0xbd8d7501	-0.06907082
135	0x3bdbfb23	0.0067132874
136	0x3c439c44	0.011939112
137	0x3db02b45	0.08602003
138	0xbc7dda5b	-0.0154939545
139	0xbc2f1975	-0.010687222
140	0xbd107c55	-0.035274822
141	0x3d73f003	0.059555065
142	0xbd06e12c	-0.032929584
143	0x3a94bf4d	0.0011348516
144	0x3b5409a2	0.0032354374
145	0xbd60e675	-0.05490728
146	0xbc8737f8	-0.01650618
147	0x3cae3e16	0.02126984
148	0xbcf7a989	-0.030232208
149	0x3cdd3eb2	0.027007435
150	0x3bdce3e8	0.0067410357
151	0x3d837dd0	0.06420481
152	0xbd82619a	-0.06366272
153	0xbd17c50e	-0.03705316
154	0xba284683	-0.00064191985
155	0x3d15b6dc	0.03655134
156	0x3c4fa339	0.012673193
157	0xbc598ed9	-0.013278686
158	0x3c9b37eb	0.018947562
159	0x3d16ea17	0.03684434
160	0xbd1e4464	-0.03863944
161	0xbcd4754f	-0.025934843
162	0xbc9117be	-0.017711516
163	0x3d124436	0.035709582
164	0xbd0bba44	-0.034113184
165	0x3d4bb6b5	0.04973479
166	0x3d1c265c	0.03812252
167	0xbb249cee	-0.0025117951
168	0x3c8390fb	0.016060343
169	0xbcdac4dc	-0.026705198
170	0x3ca457fa	0.020061482
171	0x3c73f3c4	0.014889661
172	0xbd27ec92	-0.040997095
173	0x3cd5528c	0.026040338
174	0xbc50a55c	-0.012734737
175	0x3c1c5753	0.009542304
176	0xbcaec512	-0.021334205
177	0x3c8642c7	0.016389264
178	0x3cbf070e	0.023318794
179	0xbbd4c637	-0.0064933556
180	0xbc346833	-0.011011171
181	0xbc9e2c66	-0.01930828
182	0x3c9a3ab7	0.018826826
183	0x3d28027b	0.04101799
184	0xbc423fbf	-0.011856019
185	0xbd061fa3	-0.032745015
186	0x3ba3f2d9	0.005003315
187	0xbb1a86c1	-0.0023578855
188	0xbb8b7686	-0.0042560725
189	0xbcd95440	-0.026529431
190	0xbbc8f651	-0.006132879
191	0x3d040620	0.032232404
192	0x3d3e497e	0.046456806
193	0xbd2be02b	-0.04196183
194	0x3d2cb3bc	0.042163596
195	0xbc5bf864	-0.01342592
196	0x3c737704	0.0148599185
197	0x3c37ba45	0.011213844
198	0xbaa360ab	-0.0012464722
199	0x3c38d446	0.011281079
200	0xbbf467a4	-0.007458644
201	0xbcbf9fb9	-0.023391591
202	0xbc9a095d	-0.018803293
203	0xbcbdea21	-0.02318293
204	0x3c557fd0	0.013030961
205	0xbc9df4e6	-0.019281816
206	0xbbe50747	-0.006989393
207	0x3bc7b675	0.0060947486
208	0x3d6fd44b	0.058552068
209	0xbc81a855	-0.015827337
210	0xbcbe427d	-0.023225063
211	0xbc560d43	-0.013064685
212	0x3d8fb8a4	0.07017639
213	0xbd03c0fe	-0.032166474
214	0x3c96b966	0.018398952
215	0xbd00a0a3	-0.031403195
216	0xbc50c5e9	-0.012742498
217	0xbba5dd7b	-0.005061803
218	0xbcbc0364	-0.022950836
219	0xbceef30d	-0.02916863
220	0x3d0749c0	0.033029318
221	0xbcf1a2d8	-0.029496595
222	0x3d2d301f	0.04228222
223	0xbcb2fcc2	-0.02184904
224	0xbd607c4a	-0.05480603
225	0xbb089254	-0.0020839171
226	0xbcd48e9a	-0.025946904
227	0x3d0a80b5	0.03381415
228	0xbce10e86	-0.027472746
229	0xbd7d9180	-0.061906338
230	0x3cb4c82d	0.022068108
231	0xbc9eb63a	-0.019374002
232	0x3d36e8bd	0.04465555
233	0x3c5de22f	0.013542696
234	0x3d49fb4c	0.04931192
235	0x3d6fdbd4	0.058559254
236	0xbca45ddf	-0.020064292
237	0xbbe3edea	-0.006955852
238	0x3b45d770	0.0030188225
239	0xbc061bcb	-0.008185337
240	0x3cd4d4ef	0.02598044
241	0x3b955c77	0.004558142
242	0xbb02cc15	-0.0019958068
243	0xbb623f33	-0.0034522533
244	0xbb51baf0	-0.0032002293
245	0x3aaaeafd	0.0013040003
246	0x3cb3a4d4	0.021929182
247	0x3c4af3a8	0.012387194
248	0x3c9a6059	0.01884477
249	0x3c85bfd6	0.016326826
250	0x3ccaf0bf	0.024773
251	0x3b6ffbaf	0.003661852
252	0x3ccad676	0.024760466
253	0xbcf0e555	-0.029406229
254	0xbb794190	-0.0038033463
255	0x3c181b58	0.009283863

weight f4 [64, 32, 4, 4]
0	0x3c5543b3	0.013016629
1	0xbc774801	-0.015092851
2	0x3cb7943e	0.022409555
3	0x3ca4deff	0.020125864
4	0xbbf9ee32	-0.007627272
5	0xbcae7606	-0.021296512
6	0x3c764507	0.015031106
7	0xbd869e84	-0.06573203
8	0xbcdf4cc7	-0.02725829
9	0xbd72d3d9	-0.059284065
10	0xbd82b438	-0.0638203
11	0xbc35e842	-0.011102738
12	0xbcb8601a	-0.022506762
13	0xbbdc11df	-0.0067159976
14	0xbd3f24ec	-0.04666607
15	0x3cd875df	0.026423393
16	0xbd04951a	-0.032368757
17	0xbc905fb6	-0.017623764
18	0xbbbe1578	-0.005800899
19	0xbd1f9c11	-0.038967196
20	0x3ca48140	0.020081162
21	0x3ac8dbb7	0.0015324269
22	0xbc36bc0b	-0.011153231
23	0xbcaf1f5e	-0.021377262
24	0xbaaa1404	-0.0012975936
25	0xbb82567d	-0.0039775954
26	0xbc01fe1a	-0.007934118
27	0x3aa3b9b6	0.0012491259
28	0x3b40d366	0.0029422878
29	0xbd33149d	-0.04372083
30	0xbd42edfa	-0.047590233
31	0xbc6bed2d	-0.014399809
32	0x388c01c0	6.676046e-05
33	0xbc447e21	-0.011992962
34	0x3c09b717	0.008405468
35	0xbc9ac067	-0.018890573
36	0x3c6d2429	0.014473953
37	0x3bc7d678	0.0060985647
38	0xbced5dad	-0.028975332
39	0x38e45176	0.000108870605
40	0xbd6b44ec	-0.057438776
41	0x3c85b4f7	0.016321642
42	0x3cbb0b87	0.022832645
43	0xbcf82c5d	-0.030294592
44	0xbc0846c3	-0.008317652
45	0xbbcfc471	-0.0063405563
46	0xbb9fcdbe	-0.0048768213
47	0x3c3a34ad	0.011365098
48	0xbcac0465	-0.02099819
49	0xbb09be4b	-0.0021017964
50	0xbc40ea28	-0.011774577
51	0x3c2f8747	0.010713405
52	0x3c9c541c	0.019083075
53	0x3d3822eb	0.044955175
54	0x3b936d75	0.0044991323
55	0x3cbf9b08	0.023389354
56	0x3cbd8813	0.023136174
57	0xbb9aad2d	-0.004720351
58	0x3ca0b69e	0.019618329
59	0xbcb5dd0f	-0.022200136
60	0x3bc03ff1	0.0058669974
61	0x3c34b7b2	0.0110301245
62	0x3cad88a4	0.02118332
63	0xbb668e34	-0.0035179975
64	0x3db659cc	0.08903846
65	0x3b362b02	0.002779663
66	0x3d0db918	0.034600347
67	0x3cf5940c	0.02997782
68	0xbcaec868	-0.021335796
69	0xbc71c241	-0.014755786
70	0x3d24feef	0.040282186
71	0x3c386b8d	0.011256111
72	0x3d0ebb51	0.034846608
73	0x3d1d0b90	0.038341105
74	0x3d107ece	0.03527718
75	0xbd0787e5	-0.033088583
76	0xbb954ced	-0.0045562894
77	0x3d7cb431	0.06169528
78	0x3c035903	0.0080168275
79	0x3c5d71ae	0.013515873
80	0xbd376840	-0.044777155
81	0x3c6e6bf6	0.014552107
82	0xbc57caee	-0.013170941
83	0x3c16b8d7	0.009199343
84	0xbb7e6b97	-0.0038821453
85	0x3bf5bf68	0.007499624
86	0xbbd823b0	-0.006596051
87	0xbc92447b	-0.01785492
88	0xbc7cc0c4	-0.015426818
89	0x3be36cb9	0.006940451
90	0xbcd7ea1e	-0.026356753
91	0xbd92a322	-0.07160021
92	0xbd334b0a	-0.043772735
93	0xbc66fd7a	-0.014098519
94	0xbc414d14	-0.011798162
95	0xbd0061f9	-0.031343434
96	0xbd2c9a38	-0.042139262
97	0xbc692840	-0.014230788
98	0xbc03a11b	-0.008034016
99	0xbcbdc1bb	-0.023163667
100	0x3c912e5b	0.0177223
101	0x3b4dd0ea	0.003140504
102	0xbc93f5b3	-0.018061494
103	0xbd08d6a2	-0.033407815
104	0xbd8bf028	-0.068329155
105	0xbc8386ab	-0.016055426
106	0xbcc4519a	-0.023964692
107	0xbbe4c3a8	-0.006981332
108	0xbcd5f283	-0.026116615
109	0xbd173853	-0.03691895
110	0xbd1f6b0c	-0.038920447
111	0xbd1a6d29	-0.03770176
112	0xbda42ee7	-0.080167584
113	0x3c10ed9f	0.008845716
114	0xbb2ea3a4	-0.002664783
115	0xbd8c7946	-0.068590686
116	0xbc55e556	-0.013055166
117	0x3d4e1dc0	0.05032134
118	0xbd10d8b0	-0.0353629
119	0xbd8af21a	-0.067844585
120	0xbd0676de	-0.032828204
121	0x3d33fe39	0.043943617
122	0x3c596536	0.0132687595
123	0xbd410c7b	-0.047131043
124	0x3c4f3c50	0.012648657
125	0x3d5e3569	0.054250155
126	0x3d6888c5	0.05677106
127	0xbd10f4c0	-0.03538966
128	0xbd33fe2e	-0.043943577
129	0xbc1f62ff	-0.009728192
130	0xbc220e27	-0.0098910695
131	0xbd1bf336	-0.03807374
132	0xbc44f850	-0.012022093
133	0x3d25fb2f	0.04052275
134	0x3cd208e1	0.025639
135	0xbc4bbe62	-0.0124355275
136	0x3c062b5a	0.008189047
137	0xbd290898	-0.04126796
138	0xbcf38111	-0.02972463
139	0xbcc9ec4d	-0.02464881
140	0xbd35cbc0	-0.044383764
141	0xbd2909aa	-0.041268982
142	0xbcb2649b	-0.021776488
143	0xbcc3d076	-0.023903113
144	0xbcc55764	-0.024089523
145	0xbd3d93f4	-0.046283677
146	0xbcf53eeb	-0.029937228
147	0xbd19e872	-0.037575193
148	0x3be41b98	0.0069612972
149	0x3c672292	0.014107363
150	0x3cd28d13	0.025702035
151	0xbb705c28	-0.0036676023
152	0xbac87bb5	-0.0015295657
153	0x3b89ad7e	0.00420159
154	0xbd20a833	-0.039222907
155	0xba473197	-0.0007598637
156	0x3c9543fe	0.018220898
157	0xbc927b45	-0.017881045
158	0xbd6bb6a2	-0.05754722
159	0xbcae1ed9	-0.021254944
160	0xbcbae9ee	-0.022816624
161	0x3c3723ac	0.011177938
162	0x3d07b2d5	0.033129532
163	0xbbb3e87f	-0.005490362
164	0xbc1a01c7	-0.009399838
165	0xbbef4ced	-0.0073028714
166	0x3cff601a	0.031173754
167	0x3b567a7e	0.003272682
168	0xbbd3b090	-0.006460257
169	0xbc29ceef	-0.010364278
170	0xbb2b5897	-0.0026145333
171	0xbd7aff97	-0.061278906
172	0x3d5c1cb3	0.053738307
173	0xbc0adcbd	-0.00847548
174	0xbcdcee67	-0.026969148
175	0xbc0c555e	-0.008565275
176	0xbca514c8	-0.02015151
177	0x3b721a6a	0.0036942014
178	0xbb9c8628	-0.004776735
179	0xbd6949df	-0.056955215
180	0xbc8b2613	-0.016985929
181	0xbc9dc9ab	-0.019261202
182	0xbcb185e3	-0.021670287
183	0x3c9741e2	0.018464033
184	0x3d37d27d	0.04487847
185	0x3c11b5ef	0.008893474
186	0x3c155e8c	0.00911678
187	0xbcdf2114	-0.027237453
188	0xbcf78036	-0.030212503
189	0x3c5d0982	0.013491036
190	0x3c63886b	0.013887505
191	0x3b23bf2b	0.002498577
192	0xbd28f567	-0.04124966
193	0xbc9b988a	-0.018993635
194	0xbc54eb66	-0.0129955765
195	0xbd8183de	-0.0632398
196	0xbd2abb0f	-0.0416823
197	0xbcdde550	-0.027086884
198	0xbc69a6bf	-0.014260947
199	0xbbbcb6fe	-0.005759119
200	0xbd46eb25	-0.048564095
201	0xbc9ae74a	-0.018909115
202	0x3c79decd	0.015250874
203	0xbc515a0c	-0.0127778165
204	0xbd004dba	-0.031324126
205	0xbae933fa	-0.001779198
206	0xbc31c71b	-0.010850693
207	0xbcae1302	-0.021249298
208	0xbd284fdd	-0.04109179
209	0xbb2b3d04	-0.0026128897
210	0x3b907a86	0.004409137
211	0xbc1730bc	-0.009227928
212	0xbc26656f	-0.01015602
213	0xbd28a843	-0.041176092
214	0xbcdb74d3	-0.026789105
215	0xbd489e2f	-0.04897898
216	0xbd324e1b	-0.04353152
217	0x3be94b44	0.007119568
218	0xbd00df04	-0.031462684
219	0xbd63dfda	-0.055633403
220	0xbd0865a8	-0.033300072
221	0xbbc1b109	-0.005910997
222	0xbc141e19	-0.009040379
223	0xbcbf631a	-0.023362685
224	0xbbd583cb	-0.006515955
225	0xbcc91ce7	-0.024549915
226	0xbcc672a0	-0.02422458
227	0xbd08edee	-0.033430032
228	0x3d69b6ec	0.057059214
229	0x3c971a01	0.018445017
230	0x3dab9d72	0.0837964
231	0xbbe8c488	-0.0071035065
232	0xbd2f16c7	-0.04274633
233	0xbb9798eb	-0.0046263835
234	0x37888775	1.627554e-05
235	0xbce2b04a	-0.027671952
236	0x3d0211fe	0.03175544
237	0x3d3171f3	0.04332156
238	0xbd02e996	-0.031961046
239	0x3cc1a93f	0.023640273
240	0x3b0253d4	0.0019886391
241	0xbc82870f	-0.015933542
242	0xbc612d63	-0.013743731
243	0xbd269a6c	-0.040674612
244	0xbc3071e5	-0.010769342
245	0xbce177ca	-0.02752294
246	0xbd303b2e	-0.04302519
247	0xbd81545b	-0.06314918
248	0xba1240a3	-0.00055790896
249	0x3c6d8d90	0.014499083
250	0xbc239340	-0.009983838
251	0xbd27cf69	-0.040969286
252	0xbbb09fb6	-0.005390133
253	0xbccc96a5	-0.024974177
254	0xbbe8533f	-0.007090002
255	0xbc05de3b	-0.00817066

weight f4 [64]
0	0x3f71c875	0.944465
1	0x3f7e728a	0.9939352
2	0x3f7868e2	0.9703504
3	0x3f7c56c3	0.9856989
4	0x3f71516c	0.94264865
5	0x3f816bdd	1.0111042
6	0x3f7968ea	0.9742571
7	0x3f8675b0	1.0504665
8	0x3f7f0c40	0.99628067
9	0x3f76fb6d	0.96477395
10	0x3f75343e	0.9578284
11	0x3f76131b	0.961229
12	0x3f7b372f	0.9813108
13	0x3f7ffde2	0.9999677
14	0x3f86daf9	1.0535575
15	0x3f8120fe	1.0088193
16	0x3f80a4b5	1.0050265
17	0x3f835e11	1.0263082
18	0x3f7b1695	0.9808133
19	0x3f842648	1.0324183
20	0x3f788a32	0.9708587
21	0x3f832ca9	1.0248004
22	0x3f80dc35	1.0067202
23	0x3f771afb	0.96525544
24	0x3f82267c	1.0167994
25	0x3f7b5a00	0.98184204
26	0x3f8279f6	1.019347
27	0x3f805b9f	1.002796
28	0x3f7bbb25	0.98332435
29	0x3f7f2f06	0.9968113
30	0x3f7e48e6	0.99329984
31	0x3f7c3883	0.9852373
32	0x3f8031d4	1.0015206
33	0x3f7231ee	0.94607437
34	0x3f829335	1.0201174
35	0x3f7a67c5	0.9781459
36	0x3f72103f	0.9455604
37	0x3f7d2e87	0.9889912
38	0x3f800416	1.0001247
39	0x3f75a489	0.95954186
40	0x3f7e1e3a	0.9926487
41	0x3f79e0b5	0.976085
42	0x3f7dec9d	0.9918917
43	0x3f834759	1.0256149
44	0x3f78e87c	0.97229743
45	0x3f80e766	1.0070617
46	0x3f70ec97	0.9411101
47	0x3f810cbb	1.008201
48	0x3f819409	1.0123302
49	0x3f7e6c74	0.99384236
50	0x3f8a4411	1.0802022
51	0x3f78ef80	0.9724045
52	0x3f8763a0	1.0577278
53	0x3f7922e3	0.9731886
54	0x3f87385b	1.0564073
55	0x3f7cc2cd	0.9873474
56	0x3f7cb9c9	0.98720986
57	0x3f82d477	1.0221089
58	0x3f73e727	0.95274585
59	0x3f7640e6	0.9619278
60	0x3f80781f	1.0036658
61	0x3f7624b0	0.9614973
62	0x3f7fcc37	0.9992098
63	0x3f80db34	1.0066895

bias f4 [64]
0	0xbcd577b6	-0.02605806
1	0xbce06d2c	-0.027395807
2	0xbcc878b0	-0.02447161
3	0xbcc134be	-0.02358472
4	0xbd9cf90c	-0.076646894
5	0xbc4cd163	-0.012501094
6	0xbad0fc03	-0.0015944246
7	0x3c3fa373	0.011696684
8	0x3be494ad	0.0069757313
9	0xbd49af91	-0.0492397
10	0xbcf910d0	-0.030403525
11	0xbcfeafda	-0.031089712
12	0xbca93179	-0.020653473
13	0xbcc00a14	-0.023442306
14	0xbcb5ccbd	-0.022192353
15	0xb98af39d	-0.00026502917
16	0xbc76e9d7	-0.0150704
17	0x3cda9669	0.02668305
18	0xbd101c68	-0.03518334
19	0x3c6bf148	0.014400788
20	0xbc24fd3a	-0.01007014
21	0xbc084af0	-0.008318648
22	0x3bace1bd	0.0052759335
23	0xbcffb84a	-0.031215806
24	0xbbd731d4	-0.0065672193
25	0x3a8801ce	0.0010376514
26	0xbcd78ac9	-0.026311295
27	0xbd2b9a7f	-0.041895386
28	0xbd104ab3	-0.03522749
29	0xbb844ea6	-0.004037696
30	0xbb651636	-0.0034955866
31	0xbd2bf3e8	-0.041980654
32	0xbbdbc223	-0.0067064925
33	0x3a026905	0.00049747556
34	0xbc0f60e8	-0.008751132
35	0xbcee679f	-0.029102145
36	0xbd38eff8	-0.045150727
37	0xbb7402a9	-0.003723303
38	0xbc04842a	-0.008088151
39	0xbca47175	-0.020073632
40	0x3bb03f0b	0.005378609
41	0xbd04f347	-0.03245857
42	0xbc858ca4	-0.016302414
43	0x3d3ee6d5	0.046606857
44	0xb9e62870	-0.00043899147
45	0xbc288c6f	-0.010287388
46	0xbd6d0c88	-0.05787328
47	0xbd641f34	-0.05569382
48	0xbc7d47f8	-0.015459053
49	0xbce21e8f	-0.027602462
50	0x3d90a41d	0.07062552
51	0xbd12b372	-0.035815664
52	0x3c7e7149	0.015529939
53	0xbbf7e187	-0.0075647268
54	0xbc8bb3fe	-0.0170536
55	0xbcade8d7	-0.02122919
56	0xbc8090ab	-0.015693983
57	0xbd365c47	-0.044521596
58	0xbc78c0e5	-0.015182708
59	0xbd48c008	-0.04901126
60	0xb988ffd5	-0.0002613055
61	0xbcfb7d30	-0.030699342
62	0xbc8529ec	-0.016255341
63	0x3d24f4c2	0.04027248

running_mean f4 [64]
0	0xbe19e3df	-0.15028332
1	0x3c083c2f	0.00831513
2	0x3c63cedf	0.013904302
3	0xbc9608ea	-0.018314797
4	0x3cacafb3	0.021079874
5	0xbcefb206	-0.029259693
6	0xbd1c044f	-0.038090046
7	0xbb294d35	-0.0025833372
8	0xbe0ef032	-0.13958815
9	0xbc8492cd	-0.016183281
10	0x3d13583a	0.03597281
11	0xbce40082	-0.027832273
12	0xbd08b99a	-0.03338013
13	0xbdd8700b	-0.105682455
14	0x3d5a187c	0.053246006
15	0xbd857ffb	-0.06518551
16	0xbd022036	-0.031769
17	0xbd524a9f	-0.051340695
18	0x3d553936	0.052056514
19	0xbd403bf7	-0.046932187
20	0xbd0bec19	-0.034160707
21	0xbdbbcab2	-0.091695204
22	0xbd761791	-0.06008107
23	0x3a9d53b7	0.0012003098
24	0x3c830a60	0.015996158
25	0xbd308faa	-0.04310576
26	0x3d66b2f2	0.056323
27	0x3cf1bf15	0.02951006
28	0xbd9ddb89	-0.07707889
29	0xbd817117	-0.06320398
30	0xbd8bb1ca	-0.0682102
31	0x3de9dd01	0.11419106
32	0xbd6a0da5	-0.05714192
33	0xbdb1f8e3	-0.086900495
34	0xbd692851	-0.056923214
35	0x3d3f701c	0.046737775
36	0xbd128175	-0.03576799
37	0xbcc860a8	-0.024460152
38	0xbcff670b	-0.031177064
39	0xbd91defe	-0.071226105
40	0xbd289db5	-0.041166026
41	0xbdcdd7e6	-0.10050945
42	0xbcd8e0dd	-0.02647441
43	0xbe2f30b3	-0.17108421
44	0xbdc4f2d4	-0.09616628
45	0x3a7d7d41	0.00096698484
46	0xbd7318f7	-0.05934998
47	0xbcade628	-0.021227911
48	0xbd5cb6d9	-0.053885315
49	0x3d1fba2d	0.03899591
50	0xbde4a4c5	-0.1116424
51	0xbc23fb2b	-0.010008614
52	0xbcbd2742	-0.023090009
53	0xbd08e99d	-0.033425916
54	0xbddaed55	-0.10689799
55	0xbcf2406d	-0.029571736
56	0x3da424f7	0.08014863
57	0x3c8ec4e5	0.017427871
58	0xbd8e6bc3	-0.06954148
59	0x3d9f947b	0.07791992
60	0xbdd8f47e	-0.10593508
61	0xbd8e8ba7	-0.0696023
62	0xbd10bc4d	-0.035335828
63	0xbdda7f36	-0.10668795

running_var f4 [64]
0	0x3b723538	0.003695799
1	0x3c8e2fc4	0.01735676
2	0x3c5eb10d	0.013592017
3	0x3bc856bd	0.0061138556
4	0x3bcfee20	0.0063455254
5	0x3b8506a7	0.004059631
6	0x3b7d60d7	0.0038662457
7	0x3b40ed5d	0.0029438355
8	0x3b72412e	0.003696512
9	0x3b3f8133	0.0029221296
10	0x3b5583dd	0.0032579817
11	0x3c1192ea	0.008885125
12	0x3bc2e2d8	0.005947452
13	0x3baa5900	0.005198598
14	0x3b7b231f	0.0038320494
15	0x3bc5f8ce	0.0060416227
16	0x3b706e91	0.0036686996
17	0x3c09ba65	0.008406256
18	0x3b89e199	0.0042078015
19	0x3b828513	0.003983149
20	0x3b92e94d	0.004483378
21	0x3ba09f9b	0.004901839
22	0x3b52d814	0.003217225
23	0x3b64fb0d	0.0034939677
24	0x3b8f750a	0.004377966
25	0x3b1d9fa6	0.0024051457
26	0x3bab8cbb	0.0052352822
27	0x3bf2c415	0.0074086287
28	0x3b79e8b3	0.0038133084
29	0x3b8f968b	0.00438196
30	0x3b39c091	0.0028343538
31	0x3c04adcf	0.00809808
32	0x3b8af8be	0.004241078
33	0x3b4d0413	0.0031282946
34	0x3b920e75	0.00445729
35	0x3b5bfacd	0.0033566237
36	0x3bb7d435	0.005610014
37	0x3c0aee95	0.008479734
38	0x3ba14d95	0.0049225786
39	0x3b9decfb	0.00481951
40	0x3bb171cc	0.005415177
41	0x3be2864a	0.006912981
42	0x3b341848	0.0027480293
43	0x3bb51ae9	0.0055268896
44	0x3b95ec10	0.00457526
45	0x3bbb5d72	0.0057179267
46	0x3bc7b7ad	0.006094894
47	0x3c8c2a5d	0.017110044
48	0x3b8ede0c	0.004359966
49	0x3bc9bfb3	0.0061568855
50	0x3bc6e4d7	0.0060697603
51	0x3bbf1ac9	0.0058320505
52	0x3c09dd60	0.008414596
53	0x3b1aae74	0.0023602517
54	0x3c230d62	0.009951921
55	0x3c08cb4d	0.008349252
56	0x3b942a06	0.004521611
57	0x3b48edaf	0.0030659249
58	0x3c02013e	0.0079348665
59	0x3bf47867	0.007460642
60	0x3b96e7ea	0.004605283
61	0x3b9f7ebf	0.0048674042
62	0x3b79e36b	0.0038129936
63	0x3bcde5a4	0.006283479

weight f4 [128, 64, 4, 4]
0	0xbc7ffdee	-0.015624506
1	0xbd4bdc12	-0.049770422
2	0xbd6555ef	-0.055990156
3	0x3b1265ee	0.0022338587
4	0xbc48383d	-0.0122204395
5	0xbd174119	-0.036927316
6	0x3c9a416b	0.018830022
7	0x3ce7b607	0.02828504
8	0xbafddaa3	-0.0019367527
9	0xbc3a2d63	-0.01136336
10	0xbba19fcb	-0.004932379
11	0xbc8bc519	-0.017061757
12	0x3c99a580	0.018755674
13	0x3d8270e1	0.06369186
14	0x3cdc7ef9	0.026916014
15	0x3ca0799c	0.019589238
16	0x3b7482ee	0.0037309485
17	0x3c1b5c74	0.009482492
18	0xbc1fd782	-0.009755971
19	0xbc94e060	-0.018173397
20	0x3d266b22	0.040629514
21	0xbc900443	-0.017580157
22	0x3bf97894	0.007613251
23	0x3cd07ecb	0.025451085
24	0xbd47a6d4	-0.048743084
25	0xbbab6f75	-0.0052317926
26	0xbd060363	-0.032718074
27	0x3bd32c3a	0.006444481
28	0xbc9b0469	-0.018923001
29	0xbc0a4e90	-0.008441582
30	0xbd100450	-0.035160363
31	0xbd441e51	-0.047880474
32	0x3c4fffe7	0.012695289
33	0xbcb6d581	-0.022318603
34	0xbc8df9af	-0.017330972
35	0xbcb9b1ae	-0.022667732
36	0xbceb5fda	-0.028732229
37	0x3cf2bbd6	0.029630583
38	0x3c15839c	0.009125616
39	0xbd7bb2d9	-0.06144986
40	0x3cae1a47	0.021252764
41	0xba0bd47e	-0.0005334093
42	0x3d193246	0.03740146
43	0xbcbe93bb	-0.023263803
44	0xbcf5fe96	-0.030028623
45	0x3d091c79	0.03347442
46	0xbd34db65	-0.044154543
47	0xbc395de3	-0.011313888
48	0x3d01031e	0.031497113
49	0xbaf3e4e1	-0.001860764
50	0xbc7fa644	-0.015603606
51	0x3c1b3504	0.009473089
52	0xbb2a5841	-0.0025992545
53	0x3b548d91	0.0032433013
54	0xbb7e3616	-0.0038789562
55	0x3cdfb639	0.02730857
56	0xbd46e17e	-0.04855489
57	0x3cb586d8	0.022159025
58	0x3d3c0a73	0.045908403
59	0x3c156a9f	0.009119659
60	0xbc979424	-0.018503256
61	0xbbd495ae	-0.00648757
62	0xbc68b4fb	-0.014203305
63	0x3c6e3c5a	0.014540756
64	0x3ad8d276	0.0016542214
65	0x3c4f14bf	0.012639224
66	0xbc242739	-0.010019117
67	0x3cb3f43a	0.021967042
68	0x3bc7df4e	0.006099618
69	0xbcd3f229	-0.025872307
70	0x3c90ccf3	0.017675852
71	0xbcaabd71	-0.020842286
72	0x3c8f14e7	0.017466022
73	0x3b189fec	0.002328868
74	0x3d3cfe36	0.046140872
75	0x3c8c5508	0.01713039
76	0xbc1ce18b	-0.009575258
77	0xbc92d582	-0.017924074
78	0x3d6e0144	0.058106676
79	0xbd09f7da	-0.033683635
80	0x3c17be8e	0.00926174
81	0x3cda8708	0.026675716
82	0xbce07070	-0.027397364
83	0xbd8908cb	-0.0669113
84	0xbd7eed46	-0.062238
85	0x3dcc498f	0.09974968
86	0x3d1833fc	0.03715895
87	0x3d00c1a6	0.031434678
88	0xbc7ea00b	-0.015541087
89	0xbd14bb8b	-0.036311667
90	0x3af2d371	0.0018526149
91	0xbcf2039e	-0.02954274
92	0x3cd62cbb	0.026144376
93	0x3cea2d50	0.02858606
94	0xbbb64b3d	-0.0055631683
95	0x3d47a3f5	0.048740346
96	0xbc5fd713	-0.0136621175
97	0xbd58bc0a	-0.052913703
98	0x3d0be20e	0.03415113
99	0xbc2e8274	-0.01065122
100	0xbcb1f74f	-0.021724371
101	0xbbe6ddad	-0.007045469
102	0xbc5ed3a0	-0.01360026
103	0xbc6d5a9e	-0.014486937
104	0xbcf39494	-0.029733934
105	0x3a36be85	0.00069711386
106	0x3a2aaaf3	0.0006510459
107	0xbcb663ad	-0.022264326
108	0xba02a01b	-0.0004982964
109	0x3c4ada51	0.012381152
110	0xbc7cbd02	-0.015425922
111	0x3d2393f4	0.03993602
112	0xbb201e4c	-0.002443212
113	0x3d1fe1e2	0.039033778
114	0x3bdc1eea	0.0067175524
115	0x3cccadda	0.024985243
116	0xbc3c50a1	-0.011493833
117	0x3c20d53e	0.009816466
118	0x3c58082e	0.013185544
119	0x3d158ab5	0.036509234
120	0x3c4f8f9c	0.0126685165
121	0x3c7c1e01	0.015388013
122	0xbb3036c8	-0.002688812
123	0xbcc86a63	-0.024464792
124	0xbbcc5960	-0.0062362403
125	0x3ad6b47a	0.001638069
126	0x3c56af65	0.013103341
127	0x3b354310	0.002765838
128	0x3ceb56dd	0.028727943
129	0xbbf14bbb	-0.007363764
130	0xbc8e9bca	-0.01740827
131	0x3ce20a5c	0.02759283
132	0xbbdf85a1	-0.0068213497
133	0x3c12dc4c	0.008963656
134	0xbce0c3a6	-0.027437042
135	0x3d066f75	0.032821137
136	0xbcd403fb	-0.025880804
137	0xbc769c0a	-0.015051851
138	0xbba68c19	-0.005082619
139	0x3cf4b4aa	0.029871304
140	0xbc94fbde	-0.018186506
141	0x3ba6c520	0.005089417
142	0x3bcf1cae	0.0063205576
143	0x3b1ce53a	0.002394034
144	0x3bd8b970	0.0066139027
145	0xbc5154c4	-0.012776557
146	0xbca5b02a	-0.020225603
147	0x3d13f082	0.036118038
148	0xbc1b8b2e	-0.009493632
149	0x3cc206c8	0.023684874
150	0x3b920f65	0.0044574016
151	0xbcca15bf	-0.024668572
152	0x3ba59abf	0.0050538476
153	0xbc7c2574	-0.015389789
154	0x3af9b456	0.0019050937
155	0x3c62a7dd	0.013833967
156	0x3c7b3054	0.015331347
157	0xbcbd6134	-0.02311764
158	0xbd534e59	-0.05158839
159	0xbc9c7597	-0.01909904
160	0xbb1ec7a7	-0.0024227889
161	0x3ce568d0	0.02800408
162	0xbb919df8	-0.00444388
163	0x3bd4d50f	0.006495125
164	0x3d17fb06	0.03710463
165	0xbd2dd0e6	-0.04243555
166	0x3d089db7	0.033353534
167	0x3bcbba33	0.006217265
168	0xbc2bdd3e	-0.01048976
169	0xbc4f1e8c	-0.01264156
170	0x3b9c0758	0.0047616176
171	0x3b33182e	0.0027327645
172	0xbcadb642	-0.021205071
173	0x3c84305d	0.016136343
174	0x3cca2ce0	0.024679601
175	0xbbacbceb	-0.005271544
176	0x3bca0c07	0.0061659846
177	0x3cb1e6af	0.021716444
178	0xbd2a3d25	-0.04156222
179	0x3b914435	0.0044331797
180	0xbcf2f166	-0.029656123
181	0xbc5b6f19	-0.013393187
182	0xbc9f5908	-0.019451633
183	0x3bc91799	0.0061368463
184	0x39d4c233	0.0004058048
185	0x3c84d262	0.0162136
186	0x3c78f4be	0.01519507
187	0x3cb5cc90	0.02219227
188	0x3d29c8b0	0.041451156
189	0xbc289557	-0.010289512
190	0xbb1956be	-0.002339765
191	0x3cd94542	0.026522283
192	0xbd223c7b	-0.03960846
193	0xbb7fc176	-0.0039025224
194	0xbc8e9921	-0.017407002
195	0xbc976814	-0.018482246
196	0xbcd5a066	-0.02607746
197	0xb9d71b84	-0.00041028496
198	0x3c308193	0.01077308
199	0x3c511bf6	0.012763014
200	0x3d16720f	0.03672987
201	0xbd126bf9	-0.035747502
202	0x3ca37879	0.019954907
203	0xbc339b2c	-0.010962289
204	0xbc61544f	-0.013753011
205	0xbd37fd15	-0.044919092
206	0x3d69574f	0.05696803
207	0x3cce39dd	0.025174076
208	0x3cee4ac8	0.029088393
209	0xbc4565b1	-0.012048171
210	0x3c6d9258	0.014500223
211	0xbc9d7c5a	-0.019224335
212	0xbb7e9377	-0.003884522
213	0xbabaa238	-0.0014239019
214	0xbd103e7f	-0.03521585
215	0xbbbe135a	-0.0058006467
216	0xb8e95fdd	-0.00011128162
217	0x3ce141fe	0.027497288
218	0x3c734aaf	0.014849349
219	0x3d1c9e86	0.038237117
220	0xbd48a2ae	-0.04898327
221	0x3c290319	0.01031568
222	0xbcaa2613	-0.020770108
223	0x3c296710	0.010339513
224	0x3c6fda50	0.014639452
225	0xbcc288a8	-0.023746803
226	0xbc538d62	-0.012912126
227	0xbd3260f6	-0.0435495
228	0xbbebaa5e	-0.00719194
229	0x3c54f0e1	0.012996883
230	0x3ca2ef6e	0.01988956
231	0xbcc08bcf	-0.023504166
232	0xbcf23f8c	-0.029571317
233	0xbc4e6a02	-0.012598516
234	0xbd06b782	-0.03288985
235	0xbd3f6663	-0.046728503
236	0xbd367119	-0.044541452
237	0xbccd2a36	-0.025044542
238	0xbcdb5379	-0.026773201
239	0x3c1b27ad	0.009469909
240	0x3ba6c4d6	0.0050893826
241	0x3cbf65bc	0.02336394
242	0xbd19c098	-0.037537187
243	0x3c184479	0.009293669
244	0xbd9ba291	-0.075993665
245	0xbcc6fc2c	-0.024290167
246	0x3ad72679	0.0016414664
247	0xbc8b1660	-0.016978443
248	0xbd27409b	-0.040833097
249	0xbc929a5f	-0.017895875
250	0xbca19f12	-0.019729171
251	0xbcdb28be	-0.026752826
252	0x3c0538b8	0.008131199
253	0xbbc551fe	-0.006021737
254	0x3ca4a361	0.020097436
255	0x3c639ea0	0.0138928

weight f4 [128]
0	0x3f84e7f4	1.0383286
1	0x3f8db179	1.1069785
2	0x3f89ffa8	1.0781145
3	0x3f8b4848	1.0881433
4	0x3f840553	1.0314125
5	0x3f8e4e01	1.1117555
6	0x3f8a2dd0	1.0795231
7	0x3f8fd8b4	1.1238008
8	0x3f8dc299	1.1075011
9	0x3f8f96f9	1.1217948
10	0x3f834b8b	1.0257429
11	0x3f8ddbaf	1.1082667
12	0x3f85586c	1.0417609
13	0x3f8e1c3c	1.1102366
14	0x3f8954ba	1.0728981
15	0x3f94fbbf	1.1639327
16	0x3f84787e	1.0349271
17	0x3f85c71c	1.0451388
18	0x3f9078d6	1.1286876
19	0x3f80c0c2	1.0058825
20	0x3f8a4062	1.0800898
21	0x3f8359dd	1.0261799
22	0x3f73b1ff	0.95193475
23	0x3f919beb	1.1375707
24	0x3f87ecca	1.0619137
25	0x3f888276	1.0664814
26	0x3f85cc4a	1.0452969
27	0x3f8b4147	1.0879296
28	0x3f874b1a	1.0569794
29	0x3f8c0991	1.094042
30	0x3f872fd4	1.0561471
31	0x3f851699	1.0397521
32	0x3f840c6e	1.0316293
33	0x3f8c9594	1.0983148
34	0x3f88fda7	1.0702409
35	0x3f83c458	1.0294294
36	0x3f858c01	1.0433351
37	0x3f8f7e58	1.1210432
38	0x3f8725f3	1.0558456
39	0x3f88b290	1.0679493
40	0x3f7be02d	0.9838894
41	0x3f861837	1.047614
42	0x3f909719	1.1296111
43	0x3f8897a3	1.0671276
44	0x3f93c8d6	1.1545665
45	0x3f810c8e	1.0081956
46	0x3f88b557	1.068034
47	0x3f884dca	1.0648739
48	0x3f7a9155	0.9787801
49	0x3f800800	1.0002441
50	0x3f8b057d	1.086105
51	0x3f88b776	1.0680988
52	0x3f96ec0c	1.1790786
53	0x3f8d6915	1.1047693
54	0x3f90232a	1.1260731
55	0x3f8dba66	1.1072509
56	0x3f828655	1.0197245
57	0x3f8ce7c9	1.1008235
58	0x3f8aae0d	1.0834366
59	0x3f88d9d1	1.0691472
60	0x3f884048	1.0644617
61	0x3f887deb	1.0663427
62	0x3f8e0993	1.1096672
63	0x3f8a1efa	1.0790703
64	0x3f871454	1.0553079
65	0x3f87759a	1.0582764
66	0x3f834c99	1.0257751
67	0x3f80d531	1.0065061
68	0x3f891458	1.0709333
69	0x3f89e400	1.0772705
70	0x3f839556	1.0279949
71	0x3f8915d1	1.0709783
72	0x3f8a57da	1.080806
73	0x3f8850e1	1.0649682
74	0x3f831feb	1.0244116
75	0x3f81c5ed	1.0138527
76	0x3f8dbbe9	1.1072971
77	0x3f86422e	1.0488946
78	0x3f87668f	1.0578173
79	0x3f819524	1.0123639
80	0x3f84f9c7	1.0388726
81	0x3f85eebc	1.0463481
82	0x3f8e1251	1.109934
83	0x3f8784e0	1.0587425
84	0x3f857f17	1.042941
85	0x3f80f141	1.0073625
86	0x3f924821	1.1428262
87	0x3f84c397	1.0372189
88	0x3f8746b9	1.0568458
89	0x3f8c544d	1.0963227
90	0x3f88e878	1.0695944
91	0x3f876582	1.0577853
92	0x3f88f7cc	1.0700622
93	0x3f84ba49	1.036935
94	0x3f89f726	1.0778549
95	0x3f91c1c7	1.1387261
96	0x3f8e6abd	1.1126324
97	0x3f7f3611	0.99691874
98	0x3f8c1ddb	1.0946611
99	0x3f89f11c	1.0776706
100	0x3f864e74	1.0492692
101	0x3f835e75	1.0263201
102	0x3f884b09	1.0647899
103	0x3f86e5ab	1.0538839
104	0x3f8a33e2	1.0797083
105	0x3f91f831	1.1403867
106	0x3f914dc8	1.1351862
107	0x3f8ae2ff	1.0850524
108	0x3f840912	1.0315268
109	0x3f860904	1.0471501
110	0x3f7cea5a	0.9879509
111	0x3f8ceca3	1.1009716
112	0x3f8cae96	1.0990779
113	0x3f826339	1.018653
114	0x3f868f7d	1.0512539
115	0x3f85fc08	1.0467539
116	0x3f859955	1.0437418
117	0x3f86b62e	1.0524347
118	0x3f8df0e6	1.1089141
119	0x3f860340	1.0469742
120	0x3f9213c9	1.1412288
121	0x3f8a4733	1.0802978
122	0x3f85475a	1.04124
123	0x3f828c00	1.0198975
124	0x3f89b527	1.0758408
125	0x3f86c58e	1.0529039
126	0x3f88a28e	1.0674608
127	0x3f88bb8e	1.0682237

bias f4 [128]
0	0x3d1f642d	0.038913894
1	0x3df86031	0.12127722
2	0x3ac6405f	0.0015125385
3	0x3d98e8c3	0.07466271
4	0x3c937d85	0.018004188
5	0x3dd76b98	0.10518569
6	0x3d433e53	0.04766686
7	0x3d69ddde	0.057096355
8	0x3d812665	0.06306151
9	0x3d926cf7	0.0714969
10	0xbd026c2c	-0.031841442
11	0x3d1619ef	0.036645826
12	0x3d43957b	0.047749978
13	0x3dabda42	0.08391239
14	0x3b84145d	0.004030748
15	0x3e32526a	0.17414251
16	0x3d1991d3	0.037492584
17	0x3d101c5c	0.035183296
18	0x3dd377a4	0.10325554
19	0x3d00e88b	0.03147177
20	0x3d1c8b79	0.03821895
21	0x39ee2446	0.00045421923
22	0xbb6f0e1d	-0.0036476918
23	0x3ce439c2	0.027859572
24	0x3db88b2a	0.090109184
25	0x3da8db10	0.08244908
26	0x3b0dc3fa	0.0021631704
27	0x3dc8cb01	0.09804345
28	0x3cf3f002	0.02977753
29	0x3d7003ff	0.05859756
30	0x3d07bfeb	0.03314201
31	0x3d5fbb9e	0.054622285
32	0x3cd0fc4b	0.025510928
33	0x3d521758	0.051291794
34	0x3d93e0a5	0.07220582
35	0x3c4f05d6	0.012635669
36	0x3cb6ede3	0.02233023
37	0x3d2eb0ab	0.042648952
38	0x3d3834e5	0.04497232
39	0x3d2a98bf	0.041649576
40	0xbcd1a5e2	-0.025591794
41	0x3c99488f	0.018711356
42	0x3dbabbb8	0.09117836
43	0x3d81c823	0.06337001
44	0x3db3c650	0.087780595
45	0x3cc94f2e	0.024573889
46	0x3d861a2b	0.0654796
47	0x3d485c5b	0.048916202
48	0xbc426c45	-0.011866634
49	0x3c84afd6	0.016197126
50	0x3d8761e2	0.066104665
51	0x3d4606be	0.048346274
52	0x3deca64c	0.11555156
53	0x3da5b8bf	0.08091878
54	0x3dd44804	0.103652984
55	0x3d86d3f1	0.06583393
56	0x3cbb6444	0.022874959
57	0x3c577b01	0.013151885
58	0x3d5ad108	0.053422004
59	0x3d335ca7	0.043789532
60	0x3d4932a1	0.04912055
61	0x3d8b6d0e	0.0680791
62	0x3d905882	0.070481315
63	0x3d17747f	0.036976334
64	0xba8ccb17	-0.0010741678
65	0x3d14505b	0.036209445
66	0x3d0e354d	0.0347188
67	0x3d289cf3	0.041165303
68	0x3dd783f6	0.105232164
69	0x3d36c934	0.044625476
70	0x3cfb2390	0.030656606
71	0x3d3eed44	0.046612993
72	0x3d391a40	0.04519105
73	0x3bad745d	0.0052934126
74	0xbc902faf	-0.017600862
75	0x3ae671b1	0.001758149
76	0x3d98ddf3	0.074642085
77	0x3c8ad0d0	0.016945273
78	0x3c47ea4d	0.012201858
79	0x3c5912fb	0.013249154
80	0x3ccb1d33	0.024794197
81	0x3d058ed7	0.032606926
82	0x3d6c51af	0.057695087
83	0x3d699674	0.05702825
84	0x3c58a3f4	0.013222683
85	0xbb01ae51	-0.0019787739
86	0x3db29b91	0.08721078
87	0x3c617226	0.013760125
88	0x3c1a5709	0.009420165
89	0x3db2fa98	0.08739203
90	0x3d1656ef	0.036704
91	0x3d0f168d	0.034933615
92	0x3cf43429	0.029810028
93	0x3ccc2752	0.024921093
94	0x3d4a97ee	0.049461298
95	0x3da68127	0.081301026
96	0x3d55f88f	0.052238997
97	0xbce451af	-0.027870981
98	0x3d0eaba0	0.034831643
99	0xbba40781	-0.0050057773
100	0xbc15dccd	-0.009146881
101	0x3cf99791	0.03046778
102	0x3d2ef76d	0.042716432
103	0x3bddeb04	0.006772401
104	0x3d8a18e8	0.06743032
105	0x3d08f779	0.033439133
106	0x3dc816ba	0.0976996
107	0x3d300071	0.04296917
108	0x3cf8ef62	0.030387584
109	0x3d775220	0.060381055
110	0x3cafd22b	0.02146252
111	0x3ced523f	0.028969882
112	0x3d212dd3	0.039350342
113	0x3d12d04f	0.03584319
114	0x3d754793	0.05988271
115	0xbc0575b2	-0.0081457365
116	0x3cdc7501	0.02691126
117	0x3cb86db5	0.02251325
118	0x3d4b069e	0.049566858
119	0x3c680109	0.014160403
120	0x3dc1b2c9	0.09457929
121	0x3b906aa1	0.0044072424
122	0x3d365de7	0.044523146
123	0x3c895a81	0.016766788
124	0x3dbff52d	0.093729354
125	0x3c97ce9f	0.018531142
126	0x3cd86876	0.026416998
127	0x3d008d3c	0.03138469

running_mean f4 [128]
0	0xbee73726	-0.45159262
1	0xbe10a2a3	-0.14124541
2	0xbeea94ff	-0.458168
3	0xbed1406a	-0.40869457
4	0x3e8a9a44	0.2707082
5	0x3f1bc85b	0.60852593
6	0x3db946fc	0.09046742
7	0xbf677dd9	-0.90426403
8	0xbed4a460	-0.41531658
9	0xbf34833d	-0.70512754
10	0xbe79ddea	-0.2440106
11	0x3eb44b76	0.35213822
12	0xbef2ec5d	-0.47445956
13	0xbf8d25d5	-1.102717
14	0xbea39964	-0.31952965
15	0xbf38e192	-0.72219193
16	0x3dfd7e24	0.12377575
17	0x3e88b9a3	0.2670413
18	0xbf10fe73	-0.5663826
19	0xbe8d3e62	-0.27586657
20	0x3ef68eae	0.4815573
21	0xbe25d24b	-0.16193502
22	0xbf24e4d5	-0.6441167
23	0xbe9c293d	-0.30500212
24	0xbe91c86c	-0.28473222
25	0xbdaef52f	-0.08542859
26	0xbe7ac19e	-0.24487922
27	0x3fa15c59	1.2606307
28	0xbe80d3f6	-0.25161713
29	0xbf4104c3	-0.7539789
30	0xbf18425e	-0.5947627
31	0xbebaa538	-0.36454177
32	0x3d5ed261	0.05439985
33	0xbf0252b7	-0.5090746
34	0x3e6c1061	0.23053123
35	0xbd428762	-0.047492392
36	0xbeb8955d	-0.36051455
37	0xbef20891	-0.4727216
38	0x3c8330cd	0.016014481
39	0xbebb4360	-0.3657484
40	0x3ecc2f9a	0.39880067
41	0x3e018f24	0.1265226
42	0xbe973aa7	-0.29536936
43	0x3d4db70f	0.050223406
44	0x3e98828f	0.29787108
45	0xbef3e4a0	-0.47635365
46	0xbd4c3491	-0.04985482
47	0xbf161b9b	-0.5863587
48	0x3eaa0e07	0.33213827
49	0xbef62bf7	-0.48080418
50	0x3e5b6b28	0.21427596
51	0xbf2e45c0	-0.6807518
52	0xbeaa9842	-0.33319288
53	0x3e7c1145	0.24615963
54	0xbe0342aa	-0.12818399
55	0xbe80f632	-0.25187832
56	0xbf124cac	-0.5714824
57	0xbee71fae	-0.45141357
58	0xbf3d68b4	-0.7398789
59	0x3e8834a0	0.2660265
60	0xbf445815	-0.766969
61	0xbf47cd9b	-0.78048104
62	0x3f238b04	0.63883996
63	0xbf818cb0	-1.012106
64	0xbeeb3d74	-0.45945323
65	0xbf237289	-0.6384664
66	0xbc31984c	-0.010839533
67	0x3e834ca2	0.25644404
68	0xbd9edfc8	-0.07757527
69	0xbea3e93c	-0.3201388
70	0x3f0859f7	0.53262275
71	0xbefd61da	-0.49488717
72	0xbea5bda5	-0.3237125
73	0xbddc0c36	-0.107445166
74	0x3f059b7b	0.5219037
75	0x3f065bab	0.52483624
76	0xbe36e199	-0.17859496
77	0xbf5ecd26	-0.8703178
78	0xbf1471a7	-0.5798592
79	0x3e2b3dbe	0.16722772
80	0x3e295afb	0.16538613
81	0x3e7bbf88	0.24584782
82	0x3d98c3c8	0.07459217
83	0xbf6b681d	-0.9195574
84	0x3e2d04e0	0.16896391
85	0xbdae02ae	-0.08496605
86	0xbf439cb0	-0.7641096
87	0xbd76857e	-0.0601859
88	0xbee44f88	-0.44591928
89	0xbf2684ad	-0.650462
90	0x3f181280	0.5940323
91	0xbf444214	-0.7666333
92	0x3e94e9fd	0.2908477
93	0x3e97b5ca	0.29630882
94	0xbf709623	-0.9397909
95	0x3d8cd8cc	0.06877288
96	0xbe787ddc	-0.24266762
97	0xbeea4a48	-0.45759797
98	0xbf1e503d	-0.61841184
99	0xbd3fe509	-0.046849284
100	0xbf5f296a	-0.8717257
101	0xbd13dd14	-0.03609951
102	0x3d366b57	0.04453596
103	0xbe9bd457	-0.3043544
104	0xbcb26a1f	-0.021779118
105	0xbf222f3e	-0.63353336
106	0xbf06b8f5	-0.5262597
107	0x3ed7c8a0	0.42145252
108	0x3e07866c	0.13234872
109	0xbee10274	-0.43947184
110	0xbf5d8149	-0.865254
111	0xbfa52781	-1.2902681
112	0x3eb25d20	0.34836674
113	0x3ed4f130	0.4159026
114	0xbef8d34c	-0.48598707
115	0x3dded515	0.10880486
116	0xbef859d0	-0.48506021
117	0x3efe7d25	0.49704853
118	0x3f16f5c1	0.5896874
119	0xbdba66e1	-0.09101654
120	0xbea02963	-0.31281576
121	0xbd97bd59	-0.07409162
122	0x3e9d7101	0.30750278
123	0x3f90ac95	1.1302668
124	0xbe14c92a	-0.14529863
125	0xbdd99b43	-0.10625317
126	0x3ede5424	0.4342357
127	0xbe530257	-0.20606361

running_var f4 [128]
0	0x3eb508e4	0.35358346
1	0x3ee036c6	0.4379179
2	0x3edc0311	0.4297109
3	0x3f392868	0.7232728
4	0x3f580371	0.8438025
5	0x3f444c71	0.7667914
6	0x3f0de107	0.5542149
7	0x3f729a59	0.94766766
8	0x3eb6328c	0.3558544
9	0x3f21b8e5	0.6317275
10	0x3ef96265	0.48707882
11	0x3f47c437	0.78033775
12	0x3ed3388e	0.41254085
13	0x3f4ee846	0.8082317
14	0x3f349c85	0.7055133
15	0x3f073c92	0.528268
16	0x3ee6eba2	0.4510165
17	0x3f484b5a	0.7823998
18	0x3ef3fad8	0.47652316
19	0x3f1b5974	0.6068337
20	0x3f571409	0.84014946
21	0x3f44f66e	0.7693852
22	0x3f9e75cd	1.23797
23	0x3f267b12	0.6503154
24	0x3f20ad62	0.6276456
25	0x3eeccf4c	0.46251905
26	0x3f454284	0.7705462
27	0x3ec8d402	0.3922425
28	0x3eb624b2	0.3557487
29	0x3ed8198b	0.42206988
30	0x3fce6999	1.6125976
31	0x3f452b7e	0.7701949
32	0x3fe73c8b	1.8065351
33	0x3ee207d1	0.44146588
34	0x3eb03d79	0.344219
35	0x3e964e60	0.2935667
36	0x3f7117f0	0.9417715
37	0x3f220234	0.6328461
38	0x3ee97a30	0.45601034
39	0x3f39f25f	0.72635454
40	0x3f48adaf	0.7839002
41	0x3f683ed5	0.90720874
42	0x3ed00ef3	0.40636405
43	0x3f340528	0.7032037
44	0x3ee6dd1f	0.45090577
45	0x3f25f99c	0.64834
46	0x3f107fe5	0.5644515
47	0x3f6b0705	0.91807586
48	0x3ec0b9d0	0.37641764
49	0x3f5c5ccd	0.860791
50	0x3ea01a24	0.31269944
51	0x3ee126db	0.43974957
52	0x3f242847	0.6412396
53	0x3f00f7d8	0.5037818
54	0x3f203f9c	0.6259706
55	0x3f1c69eb	0.6109912
56	0x3f4dff1b	0.80467385
57	0x3ea60f97	0.3243377
58	0x3f668a2b	0.9005458
59	0x3f2d6a31	0.6774016
60	0x3f201ce2	0.6254407
61	0x3f06430a	0.52446043
62	0x3eee3ffe	0.46533197
63	0x3ef88c64	0.4854461
64	0x3ed50dce	0.41612095
65	0x3f5f3648	0.871922
66	0x3fa63cfe	1.2987363
67	0x3f1da20d	0.61575395
68	0x3ee35b6c	0.44405687
69	0x3f4005b8	0.75008726
70	0x3f11ae91	0.5690699
71	0x3f5fecaa	0.87470496
72	0x3f591f1d	0.848131
73	0x3f83c836	1.0295475
74	0x3f7744ca	0.9658934
75	0x3ecf3bd5	0.40475336
76	0x3f06b142	0.52614224
77	0x3ed4a1c6	0.41529673
78	0x3f2b0ca2	0.6681615
79	0x3f211daf	0.6293592
80	0x3f169c27	0.5883202
81	0x3f3c0e5c	0.7345941
82	0x3f2fdb6f	0.68694204
83	0x3f7fd7a4	0.99938416
84	0x3eb53dd7	0.35398743
85	0x3f05ea34	0.5231049
86	0x3ef0f2a7	0.4706013
87	0x3f3a1362	0.72685826
88	0x3f048ab7	0.5177416
89	0x3ec85301	0.39125827
90	0x3f971178	1.1802206
91	0x3f00759d	0.50179464
92	0x3edd8ede	0.43273062
93	0x3f336633	0.7007782
94	0x3f3b0bce	0.7306489
95	0x3ec6d8ab	0.3883718
96	0x3ed3a3b5	0.41335836
97	0x3efc0474	0.49222147
98	0x3f2c6405	0.6734012
99	0x3f0ff863	0.56238383
100	0x3f073985	0.5282214
101	0x3f8578bd	1.0427471
102	0x3ee48d6a	0.4463914
103	0x3f360d0c	0.7111366
104	0x3f263d66	0.64937437
105	0x3ec3fdab	0.3827947
106	0x3edc2bed	0.43002263
107	0x3f82cea6	1.0219314
108	0x3efb7c7b	0.4911841
109	0x3f35496a	0.70815146
110	0x3f53dd27	0.82759327
111	0x3eeccb9b	0.4624909
112	0x3f2b2e18	0.6686721
113	0x3f64d338	0.89384794
114	0x3f22a1a9	0.63527924
115	0x3eb02418	0.34402537
116	0x3f45ce32	0.77267754
117	0x3ec212cd	0.3790497
118	0x3f7f7e32	0.99801934
119	0x3f2d7c5f	0.677679
120	0x3f0db27a	0.5535046
121	0x3f34464b	0.7041976
122	0x3eb0e8d0	0.34552622
123	0x3f0742e9	0.5283647
124	0x3f7664cd	0.9624756
125	0x3f048915	0.5177167
126	0x3f096d38	0.5368228
127	0x3f0b9e43	0.54538363

weight f4 [1, 128, 4, 4]
0	0xbd8f943a	-0.07010694
1	0x3d07dbef	0.03316873
2	0x3c0ee21d	0.008720902
3	0x3d6334a2	0.055470116
4	0x3cdfe1d1	0.027329357
5	0x3d6ab9c1	0.057306055
6	0x3ceffacd	0.029294396
7	0x3df60937	0.12013476
8	0x3c62b9f3	0.013838279
9	0x3c4626b9	0.012094193
10	0x3d308064	0.043091193
11	0x3d21411f	0.039368745
12	0xbc4e217a	-0.012581224
13	0xbd04e2aa	-0.032442726
14	0xbd5647cf	-0.052314576
15	0x3c7ca7a7	0.015420831
16	0x3c4c946f	0.012486561
17	0x3d24d00c	0.04023747
18	0x3d677e66	0.056517027
19	0xbd7474e0	-0.059681773
20	0x3dc741dc	0.097293586
21	0x3de4d425	0.11173276
22	0x3dce50b9	0.100739904
23	0xbb95f71f	-0.0045765783
24	0x3d9ae4f2	0.07563199
25	0x3d5c8e7b	0.053846817
26	0x3d602075	0.054718453
27	0xbbcb06ab	-0.0061958632
28	0x3dc8c4c9	0.09803159
29	0xbd23fb95	-0.04003485
30	0x3bfafa3b	0.0076592243
31	0xbd9d1064	-0.07669142
32	0x3d0e754b	0.034779828
33	0x3d196857	0.03745302
34	0x3d12f13b	0.035874587
35	0x3aa9802c	0.0012931875
36	0xbd26939d	-0.04066812
37	0x3ce33f0c	0.027740024
38	0x3c0de3a3	0.00866023
39	0xbc86dfc2	-0.016464118
40	0xbcbc6678	-0.02299808
41	0x3cb5ee4f	0.022208361
42	0x3bb46993	0.0055057495
43	0xbc524636	-0.012834122
44	0xbd33f27d	-0.043932427
45	0x3d459f29	0.04824749
46	0x3d78e40a	0.06076435
47	0xbd33e10a	-0.043915786
48	0x3d68a117	0.056794252
49	0x3d106c28	0.035259396
50	0x3d48471d	0.048895944
51	0xbd888f42	-0.06667949
52	0x3d299cfa	0.04140947
53	0x3d58d9c5	0.052942056
54	0x3db0f0ad	0.08639655
55	0xbcd9f235	-0.026604751
56	0x3d2fcba8	0.04291883
57	0x3d7d307d	0.06181382
58	0x3d1b7051	0.03794891
59	0x3c259745	0.010106866
60	0x3cc25f6f	0.023727147
61	0x3c776500	0.015099764
62	0x3d850ac8	0.06496197
63	0xbd87cb2d	-0.066305496
64	0x3cccddc8	0.025008097
65	0x3c837047	0.016044749
66	0x3cbcb1df	0.023034034
67	0x3d24d5c7	0.040242936
68	0xbd0240dc	-0.031800136
69	0x3d30fc6c	0.04320948
70	0x3bee7db9	0.007278171
71	0x3d7dcdcf	0.061963852
72	0x3c49aec3	0.012309733
73	0x3c178519	0.009248042
74	0x3d28191b	0.041039567
75	0x3d19a316	0.037509046
76	0xbc6a9476	-0.014317622
77	0x3c282e30	0.010264918
78	0x3d20ba7f	0.039240357
79	0x3c546c8e	0.012965335
80	0x3dbd1072	0.09231652
81	0xbc858cca	-0.016302485
82	0xbc8855f0	-0.01664254
83	0xbdca2d4e	-0.098719224
84	0x3d920f37	0.07131808
85	0x3d0e05fe	0.034673683
86	0x3d49780c	0.04918675
87	0xbd7c8e31	-0.06165904
88	0x3d5318e4	0.05153741
89	0x3cd528f0	0.026020497
90	0x3b790d53	0.0038002327
91	0xbc1b6a15	-0.009485741
92	0x3da8f9d3	0.08250775
93	0x3dc230b4	0.09481946
94	0x3da21770	0.079146266
95	0x3d050477	0.03247496
96	0x3c39ec7d	0.011347887
97	0x3d434cdf	0.047680732
98	0xbd048ba6	-0.03235974
99	0x3e121e81	0.14269449
100	0x3c162a9b	0.009165431
101	0xbc2b6925	-0.01046208
102	0x3cf843a0	0.030305684
103	0x3d435b58	0.047694534
104	0xbd260a44	-0.040537134
105	0x3cde0eab	0.027106604
106	0x3c65304d	0.013988567
107	0x3c0f63d8	0.008751832
108	0xbd50ec97	-0.05100688
109	0xbd8e9c00	-0.069633484
110	0xbd8afc57	-0.06786411
111	0xbc4f07f4	-0.0126361735
112	0xbdf80eb2	-0.12112178
113	0xbc831aed	-0.01600405
114	0xbcbaac83	-0.022787338
115	0xbce305ec	-0.027712785
116	0x3c7fd4d4	0.015614707
117	0x3d5ea846	0.054359697
118	0x3d9353a3	0.07193687
119	0x3c3a9206	0.011387354
120	0xbb71d008	-0.0036897678
121	0x3d412388	0.047153026
122	0x3d4917ab	0.049094837
123	0x3cbf6500	0.02336359
124	0x3d904323	0.07044055
125	0x3cf45ecd	0.02983036
126	0x3d4fea1f	0.050760385
127	0x3d3b7b87	0.0457721
128	0x3b66373d	0.003512814
129	0x3da644ba	0.08118577
130	0x3d1053d0	0.03523618
131	0x3dd85e15	0.1056482
132	0xbc8b6805	-0.017017374
133	0x3c897f4e	0.016784336
134	0x3d3bde12	0.04586608
135	0x3d471f5f	0.048613902
136	0xbb73a064	-0.0037174458
137	0x3d578877	0.052620377
138	0x3d5aca58	0.053415626
139	0x3d44c95f	0.048043605
140	0xbda21957	-0.079149894
141	0x3ca3d8dc	0.020000868
142	0x3c691331	0.014225767
143	0x3cacb623	0.021082943
144	0x3cf4c9c8	0.029881373
145	0x3cc92c84	0.02455736
146	0x3d0d25bd	0.03445982
147	0xbc91af04	-0.01778365
148	0x3dc96ed5	0.09835593
149	0x3d396f33	0.045272063
150	0x3d8643f1	0.065559275
151	0x3cc6906c	0.024238788
152	0x3d86a260	0.06573939
153	0x3d4e4717	0.050360765
154	0x3cdcb64b	0.026942393
155	0x3c900190	0.01757887
156	0xbb9296ba	-0.0044735344
157	0xbcc0f45e	-0.023554023
158	0xbb5f8f08	-0.0034112353
159	0xbdbcb7f4	-0.09214774
160	0xbc88cacf	-0.01669827
161	0x3d5c3b9f	0.053767797
162	0x3d927cc5	0.07152704
163	0x3d08a65e	0.033361785
164	0x392fe7b3	0.00016775615
165	0x3c31e5d2	0.010858016
166	0x3ccb7076	0.024833899
167	0x3c9a4e31	0.018836113
168	0x3c95caf2	0.018285248
169	0x3b59ada7	0.0033215077
170	0xbb264118	-0.0025368389
171	0xbc9e2c2b	-0.01930817
172	0xbd863501	-0.065530784
173	0x3c7bcbb7	0.015368394
174	0x3ce1689a	0.027515698
175	0xbd65f098	-0.05613765
176	0x3d85ed29	0.06539375
177	0xbce80398	-0.028322026
178	0xbb9f82bb	-0.004867879
179	0xbcdbdcdb	-0.02683871
180	0x3d7f70cf	0.062363442
181	0x38f3c54f	0.000116238945
182	0xbd00a54e	-0.031407647
183	0x3cdb33fc	0.026758187
184	0x3d78f4cf	0.060780343
185	0x3ba0c397	0.0049061286
186	0x3d3ad768	0.045615584
187	0xbcc549ed	-0.024083102
188	0x3dbc0048	0.09179741
189	0xbc46d878	-0.012136571
190	0xbc8e3032	-0.017356966
191	0xbd2d2e71	-0.042280618
192	0x3d74519d	0.059648145
193	0x3d82cd9b	0.063868724
194	0x3dbf9c56	0.093559906
195	0x3d92509e	0.07144283
196	0xbd38851b	-0.045048814
197	0x3ce1d194	0.027565755
198	0xba8c5bfc	-0.0010708566
199	0x3d846c64	0.06465986
200	0xbd41eec2	-0.047346838
201	0x3916cfd1	0.00014382532
202	0x3c5e06b0	0.013551399
203	0x3d6470d7	0.055771675
204	0xbd99d536	-0.0751137
205	0x3d1beac0	0.038065672
206	0x3c3aa059	0.011390769
207	0x3bd176e1	0.0063923453
208	0xbd8c7d60	-0.06859851
209	0xbc898314	-0.016786136
210	0xbbd93816	-0.0066290004
211	0x3d5b191d	0.053490747
212	0xbcc0b087	-0.023521675
213	0x3d35d458	0.04439196
214	0x3d58b0f1	0.05290312
215	0x3de6e764	0.11274603
216	0x3c47586a	0.012167076
217	0x3d47c881	0.0487752
218	0x3d00db76	0.031459294
219	0x3db0d5a1	0.086344965
220	0x3bea7ce6	0.0071560023
221	0x3d33d5b3	0.04390497
222	0x3ce5e463	0.028063005
223	0x3d3899a6	0.045068406
224	0xbb4471a7	-0.0029974969
225	0xbd334ea9	-0.043776188
226	0xbc1c1dca	-0.009528587
227	0xbda8ab17	-0.08235758
228	0x3caf55c6	0.021403205
229	0x3d8c95df	0.06864523
230	0x3d0d887e	0.034553997
231	0xbd2f915d	-0.04286324
232	0x3d4ec2da	0.050478794
233	0x3d3bb05b	0.045822483
234	0x3d32c293	0.04364259
235	0xbcdd5713	-0.02701906
236	0x3d3a3627	0.0454618
237	0x3d825ee8	0.06365758
238	0x3d1d481a	0.03839884
239	0xbd07df0d	-0.033171702
240	0xbdd0b5d6	-0.101909325
241	0x3d8fbdfe	0.0701866
242	0x3d1f14fe	0.03883838
243	0xbba695a0	-0.0050837547
244	0xbd77f5ec	-0.060537264
245	0x3d87c714	0.06629768
246	0x3d490e43	0.049085867
247	0x3d476011	0.0486756
248	0xbd949e91	-0.07256807
249	0x3d96e487	0.07367807
250	0x3d523554	0.05132039
251	0x3d91bed3	0.07116475
252	0xbca1bd43	-0.019743567
253	0x3d976742	0.07392742
254	0x3db424f2	0.08796109
255	0x3e015323	0.1262937
