cifar-10/netD.pt (torch_old, 698423 bytes, 12 tensors)

weight f4 [32, 3, 4, 4]
-0.024540553 -0.005646105 -0.020721318 0.04245429 0.001308203 0.0011556199 -0.015657585 -0.013921254
0.010037155 0.020175826 0.0051668794 -0.01799522 0.0058872635 0.0209428 0.01930965 0.008495358
-0.0064968956 0.03529697 0.031186108 0.008665301 0.02232466 -0.05134832 -0.017977392 0.003464194
-0.004767276 -0.0020215567 -0.024176095 0.01693801 -0.027226593 0.0122728 0.019692 0.0133952
-0.0060998593 0.030016134 -0.0050943703 -0.041168068 0.0052319476 0.047449388 -0.0036393362 0.014722744
-0.02404502 -0.025579348 0.019676307 0.024070844 0.0041311947 -0.019651959 0.033489898 -0.010203997
-0.016958302 0.0021795714 -0.015335991 0.005542984 -0.009796665 0.021009132 0.01009611 0.012723119
0.0119253 -0.0015892592 -0.005528268 0.04893261 -0.00318425 0.030701417 0.027605461 0.034138598
0.0045308773 0.01856938 -0.013248478 0.02176305 0.023353998 0.017490009 0.025428021 0.0052038534
0.008114203 0.0234346 -0.0117287515 0.0008124052 -2.9203025e-05 -0.0008633552 -0.026556686 0.01518218
-0.03008034 -0.027267605 0.0076254923 0.02331574 -0.0118084075 -0.004904373 0.007157412 0.018702574
-0.013815978 -0.020353457 -0.023416385 -0.005272408 0.011657065 -0.010919617 0.014381127 0.0028328763
-0.0075841136 0.046522375 0.0012287704 -0.002238104 -0.014275002 -0.054087788 0.0045471126 0.010328548
-0.011355149 -0.0043237796 0.018545557 0.025282376 0.026787274 0.0014500782 -0.034576923 0.007926898
0.006022804 0.0075512757 -0.054855004 -0.049413815 0.04895853 0.016055904 -0.005315346 0.028501155
0.018853158 -0.0026812416 -0.0013888711 0.010394761 -0.034516387 0.016444962 -0.015989471 0.0053201844
-0.0031196664 0.010192555 -0.01870986 0.011015161 -0.033662505 0.006031562 -0.0363911 0.028348306
0.014638583 0.041500356 -0.030515643 -0.034614 -0.018623492 0.032531854 -0.0027728474 0.0055241813
0.01877685 -0.02323979 -0.024926016 0.011673708 -0.012376722 0.04543472 -0.02145231 0.04728324
-0.02868133 -0.016697608 0.013953145 0.043044493 0.014116411 -0.022371916 -0.0014038298 0.005368294
-0.038881037 -0.0072071054 -0.030502059 0.028968072 -0.021449624 0.06559717 0.026102345 -0.01839296
0.042425316 0.0012022082 0.0030647132 0.0003680593 -0.013926286 0.033436865 -0.026630072 0.007973735
-0.0040269247 0.02073263 0.009122822 -0.02230517 0.011233577 -0.0013458094 0.0059808134 0.009398073
0.020801164 -0.0052410746 0.00078711205 0.008256947 0.01592849 -0.004208925 -0.020953793 0.012934397
0.013849116 -0.027901344 0.021149987 0.010885151 -0.018137222 0.0044317706 0.00993808 0.0092952475
-0.025957983 0.008234474 -0.0017042158 -0.003330594 0.017926957 -0.0022475268 -0.0045811157 0.0010840353
0.016755028 -0.025150955 -0.020144315 0.013690832 0.019997044 -0.00018269953 -0.0090222545 -0.011131936
0.013466207 0.0014139812 -0.025325319 -0.020538863 -0.001791927 0.013946679 0.009706644 -0.035323143
-0.04584802 -0.0035054272 -0.03375424 0.035838664 0.00041291342 -0.041182756 0.009850321 0.0017791713
0.020294398 -0.018493684 0.0233968 0.05159636 -0.0063675316 -0.016616808 -0.004543921 -0.018087292
0.023653558 -0.0056189774 -0.03445011 0.026177704 -0.018712891 0.0058071874 0.027508823 0.015523658
0.024581185 0.001341636 0.0024940548 0.021441685 0.033995733 -0.03040836 0.015492667 -0.0009950751
00000000: 4509 c9bc f602 b9bb c1bf a9bc 8de4 2d3d
00000010: 0278 ab3a 2b78 973a 5644 80bc f915 64bc
00000020: e172 243c c647 a53c ed4e a93b b66a 93bc
00000030: f2e9 c03b 3c90 ab3c 452f 9e3c 1d30 0b3c
00000040: e9e3 d4bb 8e93 103d 027a ff3c e8f8 0d3c
00000050: 35e2 b63c 9e52 52bd 5345 93bc 8807 633b
00000060: cf36 9cbb 187c 04bb f20c c6bc 95c1 8a3c
00000070: 4e0a dfbc db13 493c 1e51 a13c 8a77 5b3c
00000080: 54e1 c7bb 65e4 f53c adee a6bb d99f 28bd
00000090: c270 ab3b 4a5a 423d ee81 6ebb aa37 713c
000000a0: 10fa c4bc c88b d1bc 3530 a13c 3830 c53c
000000b0: f95e 873b 25fd a0bc b42c 093d aa2e 27bc
000000c0: 23ec 8abc 24d7 0e3b cf43 7bbc eca1 b53b
000000d0: 3182 20bc 581b ac3c 286a 253c a174 503c
000000e0: 5562 433c b14e d0ba 7926 b5bb 8f6d 483d
000000f0: daae 50bb 8a81 fb3c d924 e23c ead4 0b3d
00000100: c177 943b d01e 983c 2510 59bc 6d48 b23c
00000110: e250 bf3c 3547 8f3c 6d4e d03c 1685 aa3b
00000120: 6ff1 043c ebf9 bf3c f329 40bc 97f7 543a
00000130: 05f9 f4b7 c952 62ba 688d d9bc aebe 783c
00000140: 0c6b f6bc 5060 dfbc 44df f93b a700 bf3c
00000150: 0d78 41bc ddb4 a0bb b988 ea3b 2436 993c
00000160: 695c 62bc 4bbc a6bc b8d3 bfbc 2ac4 acbb
00000170: 46fd 3e3c 31e8 32bc d29e 6b3c c7a7 393b
00000180: 2884 f8bb 3f8e 3e3d b10e a13a 27ad 12bb
00000190: b3e1 69bc 288b 5dbd f2ff 943b 1239 293c
000001a0: f20a 3abc 7eae 8dbb daec 973c fc1c cf3c
000001b0: fc70 db3c 8d10 be3a 88a0 0dbd d2df 013c
000001c0: f15a c53b b170 f73b a4af 60bd 2466 4abd
000001d0: bd88 483d ac87 833c 5b2c aebb 417b e93c
000001e0: f071 9a3c c5b7 2fbb c80a b6ba ca4e 2a3c
000001f0: 0e61 0dbd 96b7 863c 5afc 82bc f154 ae3b
00000200: 5173 4cbb adfe 263c 6c45 99bc ef78 343c
00000210: b2e1 09bd 69a4 c53b d60e 15bd b53a e83c
00000220: abd6 6f3c 47fc 293d f1fb f9bc 69c7 0dbd
00000230: 4b90 98bc 1f40 053d a9b8 35bb 3104 b53b
00000240: e9d1 993c 5f61 bebc a531 ccbc 1543 3f3c
00000250: bcc7 4abc c219 3a3d c1bc afbc 12ac 413d
00000260: 1cf5 eabc 6cc9 88bc bb9b 643c 6c4f 303d
00000270: 8548 673c 4f45 b7bc b600 b8ba 84e8 af3b
00000280: b941 1fbd 9529 ecbb 74df f9bc 734e ed3c
00000290: 1fb7 afbc cf57 863d 96d4 d53c d5ac 96bc
000002a0: 2bc6 2d3d 6a93 9d3a 5bd9 483b 15f8 c039
000002b0: 142b 64bc 18f5 083d 4f27 dabc 45a4 023c
000002c0: 4bf4 83bb 7ad7 a93c e477 153c 55b9 b6bc
000002d0: 090d 383c df65 b0ba b3fa c33b 60fa 193c
000002e0: 3467 aa3c 52bd abbb 3256 4e3a 2548 073c
000002f0: 777c 823c 06eb 89bb 4aa7 abbc cbea 533c
00000300: 67e7 623c 5c91 e4bc bd42 ad3c a257 323c
00000310: 8394 94bc 6338 913b 54d3 223c 184b 183c
00000320: d6a5 d4bc e3e9 063c fe5f dfba 1846 5abb
00000330: 8edb 923c 3e4b 13bb 2f1d 96bb 3016 8e3a
00000340: d741 893c 6009 cebc b105 a5bc 834f 603c
00000350: d7d0 a33c 0893 3fb9 14d2 13bc b962 36bc
00000360: 5ea1 5c3c 5655 b93a 0b77 cfbc 1e41 a8bc
00000370: 18df eaba 9d80 643c 9e08 1f3c 00af 10bd
00000380: 22cb 3bbd 4fbb 65bb e341 0abd 90cb 123d
00000390: 4d7c d839 40af 28bd 3e63 213c 1533 e93a
000003a0: 7040 a63c 1180 97bc a5aa bf3c b456 533d
000003b0: baa6 d0bb f91f 88bc 2ce5 94bb cd2b 94bc
000003c0: 1bc5 c13c 661f b8bb 8f1b 0dbd a072 d63c
000003d0: c74b 99bc 384a be3b 2f5a e13c f156 7e3c
000003e0: 7b5e c93c d5d9 af3a 4c73 233b 79a6 af3c
000003f0: 1c3f 0b3d f41a f9bc f5d4 7d3c 2e6d 82ba

weight f4 [64, 32, 4, 4]
-0.024100427 -0.0026307316 0.016793523 0.008386638 0.0027599412 0.0065949964 0.045054317 -0.031144587
-0.006882734 -0.025396176 -0.02070158 0.0060940143 -0.013692778 -0.012848186 -0.018102506 0.038640864
0.0072500114 -0.03199018 0.006809556 -0.017189613 0.01793841 -0.004419319 -0.0020643638 0.01373232
0.010923416 0.0003413828 0.01934381 0.016736137 0.020947611 -0.02746356 -0.03789555 0.0053191013
0.040942315 -0.015198464 -0.0008404352 0.016858885 0.03224734 -0.0016959495 -0.0012741246 0.030485934
0.006948996 0.02518639 0.01642538 0.015699256 0.010930006 -0.01529195 -0.018195318 0.03171353
0.013060457 -0.0083092395 0.016611012 0.013077652 0.0066876407 0.04394985 0.018779565 0.01788853
0.016720293 0.020598354 0.04517954 -0.050973978 -0.03689429 0.018755035 0.0051840395 -0.0066436767
-0.004955796 -0.013293992 0.019219544 0.025255391 -0.01739991 -0.018702623 0.021859499 -0.009426585
0.009303134 0.010396999 0.036437392 -0.01536551 -0.012418937 0.022212652 0.009936669 -0.016672404
-0.041826412 0.004105308 -0.004105504 0.018526372 -0.009826458 -0.014301793 -0.011878881 -0.007360134
-0.004795459 0.014438074 0.00973206 -0.028138403 -0.022752052 -0.0010101964 0.0056722104 0.0017257016
-0.047805995 -0.0081822965 -0.00828506 -0.0050660404 0.025056835 0.0082579665 0.005290781 0.0020435427
-0.04840772 0.0024863614 -0.020027997 0.0024217565 -0.018699735 -0.04684049 -0.03254431 -0.044567697
-0.025533127 -0.004280527 0.011741626 -0.0053861206 0.014651395 0.005204028 -0.036272828 -0.009759013
-0.011665723 -0.012065377 0.044865623 0.0036217808 -0.014487661 0.016471364 -0.01785911 -0.00823047
-0.02606592 -0.016763022 -0.01605977 -0.029682562 0.0036489845 0.0074012117 0.03227315 -0.0050433753
0.012380232 -0.02307623 -0.008498068 -0.01146652 -0.01577994 -0.02504826 0.026192483 0.011097754
-0.008474677 -0.037220348 0.0033755894 -0.023387741 -0.015611219 0.010081045 0.025182337 -0.0015558108
0.002649322 0.007393797 -0.006338532 -0.027172249 0.020334098 0.016741117 0.001932027 -0.0035246788
-0.022579223 0.026021592 -0.011054548 7.546623e-05 -0.019895693 0.0034812524 0.031285815 0.013202085
0.0067847962 -0.025727853 0.02359275 -0.05420614 0.026667718 0.025307452 -0.03653843 0.0004166615
-0.01817274 0.01949426 0.011592289 -0.025191028 0.0031189043 -0.007747065 -0.0026380839 0.019768968
0.018322188 -0.013869949 -0.024961393 -0.054890003 -0.029038329 0.017530123 0.026606893 0.010913011
0.014171029 -0.006325342 -0.008510029 -0.015924873 -0.01371708 -0.042790867 -0.03912361 0.02246404
-0.021099878 -0.0067040324 0.009412287 0.021213418 -0.0019294713 0.023122912 -0.0046962006 -0.015856443
-0.05625491 0.020904485 0.00418666 -0.0012316555 0.014457406 -0.017145423 8.207992e-05 -0.016101427
-0.017649574 0.024140924 0.013297996 -0.03289465 -0.016933957 0.021920588 0.008161061 0.00912202
0.017265603 0.0040733167 -0.0051755537 0.0051035252 0.026225282 -0.0075605083 0.039351657 -0.0075157643
-0.004735337 0.016814752 0.015585732 -0.0052995994 0.027645951 -0.0005352525 -0.018989343 0.01403202
-0.022586064 -0.004732479 -0.0062817098 -0.015950665 0.003563584 -0.015837442 -0.018419404 -0.031053295
0.022536453 0.00013788865 0.025804482 -0.03247636 0.016999267 -0.0025414843 0.027878629 0.014687406
00000000: 426e c5bc 5a68 2cbb 9292 893c 1c68 093c
00000010: 21e0 343b d71a d83b e08a 383d ef22 ffbc
00000020: 8f88 e1bb a40b d0bc 5c96 a9bc 4cb0 c73b
00000030: ac57 60bc 3381 52bc b54b 94bc e245 1e3d
00000040: 8191 ed3b 2308 03bd b222 df3b 3bd1 8cbc
00000050: 93f3 923c efcf 90bb 474a 07bb 86fd 603c
00000060: 21f8 323c a0fb b239 e976 9e3c 391a 893c
00000070: 539a ab3c 43fb e0bc 5d38 1bbd db4b ae3b
00000080: 21b3 273d fa02 79bc a750 5cba a51b 8a3c
00000090: c915 043d 9f4a deba 8700 a7ba a3bd f93c
000000a0: 67b4 e33b b053 ce3c 858e 863c ba9b 803c
000000b0: c513 333c 168b 7abc 590e 95bc 0ce6 013d
000000c0: 87fb 553c 7a23 08bc d113 883c a643 563c
000000d0: ff23 db3b c204 343d 9ad7 993c f78a 923c
000000e0: fff8 883c e1bd a83c 2e0e 393d 17ca 50bd
000000f0: 781e 17bd 29a4 993c e0de a93b 33b3 d9bb
00000100: 3b64 a2bb 0bcf 59bc 4e72 9d3c 65e4 ce3c
00000110: 428a 8ebc 3e36 99bc b112 b33c f771 1abc
00000120: 2c6c 183c 2d58 2a3c 603f 153d 9fbf 7bbc
00000130: cc78 4bbc 4ff7 b53c 69cd 223c 9194 88bc
00000140: 2c52 2bbd d285 863b 7787 86bb 9ec4 973c
00000150: 27ff 20bc 1152 6abc a39f 42bc 472d f1bb
00000160: 3a23 9dbb ac8d 6c3c 3873 1f3c 8282 e6bc
00000170: 8362 babc 9168 84ba f3dd b93b f030 e23a
00000180: 38d0 43bd 0a0f 06bc 0fbe 07bc 0701 a6bb
00000190: fe43 cd3c 6c4c 073c 4a5e ad3b f5ec 053b
000001a0: 2c47 46bd 39f2 223b c111 a4bc 55b6 1e3b
000001b0: 3030 99bc d0db 3fbd 2f4d 05bd 9e8c 36bd
000001c0: d92a d1bc aa43 8cbb f35f 403c 0e7e b0bb
000001d0: 680c 703c 8d86 aa3b d192 14bd 44e4 1fbc
000001e0: 9721 3fbc dcad 45bc 04c5 373d 665b 6d3b
000001f0: a85d 6dbc f4ee 863c 454d 92bc 18d9 06bc
00000200: 3288 d5bc 9b52 89bc c78f 83bc d828 f3bc
00000210: cd23 6f3b dd85 f23b da30 043d e642 a5bb
00000220: 75d6 4a3c 5d0a bdbc 7b3b 0bbc 12de 3bbc
00000230: ef44 81bc 0232 cdbc 9e91 d63c 5bd3 353c
00000240: 5fd9 0abc 5d74 18bd fe38 5d3b a697 bfbc
00000250: 33c6 7fbc f82a 253c 304b ce3c 59ec cbba
00000260: 3fa0 2d3b aa47 f23b 76b3 cfbb 5698 debc
00000270: b293 a63c ab24 893c 123c fd3a 4cfe 66bb
00000280: 10f8 b8bc 3c2b d53c 231e 35bc a043 9e38
00000290: 4bfc a2bc b925 643b 8e25 003d 8f4d 583c
000002a0: ff52 de3b 38c3 d2bc 9545 c13c 4207 5ebd
000002b0: 4276 da3c 9351 cf3c 52a9 15bd 5c73 da39
000002c0: ffde 94bc 6db2 9f3c 96ed 3d3c 6a5d cebc
000002d0: 8866 4c3b 17db fdbb b4e3 2cbb 88f2 a13c
000002e0: 6a18 963c c83e 63bc d67b ccbc 57d4 60bd
000002f0: cae1 edbc 559b 8f3c b3f6 d93c 7ccc 323c
00000300: 9b2d 683c d144 cfbb a66d 0bbc e174 82bc
00000310: 9abd 60bc 7a45 2fbd 1440 20bd 8206 b83c
00000320: a7d9 acbc 80ad dbbb fe35 1a3c c3c7 ad3c
00000330: 50e6 fcba 436c bd3c 96e2 99bb 5fe5 81bc
00000340: 8c6b 66bd e23f ab3c 4030 893b 806f a1ba
00000350: c1de 6c3c 8f74 8cbc 5222 ac38 24e7 83bc
00000360: d795 90bc 30c3 c53c d6df 593c 8abc 06bd
00000370: 15b9 8abc ce92 b33c f9b5 053c 8674 153c
00000380: 9870 8d3c 7579 853b b197 a9bb 793b a73b
00000390: 67d6 d63c 24be f7bb 342f 213d cd46 f6bb
000003a0: e32a 9bbb 17bf 893c 4c5b 7f3c 43a8 adbb
000003b0: c379 e23c 3050 0cba 8a8f 9bbc 8fe6 653c
000003c0: 6906 b9bc e912 9bbb cdd6 cdbb f8aa 82bc
000003d0: 058b 693b 86bd 81bc 4ae4 96bc 7b63 febc
000003e0: 5e9e b83c 3496 1039 ec63 d33c ef05 05bd
000003f0: 0c42 8b3c 088f 26bb b961 e43c 72a3 703c

weight f4 [64]
0.9760412 1.0154785 0.9936634 1.0389398 1.002386 0.97616494 1.0034685 1.0119777
1.0082088 0.9998499 0.98798335 0.9810757 1.0040022 0.97039247 1.0491936 1.0054961
1.0089899 1.0102456 0.9854805 0.97862834 0.98577493 1.0046968 0.981307 0.99559295
1.0365615 1.004272 0.9989814 1.0244749 0.9887943 0.9960009 1.0130676 0.9584636
0.9903219 0.9850192 1.0203768 0.9883097 0.9774314 0.9714438 1.0138084 0.9925071
0.9889293 0.97367054 0.9980183 0.9912417 0.9944885 1.0141038 0.98324406 1.0067809
0.99514407 0.98367244 1.032986 0.9995319 1.0468538 0.9683702 1.0300105 1.0082985
0.9849722 1.0133924 0.9760736 0.9713396 0.9976282 0.9767656 0.990746 0.99369454
00000000: d6dd 793f 33fb 813f b960 7e3f fbfb 843f
00000010: 2f4e 803f f2e5 793f a871 803f 7c88 813f
00000020: fc0c 813f 2af6 7f3f 7aec 7c3f c727 7b3f
00000030: 2583 803f a46b 783f fa4b 863f 19b4 803f
00000040: 9526 813f ba4f 813f 7348 7c3f 6387 7a3f
00000050: bf5b 7c3f e899 803f f036 7b3f 2edf 7e3f
00000060: 0cae 843f fc8b 803f 3fbd 7f3f fe21 833f
00000070: a021 7d3f eaf9 7e3f 33ac 813f df5d 753f
00000080: bc85 7d3f 382a 7c3f b59b 823f dd01 7d3f
00000090: f238 7a3f 8ab0 783f 79c4 813f f214 7e3f
000000a0: 782a 7d3f 7942 793f 217e 7f3f 04c2 7d3f
000000b0: cc96 7e3f 27ce 813f e2b5 7b3f 32de 803f
000000c0: c3c1 7e3f f5d1 7b3f e338 843f 53e1 7f3f
000000d0: 4eff 853f 1ce7 773f 62d7 833f ed0f 813f
000000e0: 2327 7c3f d8b6 813f f6df 793f b6a9 783f
000000f0: 9064 7f3f 4f0d 7a3f 88a1 7d3f c462 7e3f

bias f4 [64]
0.0048036217 0.0051253233 -0.00066140975 0.0015435782 -0.0004974877 -0.008942337 0.00633415 0.003711661
0.006041221 -0.0029375802 -0.0034594643 -0.0024742803 0.015265824 -0.004651101 0.014391136 -0.006170275
-0.008419555 0.005582819 -0.003692228 -0.0037186404 0.0035778412 -0.00414587 -0.008005605 -0.0016711196
0.013890632 0.0040364754 -0.006175082 -0.0067250775 0.0011247161 0.00728207 -0.0016359955 -0.008002717
0.00010382591 -0.0028990384 -0.0038723203 -0.010266861 -0.0029373092 -0.00030865514 0.004488414 -0.0047684964
0.008712558 0.0025758157 -0.0039293063 -0.0058956216 0.000987507 -0.006371372 -0.00048057333 -0.0031938914
0.0014703994 -0.002525654 -0.0009044494 -0.005202872 0.0064269067 -0.0019983698 0.005689653 0.002397186
-0.0099098 0.001702876 0.011652799 -0.009297705 -0.003858549 0.0011835967 0.0026158292 0.009142708
00000000: b367 9d3b 54f2 a73b 7562 2dba e451 ca3a
00000010: d669 02ba e182 12bc b48e cf3b 573f 733b
00000020: 6ff5 c53b 6b84 40bb 2eb8 62bb 8927 22bb
00000030: 821d 7a3c 4368 98bb cdc8 6b3c 0530 cabb
00000040: 2cf2 09bc 15f0 b63b 4ff9 71bb 6fb4 73bb
00000050: 377a 6a3b 14da 87bb f129 03bc 7809 dbba
00000060: 8995 633c 6944 843b 5858 cabb 0a5e dcbb
00000070: 366b 933a 6e9e ee3b e66e d6ba d41d 03bc
00000080: 1cbd d938 cbfd 3dbb c1c6 7dbb 5636 28bc
00000090: df7f 40bb fed2 a1b9 8c13 933b 0c41 9cbb
000000a0: 1ebf 0e3c 04cf 283b 69c1 80bb 0f30 c1bb
000000b0: 3d6f 813a f1c6 d0bb 76f5 fbb9 9b50 51bb
000000c0: 6bba c03a 7185 25bb 9218 6dba db7c aabb
000000d0: cd98 d23b 15f7 02bb 4570 ba3b 1b1a 1d3b
000000e0: b75c 22bc 0933 df3a 62eb 3e3c 6755 18bc
000000f0: b6df 7cbb ea22 9b3a 556e 2b3b 4ccb 153c

running_mean f4 [64]
-0.01889816 -0.016973965 0.0060247723 -0.0077391285 0.00904086 -0.017995013 0.0041453186 -0.0057663163
0.005034496 -0.007245358 0.0002449637 -0.01842648 -0.00857304 -0.021852762 0.008151444 -0.002700633
-0.008948284 0.0044586267 0.0005448067 -0.019437073 -0.0016078141 -0.016131513 -0.0013902755 0.0058439285
-0.022004612 0.0018605649 0.009587338 0.013921416 -0.0018106904 0.012207863 0.001599028 0.005554235
-0.009513892 0.0029904929 0.015349283 0.012920137 0.004552207 0.026135202 0.013885492 0.0035338346
0.006856789 -0.019471709 -0.0032414515 -0.005593977 -0.0031270098 -0.0011099874 -0.008802325 0.013320103
-0.009489197 0.0041212467 -0.0107824225 0.011838315 0.0065978095 0.0034692604 -0.0075200517 -0.0020250673
0.007855467 -0.003105683 0.0047910768 0.0074611194 -0.0044209706 0.0074170423 -0.0026437615 0.009989883
00000000: 50d0 9abc fc0c 8bbc 746b c53b 8498 fdbb
00000010: 1e20 143c 476a 93bc 74d5 873b 5ef3 bcbb
00000020: 6af8 a43b 786a edbb 796e 8039 21f3 96bc
00000030: f075 0cbc 9004 b3bc a28d 053c 1afd 30bb
00000040: d39b 12bc ac19 923b 5cd1 0e3a 7f3a 9fbc
00000050: 4abd d2ba 3c26 84bc e839 b6ba 6d7e bf3b
00000060: 0443 b4bc 33de f33a 3614 1d3c a716 643c
00000070: b054 edba 7d03 483c 7a96 d13a 4d00 b63b
00000080: 28e0 1bbc 25fc 433b 8f7b 7b3c fbae 533c
00000090: ae2a 953b 7e19 d63c fa7f 633c e897 673b
000000a0: eaae e03b 2283 9fbc 886e 54bb ae4d b7bb
000000b0: 85ee 4cbb ff7c 91ba a137 10bc 903c 5a3c
000000c0: 9478 1bbc 860b 873b c2a8 30bc 7ef5 413c
000000d0: 7032 d83b 885c 633b c46a f6bb feb6 04bb
000000e0: 37b4 003c b788 4bbb 77fe 9c3b 687c f43b
000000f0: cadd 90bb a90a f33b f542 2dbb 9bac 233c

running_var f4 [64]
6.242148e-05 0.00037854092 0.00075214676 0.00021871104 0.0001892776 0.0002236925 0.00039904896 0.00035814923
0.00053308555 0.0001555696 0.00010819235 0.00013300689 0.00021275146 0.00032950233 0.00025848454 0.00015550615
0.00013261806 8.7554065e-05 0.00023089182 0.00024316441 0.00015063024 0.00037209823 0.00027142782 0.00035580917
0.00020358906 0.00014185155 0.0001850295 0.0002643962 0.00013455373 0.00011158494 0.00037916846 0.00025807615
0.00023816696 0.000115006646 0.000107902015 0.00036448525 0.00012823234 0.00017963881 9.849035e-05 0.00027984518
3.5196477e-05 0.00036488756 0.00025318598 0.0002609542 0.000111692556 0.00015932324 0.00019209694 9.296126e-05
0.00041441547 0.00042925516 0.00029319085 0.00013726347 0.00015018095 0.00027322205 0.0002841685 0.00018836664
0.00022245503 9.955763e-05 0.00011549839 0.00017556643 0.0002083642 7.469603e-05 0.00013412313 6.1579594e-05
00000000: 47e8 8238 e776 c639 b72b 453a cc55 6539
00000010: d278 4639 008f 6a39 7237 d139 fac5 bb39
00000020: c4be 0b3a 6620 2339 53e5 e238 c477 0b39
00000030: 0916 5f39 0ec1 ac39 3585 8739 5d0f 2339
00000040: 640f 0b39 3b9d b738 8d1b 7239 f3f9 7e39
00000050: 7ff2 1d39 2e16 c339 6d4e 8e39 e68b ba39
00000060: 867a 5539 fcbd 1439 7a04 4239 a89e 8a39
00000070: fe16 0d39 b502 ea38 21cb c639 654e 8739
00000080: 75bc 7939 b92f f138 7449 e238 6218 bf39
00000090: 1b76 0639 6d5d 3c39 9b8c ce38 2fb8 9239
000000a0: ee9f 1338 614e bf39 0cbe 8439 aed0 8839
000000b0: 7c3c ea38 0210 2739 a16d 4939 32f4 c238
000000c0: e745 d939 a70d e139 69b7 9939 62ee 0f39
000000d0: e479 1d39 3e3f 8f39 73fc 9439 4984 4539
000000e0: d142 6939 98c9 d038 ba37 f238 4118 3839
000000f0: 577c 5a39 20a6 9c38 67a3 0c39 4b24 8138

weight f4 [128, 64, 4, 4]
-0.0040054265 -0.042046584 -0.008077404 -0.0019159734 -0.011633178 -0.016437585 0.02442031 0.024098268
0.012917849 0.022168506 0.00065290753 -0.0056921095 0.004136333 0.030296177 0.009592034 -0.015658107
0.009963644 -0.003104581 -0.0017710197 -0.02299188 0.01292429 -0.027949478 -0.0070398925 0.003590758
-0.01946329 0.014716143 -0.0021396012 -0.0002174244 0.012921414 -0.0005208673 -0.012512163 -0.016592564
0.0252949 -0.033602614 -0.0056812596 -0.0080708265 -0.026330443 0.04565002 0.01613046 -0.02442179
0.015105053 -0.019461196 0.016621182 -0.040106043 -0.010583151 0.043016285 -0.023275306 0.01672721
0.020945141 -0.0077078594 -0.020431599 -0.015423859 -0.017031683 0.00016479597 0.01446212 0.012663477
-0.03908579 0.01227659 0.026087148 -0.019598257 0.0002509777 0.0076316237 -0.0074980934 0.016365888
-0.014693834 0.0053725643 -0.017972862 -0.0012148634 0.005442323 -0.024416413 -0.010501456 -0.03575589
-0.0044181724 -0.01277128 0.029207809 0.0066924533 -0.0073756655 -0.0274263 0.026118005 -0.020704314
-0.0023960967 0.036900718 -0.0016771974 -0.040461216 -0.024146967 0.054489106 0.014051846 0.0074753584
-0.023827553 -0.04609351 0.010327556 -0.013961259 0.031921886 0.018916067 0.008588084 0.020478861
-0.037310295 -0.063654035 0.0063162483 0.0009206553 -0.006501306 -0.016706211 0.0016854522 0.002521208
-0.028285688 0.016082954 0.017779727 -0.00624677 -0.003056606 -0.005788841 -0.008782077 0.0181456
-0.015915627 0.03155253 0.005378757 0.014296355 0.005571885 -0.0136491675 0.016511291 0.0104296105
-0.019068962 0.019744335 0.0022026098 -0.011319592 -0.0253604 0.0097772125 -0.007832166 -0.00255123
0.024727862 -0.005149355 -0.02409159 0.008970373 -0.009731004 -0.0084869405 -0.026565392 -0.0038502058
-0.017508585 -0.007253656 -0.007906651 0.005939031 0.005176023 0.021509396 0.020441532 -0.005315465
0.022561472 -0.0066406103 -0.02088702 0.016899966 -0.007844112 0.010110631 -0.032627285 -0.011357134
0.023725426 -0.014426039 0.009728316 -0.0019147367 0.02975303 0.0049389405 -0.03447229 0.005773559
0.014534035 0.038319536 -0.002344988 0.002088958 0.010304084 -0.032484733 0.016979448 0.02105405
0.0037147556 -0.001209845 -0.015557803 0.010403257 -0.016401164 0.011385231 0.026560126 0.007719089
0.0076431995 0.0120769 -0.026934227 -0.011331011 -0.0076837484 0.010596096 0.009515585 -0.012701797
0.0035662663 -8.602863e-05 0.0044825985 0.0021312688 0.050334413 0.0010732532 -0.00680357 0.009318162
-0.04168962 0.008131836 -0.011329955 -0.012429687 -0.022734176 0.011783042 -0.0050974246 0.02359886
0.023417514 -0.030440008 0.024217285 -0.0075137406 -0.015810426 -0.010983729 0.052488677 0.03939147
0.015570459 -0.009821025 0.008673082 -0.008745327 0.016460765 -0.003371103 -0.016527586 0.017383363
0.0032334644 -0.0013888911 0.008238992 0.008246769 -0.0071996944 0.007389553 0.0113546485 0.023732062
0.009574815 -0.024483964 0.002175807 -0.020012302 -0.005840161 0.026156917 0.011172621 -0.0046681454
-0.035247844 0.0036755197 -0.0101060895 -0.039469384 -0.030841714 -0.025108162 -0.027590036 0.014734215
-0.0122039635 0.0054779197 -0.03738999 -0.0027250538 -0.05231277 -0.009198487 0.006219264 0.001577781
-0.030946182 -0.019820143 -0.024904968 -0.011484298 0.010069985 0.0074868263 0.028615959 0.011109911
00000000: f43f 83bb 0a39 2cbd 1757 04bc 6621 fbba
00000010: 1699 3ebc 1da8 86bc 1a0d c83c bb69 c53c
00000020: 63a5 533c ba9a b53c e227 2b3a e084 babb
00000030: 138a 873b b02f f83c e827 1d3c 6e45 80bc
00000040: 8d3e 233c 3a76 4bbb 8f21 e8ba 7859 bcbc
00000050: 67c0 533c 4ef6 e4bc e6ae e6bb ec52 6b3b
00000060: 7a71 9fbc fa1b 713c 8d38 0cbb 6bfc 63b9
00000070: 57b4 533c d08a 08ba d1ff 4cbc 21ed 87bc
00000080: 4037 cf3c e5a2 09bd dc29 babb 803b 04bc
00000090: f1b2 d7bc 84fb 3a3d 0724 843c 3510 c8bc
000000a0: 2f7b 773c 166d 9fbc 2529 883c 3c46 24bd
000000b0: f464 2dbc d831 303d dbab bebc 8007 893c
000000c0: 2595 ab3c 3692 fcbb 2b60 a7bc 5ab4 7cbc
000000d0: 0786 8bbc 15cd 2c39 87f2 6c3c 797a 4f3c
000000e0: 6c18 20bd c023 493c b7b4 d53c 868c a0bc
000000f0: a895 8339 b312 fa3b 91b2 f5bb c111 863c
00000100: 68be 70bc 560c b03b d33b 93bc 0d3c 9fba
00000110: 8455 b23b ee04 c8bc 4d0e 2cbc c574 12bd
00000120: 51c6 90bb a13e 51bc 3745 ef3c 5e4c db3b
00000130: 91af f1bb 1fad e0bc 6df5 d53c 189c a9bc
00000140: d507 1dbb 3525 173d 68d5 dbba a9ba 25bd
00000150: dccf c5bc f82f 5f3d b739 663c daf3 f43b
00000160: 0032 c3bc 8ccc 3cbd e934 293c c4bd 64bc
00000170: 86c0 023d def5 9a3c 09b5 0c3c 49c3 a73c
00000180: aed2 18bd 0c5d 82bd 88f8 ce3b 2258 713a
00000190: e808 d5bb 77db 88bc 64ea dc3a da3a 253b
000001a0: 63b7 e7bc 66c0 833c caa6 913c b4b1 ccbb
000001b0: 5751 48bb 51b0 bdbb b3e2 0fbc 15a6 943c
000001c0: 7d61 82bc 3a3d 013d 4940 b03b 423b 6a3c
000001d0: 5c94 b63b c2a0 5fbc b042 873c f5e0 2a3c
000001e0: 8336 9cbc dfbe a13c a959 103b cf75 39bc
000001f0: 9dc0 cfbc 9a30 203c 7c52 00bc 8932 27bb
00000200: 1692 ca3c ecbb a8bb ba5b c5bc 79f8 123c
00000210: ca6e 1fbc cf0c 0bbc aa9f d9bc bc53 7cbb
00000220: 2a6e 8fbc 14b0 edbb e68a 01bc 349c c23b
00000230: a19b a93b 7934 b03c 0075 a73c 5a2d aebb
00000240: d6d2 b83c 7a99 d9bb 411b abbc cc71 8a3c
00000250: 9784 00bc 0fa7 253c 30a4 05bd 4613 3abc
00000260: d35b c23c 315b 6cbc 8463 1f3c e7f7 faba
00000270: a0bc f33c d6d6 a13b d132 0dbd 2030 bd3b
00000280: 2920 6e3c f2f4 1c3d 5fae 19bb e6e6 083b
00000290: 76d2 283c b60e 05bd 7c18 8b3c 8b79 ac3c
000002a0: 4273 733b a993 9eba 28e6 7ebc 6c72 2a3c
000002b0: bc5b 86bc 1f89 3a3c 9f94 d93c 69f0 fc3b
000002c0: ce73 fa3b 31de 453c 2ba5 dcbc b4a5 39bc
000002d0: f4c7 fbbb 3f9b 2d3c 42e7 1b3c 331b 50bc
000002e0: 05b8 693b 456a b4b8 c3e2 923b c2ac 0b3b
000002f0: 752b 4e3d 67ac 8c3a 7bf0 debb 34ab 183c
00000300: bcc2 2abd 643b 053c 47a1 39bc e3a5 4bbc
00000310: 063d babc a90d 413c 4c08 a7bb 6552 c13c
00000320: 16d6 bf3c 535d f9bc 5463 c63c d335 f6bb
00000330: de84 81bc 19f5 33bc 5efe 563d f358 213d
00000340: 3d1b 7f3c 5de8 20bc 8b19 0e3c 8f48 0fbc
00000350: bad8 863c b9ed 5cbb dc64 87bc 8e67 8e3c
00000360: 88e8 533b 740b b6ba d6fc 063c 751d 073c
00000370: 6aeb ebbb 1024 f23b d908 3a3c be69 c23c
00000380: afdf 1c3c 9892 c8bc fc97 0e3b d7f0 a3bc
00000390: d25e bfbb 0847 d63c 5e0d 373c 3ef7 98bb
000003a0: 0b60 10bd fde0 703b 0394 25bc a6aa 21bd
000003b0: c3a7 fcbc a2af cdbc 8004 e2bc c767 713c
000003c0: 22f3 47bc 1f80 b33b 3f26 19bd d196 32bb
000003d0: ea45 56bd 40b5 16bc f8ca cb3b 8ccd ce3a
000003e0: d982 fdbc da5d a2bc 8105 ccbc a328 3cbc
000003f0: 94fc 243c 0d54 f53b 046c ea3c 5806 363c

weight f4 [128]
0.96526235 0.97751766 1.0532523 0.98956215 1.0126171 1.0201355 0.99744594 1.0279135
1.0036097 1.030963 0.9859947 1.0471447 0.98917544 1.0088857 1.0202348 1.0213151
0.9811834 1.0044047 1.020745 0.9777429 1.036148 1.0072908 0.94523376 1.0194087
0.9659869 0.99865276 1.0165969 0.9907745 1.0226078 1.0153812 1.0177608 1.006471
1.0061624 1.0146077 1.0006174 1.0156661 1.0014602 1.0450166 1.0064516 1.0078604
0.99986404 1.0101475 1.0056291 0.99178904 1.0457932 0.9752541 0.99821126 0.9945939
0.9716243 0.9749882 1.0286841 1.0134194 1.0293933 1.0004925 1.0270323 1.020975
0.98830515 1.0494351 0.99371034 1.0038693 1.0184786 1.0093764 1.008041 1.0148764
1.0279655 1.0135849 1.0135741 0.97659886 0.94334334 1.03321 0.9794244 1.0228283
1.0248623 1.0223643 1.0160798 0.99628294 1.0135181 1.0076194 0.99979126 1.0223866
1.0132102 1.0053195 1.0166019 0.9935806 1.0022049 0.9879473 1.0196947 1.0117985
0.9939692 1.0252116 1.0103223 1.02804 1.0420997 0.9981485 0.99421924 1.0256829
1.0263572 0.9995205 1.0482435 0.9876041 1.025861 0.9856777 1.0126623 0.9963203
1.0072293 1.0407891 1.0249377 1.0165473 0.9795603 1.008611 0.9655828 1.0540428
1.0335569 0.9901019 0.9903275 1.0296377 1.0065029 1.0120435 1.0296038 0.9980003
1.0204064 1.0325496 0.9830304 1.0224707 1.0037733 1.0326264 1.028724 1.0438445
00000000: 6f1b 773f 993e 7a3f f9d0 863f f253 7d3f
00000010: 709d 813f cd93 823f 9e58 7f3f ab92 833f
00000020: 4876 803f 98f6 833f 266a 7c3f d608 863f
00000030: 9a3a 7d3f 2b23 813f 0e97 823f 74ba 823f
00000040: d62e 7b3f 5590 803f c6a7 823f 5c4d 7a3f
00000050: 7fa0 843f e8ee 803f d7fa 713f fc7b 823f
00000060: eb4a 773f b5a7 7f3f d91f 823f 66a3 7d3f
00000070: d0e4 823f 03f8 813f fc45 823f 0bd4 803f
00000080: eec9 803f aade 813f 3b14 803f 5901 823f
00000090: d92f 803f 1bc3 853f 68d3 803f 9201 813f
000000a0: 17f7 7f3f 834c 813f 74b8 803f e3e5 7d3f
000000b0: 8ddc 853f 41aa 793f c68a 7f3f b59d 7e3f
000000c0: 5fbc 783f d498 793f ecab 833f bab7 813f
000000d0: 29c3 833f 2310 803f cb75 833f 4faf 823f
000000e0: 9101 7d3f e453 863f cd63 7e3f ca7e 803f
000000f0: 825d 823f 3f33 813f 7d07 813f 78e7 813f
00000100: 6094 833f 26bd 813f ccbc 813f 6202 7a3f
00000110: f37e 713f 3a40 843f 8fbb 7a3f 0aec 823f
00000120: b02e 833f d5dc 823f e70e 823f 660c 7f3f
00000130: f6ba 813f acf9 803f 52f2 7f3f 90dd 823f
00000140: dfb0 813f 4fae 803f 0320 823f 4c5b 7e3f
00000150: 4048 803f 1dea 7c3f 5b85 823f 9d82 813f
00000160: c474 7e3f 223a 833f 3e52 813f d196 833f
00000170: 8663 853f a986 7f3f 2785 7e3f 9449 833f
00000180: ac5f 833f 93e0 7f3f d82c 863f 9fd3 7c3f
00000190: 6a4f 833f 6055 7c3f eb9e 813f d90e 7f3f
000001a0: e4ec 803f 9438 853f 2931 833f 391e 823f
000001b0: 77c4 7a3f 2a1a 813f 6f30 773f e0ea 863f
000001c0: 984b 843f 5177 7d3f 1a86 7d3f 2bcb 833f
000001d0: 16d5 803f a48a 813f 0fca 833f f37c 7f3f
000001e0: ad9c 823f 962a 843f e1a7 7b3f 52e0 823f
000001f0: a57b 803f 1a2d 843f 3aad 833f b29c 853f

bias f4 [128]
-0.003005187 0.009112258 0.008978225 0.0025323331 -0.00081893074 0.010317941 0.0011805658 0.0073425546
0.003188616 0.017320862 -0.0023570184 -0.0009780299 0.008966716 0.011601831 -0.00039292852 0.011681729
0.0022134774 0.0062180655 0.004703583 0.00870628 0.009019494 -0.00023365041 0.004152076 0.00564002
0.0051174844 0.0130644785 0.004343501 0.014398873 0.0123343645 0.0011125252 0.002290714 0.0062902886
0.0020111282 -0.0026049442 -0.002409485 0.011507076 -0.012775314 -0.0016807254 -0.0040272456 0.0049840086
0.008547039 -0.008021645 -0.000109980414 0.003210548 -0.0010467488 0.0034300743 0.006531601 -0.0030092068
-3.0767085e-05 -0.0058245594 0.0053079594 0.008392519 0.0054264776 0.0031268368 0.013019099 -0.0033625273
-0.0039086863 0.010036135 -0.0033909895 -0.0052797077 0.013761342 0.010774516 -0.00860979 -0.0005765955
0.0043300237 0.0028136366 0.0070611956 -0.0023900163 -0.0002791916 -0.0001606629 -0.005852388 0.008756607
0.00546029 0.0053182766 0.0031176805 0.0011147275 -0.0010869761 -0.00017353472 -0.0008164785 0.0019085583
-0.002014069 -0.0025813333 -0.004640687 0.007354391 0.006051881 0.009755158 0.010487798 0.005847186
0.009862569 0.0077595725 -0.0043472555 0.0128110675 0.009880084 -0.004622378 -0.00022983558 0.0036627997
0.008344151 0.00090646395 0.006400255 0.00035486845 0.006576428 -0.003798682 0.003707158 0.0021115614
0.0065700216 0.009966374 0.008477884 -0.0023523571 -0.0026526542 0.016001133 -1.3512444e-05 0.0063569564
0.007834663 0.0066236206 -0.0033812872 0.0033651618 0.00028141701 -0.005763667 -0.0029739828 -0.001186774
0.011697358 0.002732346 -0.0059363865 0.010359926 0.013489919 0.0032036186 -0.005682922 -0.0013450023
00000000: acf2 44bb 954b 153c 6819 133c 80f5 253b
00000010: 83ad 56ba 950c 293c 37bd 9a3a d099 f03b
00000020: 19f8 503b 7be4 8d3c 3578 1abb 3d31 80ba
00000030: 22e9 123c 9b15 3e3c f901 ceb9 b964 3f3c
00000040: fd0f 113b eac0 cb3b 8420 9a3b c9a4 0e3c
00000050: 80c6 133c 0e00 75b9 230e 883b ebcf b83b
00000060: 92b0 a73b 650c 563c ed53 8e3b 40e9 6b3c
00000070: 1316 4a3c 27d2 913a ce1f 163b c41e ce3b
00000080: 22cd 033b b6b7 2abb 73e8 1dbb 2d88 3c3c
00000090: 8d4f 51bc c94b dcba fcf6 83bb e550 a33b
000000a0: e108 0c3c 386d 03bc 49a5 e6b8 0f68 523b
000000b0: 1033 89ba 19cb 603b 0a07 d63b 1d36 45bb
000000c0: e80b 01b8 f2db bebb 64ee ad3b c780 093c
000000d0: 98d0 b13b 9eeb 4c3b 0f4e 553c d95d 5cbb
000000e0: 7014 80bb 9a6e 243c 5d3b 5ebb 6601 adbb
000000f0: 4077 613c 9887 303c 1410 0dbc ab26 17ba
00000100: dfe2 8d3b fd64 383b 9a61 e73b d2a1 1cbb
00000110: 7660 92b9 9e77 28b9 64c5 bfbb df77 0f3c
00000120: 3bec b23b f044 ae3b 0052 4c3b 0c1c 923a
00000130: de78 8eba dff6 35b9 f208 56ba 9728 fa3a
00000140: 78fe 03bb 962b 29bb e710 98bb 1afd f03b
00000150: db4e c63b 19d4 1f3c 03d5 2b3c c099 bf3b
00000160: 9d96 213c 0344 fe3b 6c73 8ebb 83e5 513c
00000170: 13e0 213c 5177 97bb 0500 71b9 950b 703b
00000180: e8b5 083c c49f 6d3a 3bb9 d13b a30d ba39
00000190: 147f d73b 4ff3 78bb caf3 723b 1f62 0a3b
000001a0: 5649 d73b 014a 233c d3e6 0a3c 012a 1abb
000001b0: 27d8 2dbb cf14 833c 81b3 62b7 044e d03b
000001c0: f55c 003c f50a d93b 9698 5dbb 0c8a 5c3b
000001d0: 278b 9339 25dd bcbb 27e7 42bb 878d 9bba
000001e0: 47a6 3f3c 2911 333b 0586 c2bb aebc 293c
000001f0: d204 5d3c cdf3 513b ce37 babb ca4a b0ba

running_mean f4 [128]
-0.1126269 -0.49069205 -0.052349452 0.14294729 0.25955218 0.66969246 -0.6470797 0.08145771
-0.27898812 0.12839289 -0.4579882 0.08330722 0.14544694 -0.45694533 0.079740696 0.13367386
-0.6111243 -0.063076936 0.041991066 -0.23845084 -0.22968048 -0.002992719 -0.15647691 0.32860428
-0.07366662 -0.121703394 -0.37864432 0.18340316 -0.1575687 0.5421953 -0.53945583 0.476101
-0.11891042 0.073840424 0.38747203 0.087278485 -0.27198038 0.11004361 -0.020983974 -0.9391287
0.012647013 -0.07043154 -0.3794677 -0.3570147 -0.16879226 0.111438826 -0.057643935 -0.034721117
0.24153315 -0.80192703 0.3402693 -0.092275485 -0.18806154 -0.14039494 0.16234723 -0.43892443
0.2175355 0.15663688 -0.45509902 0.27047294 0.030053861 -0.057964765 0.2202467 -0.18701088
0.666829 0.18082538 -0.15236883 0.008322851 0.123836346 -0.2884362 0.22954546 -0.32544205
0.08562906 -0.22275707 0.5377921 0.38415906 0.2890389 0.31080106 -0.34535682 -0.116355896
-0.19291255 0.078280255 0.85062104 0.30205706 0.42553362 0.373266 -0.023992356 0.33042043
0.12129965 0.06682573 0.29446536 -0.12038509 0.14768156 -0.24350695 -0.15911227 -0.22387347
-0.11276837 -0.17012654 0.16535576 0.25740358 -0.0721068 0.040877245 -0.40875754 -0.16950855
0.02142862 0.21991271 -0.27460673 -0.21285959 -0.19401538 -0.3521169 -0.05038113 -0.32500026
0.014477647 -0.18728967 -0.71368223 -0.27942127 -0.5033317 -0.19413525 -0.041039668 0.8674097
-0.023705846 0.28813466 0.034806646 0.3915192 -0.3162452 -0.3908197 0.84860265 -0.6798758
00000000: efa8 e6bd fd3b fbbe 616c 56bd c660 123e
00000010: 06e4 843e f770 2b3f 04a7 25bf 4dd3 a63d
00000020: 88d7 8ebe 6d79 033e 6e7d eabe fa9c aa3d
00000030: 0bf0 143e bdf4 e9be 174f a33d cde1 083e
00000040: a472 1cbf 7b2e 81bd d3fe 2b3d 752c 74be
00000050: 5c31 6bbe 7e21 44bb 7c3b 20be d23e a83e
00000060: 86de 96bd a13f f9bd abdd c1be 0ace 3b3e
00000070: b059 21be 50cd 0a3f c719 0abf 83c3 f33e
00000080: 4e87 f3bd a639 973d bc62 c63e 10bf b23d
00000090: 0341 8bbe 8b5e e13d 95e6 abbc bd6a 70bf
000000a0: 6b35 4f3c 693e 90bd 9749 c2be a1ca b6be
000000b0: e1d7 2cbe 0a3a e43d 0c1c 6cbd bb37 0ebd
000000c0: 7754 773e 174b 4dbf c737 ae3e eefa bcbd
000000d0: 3493 40be b1c3 0fbe 5a3e 263e b4ba e0be
000000e0: a0c1 5e3e 6b65 203e bd02 e9be 6e7b 8a3e
000000f0: 8433 f63c 766c 6dbd 5a88 613e c87f 3fbe
00000100: 4eb5 2a3f 4a2a 393e 9306 1cbe 915c 083c
00000110: e99d fd3d e9ad 93be f70d 6b3e 57a0 a6be
00000120: 4a5e af3d 6e1a 64be beac 093f 7fb0 c43e
00000130: e8fc 933e 5121 9f3e 9cd2 b0be 004c eebd
00000140: de8a 45be 6651 a03d 4dc2 593f 39a7 9a3e
00000150: 8bdf d93e b91c bf3e 9e8b c4bc de2c a93e
00000160: f36b f83d eedb 883d 2ac4 963e 758c f6bd
00000170: d639 173e e359 79be 54ee 22be 163f 65be
00000180: 1af3 e6bd a735 2ebe 0553 293e 67ca 833e
00000190: bbac 93bd e66e 273d ab48 d1be a693 2dbe
000001a0: 138b af3c cc30 613e 4199 8cbe ddf7 59be
000001b0: f8ab 46be ab48 b4be 725c 4ebd 6f66 a6be
000001c0: a733 6d3c ddc8 3fbe e1b3 36bf 4e10 8fbe
000001d0: 59da 00bf 64cb 46be 3619 28bd 900e 5e3f
000001e0: c332 c2bc 6386 933e 6a91 0e3d 3475 c83e
000001f0: e4ea a1be 8519 c8be 063e 593f 570c 2ebf

running_var f4 [128]
0.16691671 0.26184958 0.03537914 0.15413171 0.12031386 0.10138325 0.147476 0.13306661
0.13526998 0.042486373 0.3706084 0.08193006 0.08549594 0.15813324 0.10899062 0.06684949
0.26657102 0.06308931 0.08172486 0.055194326 0.099248104 0.057615507 0.09647878 0.12980145
0.030382134 0.091904856 0.02513246 0.052443366 0.08475174 0.15535747 0.19997683 0.15367447
0.16021837 0.072874494 0.05402739 0.22820224 0.06726923 0.06305252 0.03809686 0.22226003
0.050011355 0.06681682 0.07139395 0.048725113 0.03923432 0.10313351 0.10689124 0.07488498
0.0954282 0.18955803 0.10768061 0.03826437 0.14784002 0.12027109 0.12340242 0.171623
0.049712814 0.056491543 0.07736058 0.24193624 0.19522204 0.04643475 0.05291732 0.04196058
0.1628932 0.04422664 0.052339673 0.08931425 0.07738769 0.12702164 0.16812707 0.12026661
0.024089528 0.053515173 0.07761034 0.15266584 0.26489243 0.076469906 0.027698245 0.12312861
0.120669 0.098016515 0.26253775 0.18915021 0.06346891 0.16370723 0.18838182 0.08987144
0.08291015 0.060697515 0.08920263 0.10958146 0.2018846 0.15912561 0.07164935 0.16000542
0.07601576 0.20511809 0.059827223 0.041284297 0.11204578 0.03160358 0.03077299 0.09132253
0.14241128 0.032257233 0.18092915 0.033018567 0.08834317 0.116408154 0.06403945 0.10374398
0.13182428 0.15268151 0.07605031 0.11306654 0.04893467 0.10414748 0.11934649 0.13057847
0.09587643 0.20674765 0.14404236 0.058273535 0.07003938 0.06524423 0.19722605 0.24826214
00000000: 37ec 2a3e 2611 863e b8e9 103d b4d4 1d3e
00000010: 1d67 f63d 05a2 cf3d f303 173e 9d42 083e
00000020: 3784 0a3e 3106 2e3d 62c0 bd3e f3ca a73d
00000030: 7f18 af3d aeed 213e 7936 df3d 63e8 883d
00000040: ff7b 883e f834 813d 5d5f a73d 7213 623d
00000050: 9742 cb3d 3dfe 6b3d ab96 c53d acea 043e
00000060: f4e3 f83c 9d38 bc3d 97e2 cd3c dbce 563d
00000070: 5292 ad3d 0716 1f3e bac6 4c3e d75c 1d3e
00000080: 4910 243e 393f 953d d34b 5d3d d9ad 693e
00000090: 73c4 893d ae21 813d 740b 1c3d 2298 633e
000000a0: b5d8 4c3d 42d7 883d fe36 923d fc93 473d
000000b0: 2bb4 203d a937 d33d cbe9 da3d 4c5d 993d
000000c0: dc6f c33d 801b 423e a787 dc3d 1abb 1c3d
000000d0: 6063 173e b050 f63d 68ba fc3d f1bd 2f3e
000000e0: aa9f 4b3d ad63 673d 396f 9e3d 22be 773e
000000f0: 49e8 473e 5d32 3e3d d5bf 583d dbde 2b3d
00000100: 7acd 263e fe26 353d 2062 563d 64ea b63d
00000110: 707d 9e3d f611 023e 8129 2c3e 574e f63d
00000120: 6757 c53c ba32 5b3d 2cf2 9e3d 6f54 1c3e
00000130: fb9f 873e 419c 9c3d 6ee7 e23c da2a fc3d
00000140: 4f21 f73d e2bc c83d 596b 863e 98b0 413e
00000150: fdfb 813d dea2 273e 2ae7 403e 840e b83d
00000160: cccc a93d f59d 783d deaf b63d 3f6c e03d
00000170: d6ba 4e3e d3f1 223e e5bc 923d 76d8 233e
00000180: 27ae 9b3d 7a0a 523e 640d 753d b919 293d
00000190: 4278 e53d c172 013d a317 fc3c 4e07 bb3d
000001a0: 43d4 113e 2920 043d 7e45 393e 7a3e 073d
000001b0: 44ed b43d 6667 ee3d 1d27 833d b977 d43d
000001c0: f2fc 063e 8b58 1c3e 44c0 9b3d 6e8f e73d
000001d0: b86f 483d 464b d53d ef6b f43d 5db6 053e
000001e0: dd5a c43d a8b5 533e d77f 133e 3bb0 6e3d
000001f0: ce70 8f3d c49e 853d a0f5 493e 6e38 7e3e

weight f4 [1, 128, 4, 4]
-0.026176136 0.018850178 -0.017035954 -0.015772825 -0.0071724784 0.036672354 0.008951046 0.07021179
-0.011864075 -0.0023926676 -0.0037276496 -0.0069299294 0.022737851 -0.016061105 -0.03771604 0.0031814503
-0.009308047 0.009556769 0.015115438 -0.021790784 0.033605136 0.03421231 0.030290633 0.0013708662
0.032056715 0.016534489 0.01932336 -0.010396426 0.038412362 -0.03452561 -0.014350283 -0.023770466
-0.013555831 -0.025895765 -0.013209373 -0.021333085 -0.033374745 0.00017141769 -0.012579632 -0.0017390029
-0.009072847 0.010294833 0.0075549907 -0.004554276 -0.017522704 0.01121796 0.0032518415 -0.04006418
0.026960153 -0.028634287 -0.023259802 -0.02193011 0.015149622 -0.0038254256 0.02536801 -0.01697741
0.008630658 0.002078358 -0.00015302174 0.0072331266 -0.008193064 -0.019566638 0.025164055 -0.012098769
0.02720968 -0.004744964 0.005634413 -0.005626037 -0.041205224 0.009582405 -0.0023374488 0.05306187
-0.0002898828 0.0062249736 0.022976736 0.031513054 -0.003375457 -0.01166937 0.011347689 0.0016107566
0.040618993 -0.02171513 -0.014464866 -0.01710206 0.025146535 -0.015052507 0.020057974 -0.048492555
0.009530369 -0.0178911 -0.029328596 0.012364779 -0.01064069 0.027841633 0.008402972 0.004736329
0.0007132778 0.03006618 -0.03899245 0.07558781 0.0116901025 -0.014270901 0.0002928888 0.0007547692
-0.032876834 0.010980161 -0.00042219972 -0.017605947 0.015804825 -0.029058049 -0.027392536 0.0069191256
-0.054724053 -0.0004985254 0.006172133 -0.01720724 -0.0056753745 0.003369492 0.02933144 -0.014443376
-0.020735113 -0.007797022 0.014232827 0.008620387 0.011552524 -0.031847846 -0.014947239 0.016661698
-0.001671426 0.037730854 -0.0011067438 0.029059716 -0.017945426 0.0060569835 0.03170324 0.0005621001
0.0023719582 0.008219017 0.009704611 -0.030973338 -0.03887048 0.009019319 0.013141936 -0.009705852
-0.002702367 -0.012983409 -0.0037529347 -0.0042523714 0.034181852 0.0010002148 0.0071805613 0.004231149
0.0143741 0.027419107 -0.012349922 -0.013904555 -0.016470265 -0.017583314 -0.009423511 -0.036375027
-0.0255742 0.023399895 0.033447865 -0.0074212435 -0.012531559 0.0005829436 -0.005949243 -0.0002309294
0.0060365847 -0.0069880276 -0.0166086 -0.03234383 -0.034098655 -0.010281997 0.00951924 -0.03264105
0.023274263 -0.019478163 0.0027166496 -0.014074146 0.023363456 -0.01287358 -0.015838673 0.0064243944
0.024608409 0.0039191456 0.024329852 -0.0014924291 0.037921622 0.0009478138 -0.0056545753 -0.010781612
0.021399356 0.0052389116 0.020785732 0.014453487 -0.027778294 -0.0060647544 -0.062243618 -0.012080987
-0.022189701 -0.015575951 -0.021199292 -0.00030067028 -0.030503515 0.016701035 -0.00090986246 -0.027346049
-0.026915202 -0.026509518 0.01216569 0.024349106 -0.03142541 -0.0035603396 -0.003902226 0.03798376
0.0056989323 -0.009427583 -0.020122813 0.031735517 0.019267688 0.025129383 0.012714792 -0.011561556
-0.0072630574 -0.041263845 -0.019472314 -0.01965663 -0.033770185 0.008813045 -0.009663267 -0.028517421
0.019504406 0.005302201 -0.013463065 -0.0016687702 0.01175522 0.0072167157 -0.028425219 -0.017729668
-0.026713338 0.020371206 -0.012554861 -0.015006223 -0.029013125 0.017100342 -0.004396887 -0.0071688974
-0.038757004 0.015503616 0.0003791111 0.02277038 -0.0010320162 0.0016145206 0.0044319695 0.03310001
00000000: 566f d6bc b06b 9a3c fc8e 8bbc 0336 81bc
00000010: 1c07 ebbb c035 163d 68a7 123c 33cb 8f3d
00000020: 8a61 42bc 4dce 1cbb 954b 74bb 7614 e3bb
00000030: bb44 ba3c 9492 83bc 227c 1abd e17f 503b
00000040: c780 18bc ff93 1c3c bea6 773c 9682 b2bc
00000050: 8aa5 093d 3522 0c3d 1024 f83c a3ae b33a
00000060: e74d 033d 5673 873c 064c 9e3c c555 2abc
00000070: 4856 1d3d ba6a 0dbd 731d 6bbc 48ba c2bc
00000080: 4719 5ebc 5b23 d4bc 206c 58bc b9c2 aebc
00000090: f5b3 08bd 96be 3339 cd1a 4ebc 41ef e3ba
000000a0: 47a6 14bc a9ab 283c db8f f73b 093c 95bb
000000b0: c68b 8fbc 89cb 373c d91c 553b 561a 24bd
000000c0: 8adb dc3c 7492 eabc 578b bebc c6a6 b3bc
000000d0: 1f36 783c feb3 7abb 93d0 cf3c 3614 8bbc
000000e0: 9a67 0d3c 1035 083b 7674 20b9 dd03 ed3b
000000f0: 333c 06bc 374a a0bc d924 ce3c ea39 46bc
00000100: d6e6 de3c a57b 9bbb e2a0 b83b 9e5a b8bb
00000110: cfc6 28bd 85ff 1c3c e22f 19bb 6757 593d
00000120: 69fb 97b9 ddfa cb3b b539 bc3c d513 013d
00000130: c536 5dbb e330 3fbc a8eb 393c 0620 d33a
00000140: 1a60 263d eee3 b1bc 0cfe 6cbc 9f19 8cbc
00000150: 1b00 ce3c ca9e 76bc 9f50 a43c 21a0 46bd
00000160: 4425 1c3c 5b90 92bc 8642 f0bc a495 4a3c
00000170: 4a56 2ebc 2314 e43c 9eac 093c 3533 9b3b
00000180: 43fb 3a3a 594d f63c 8cb6 1fbd c8cd 9a3d
00000190: d887 3f3c 7fd0 69bc df8e 9939 b4db 453a
000001a0: dca9 06bd 22e6 333c b05a ddb9 593a 90bc
000001b0: 1f79 813c 250b eebc 5066 e0bc d5b9 e23b
000001c0: 5426 60bd 79af 02ba 9b3f ca3b 33f6 8cbc
000001d0: 7ef8 b9bb b2d2 5c3b 7d48 f03c e9a3 6cbc
000001e0: afdc a9bc 297e ffbb ce30 693c 863c 0d3c
000001f0: cc46 3d3c e372 02bd 44e5 74bc 1d7e 883c
00000200: c013 dbba ab8b 1a3d 2910 91ba a40e ee3c
00000210: 4902 93bc a979 c63b 42db 013d e659 133a
00000220: db72 1b3b 0ea9 063c 1700 1f3c ccbb fdbc
00000230: a736 1fbd c4c5 133c 4651 573c 4b05 1fbc
00000240: 321a 31bb 5db8 54bc ccf3 75bb 7a57 8bbb
00000250: 4502 0c3d a419 833a ea4a eb3b 73a5 8a3b
00000260: 5881 6b3c 099e e03c 5457 4abc eecf 63bc
00000270: a6ec 86bc e20a 90bc 1265 1abc fbfd 14bd
00000280: fc80 d1bc 23b1 bf3c a100 093d e72d f3bb
00000290: 2b51 4dbc afd0 183a def1 c2bb a425 72b9
000002a0: 8bce c53b d3fb e4bb c20e 88bc f77a 04bd
000002b0: 08ab 0bbd d275 28bc 96f6 1b3c 9fb2 05bd
000002c0: aba9 be3c ab90 9fbc d109 323b 3f97 66bc
000002d0: b864 bf3c b5eb 52bc 1bc0 81bc ba83 d23b
000002e0: 9397 c93c 2d6c 803b 664f c73c 9c9d c3ba
000002f0: b453 1b3d b576 783a 044a b9bb 5ca5 30bc
00000300: b44d af3c 2dab ab3b d746 aa3c 51ce 6c3c
00000310: 4e8f e3bc d9ba c6bb 2af3 7ebd 55ef 45bc
00000320: 2dc7 b5bc 4632 7fbc 23aa adbc 48a3 9db9
00000330: 82e2 f9bc 9cd0 883c d683 6eba d204 e0bc
00000340: 457d dcbc 7d2a d9bc 9a52 473c c777 c73c
00000350: eeb7 00bd 9654 69bb 7dbc 7fbb dc94 1b3d
00000360: 1cbe ba3b 2676 1abc 99d8 a4bc 1afd 013d
00000370: 45d7 9d3c 23dc cd3c b451 503c ae6c 3dbc
00000380: f1fe edbb 4704 29bd 6784 9fbc f106 a1bc
00000390: 9b52 0abd 9764 103c ae52 1ebc 5e9d e9bc
000003a0: b4c7 9f3c 16be ad3b 3094 5cbc a3ba daba
000003b0: f798 403c 337a ec3b 01dc e8bc cf3d 91bc
000003c0: eed5 dabc 84e1 a63c e7b2 4dbc a9dc 75bc
000003d0: efac edbc 0416 8c3c c313 90bb 12e9 eabb
000003e0: aabf 1ebd e102 7e3c 6ec3 c639 f388 ba3c
000003f0: b844 87ba 529e d33a 0e3a 913b e093 073d
