cifar-10/netD.pt (torch_old, 698407 bytes, 12 tensors)

weight f4 [32, 3, 4, 4]
0	0xbcc7f4b9	-0.024408685
1	0xbb75f6ab	-0.0037531059
2	0xbcaea3bc	-0.021318309
3	0x3d2813b0	0.0410344
4	0x3ba0fb6e	0.0049127853
5	0x3a854e73	0.0010170474
6	0xbc78636e	-0.015160425
7	0xbc550f68	-0.013004161
8	0x3c33aebf	0.010966956
9	0x3ca2d59a	0.019877244
10	0x3bb91619	0.005648386
11	0xbc940c93	-0.018072402
12	0x3b9604b9	0.0045781997
13	0x3caa0815	0.020755807
14	0x3c90851e	0.0176416
15	0x3c0861de	0.008324115
16	0xbbd28341	-0.006424338
17	0x3d0de5bd	0.034642924
18	0x3d00138b	0.031268638
19	0x3c381401	0.011235238
20	0x3cbecdee	0.023291554
21	0xbd539834	-0.051658824
22	0xbc9e69f9	-0.019337641
23	0x3af8b7bb	0.0018975654
24	0xbab74c7a	-0.0013984584
25	0x3a293f75	0.0006456294
26	0xbcd0aafb	-0.025472155
27	0x3c809ee6	0.015700769
28	0xbcd753c9	-0.026285069
29	0x3c340e0b	0.010989676
30	0x3cafcac9	0.021459
31	0x3c6e85bb	0.014558251
32	0xbac83880	-0.0015275627
33	0x3d052a5f	0.03251111
34	0xba32e7ee	-0.00068247213
35	0xbd2921ea	-0.04129211
36	0x3b4341cc	0.0029793857
37	0x3d4bbe53	0.049742054
38	0xbaf34f9e	-0.0018563156
39	0x3c5d9b5d	0.013525811
40	0xbcb5134f	-0.022103934
41	0xbcd4d049	-0.025978224
42	0x3c856b3b	0.016286483
43	0x3cbd6f69	0.023124414
44	0x3ba8f563	0.0051562055
45	0xbc9f361a	-0.019434977
46	0x3d0d01aa	0.034425415
47	0xbc222048	-0.009895392
48	0xbc73e67a	-0.014886493
49	0x3b9d6f3e	0.004804521
50	0xbc781e2f	-0.015143915
51	0x3be4b2a6	0.0069793044
52	0xbc1a9f72	-0.009437429
53	0x3caaecfe	0.02086496
54	0x3c157342	0.009121718
55	0x3c3eb496	0.011639735
56	0x3c3783d8	0.011200868
57	0xbafb1df7	-0.001915871
58	0xbc0ebc88	-0.008711942
59	0x3d490ab6	0.04908248
60	0xbb34e115	-0.002759998
61	0x3d04ac89	0.032391105
62	0x3cde7422	0.027154986
63	0x3d0a2935	0.033730704
64	0x3b884995	0.0041591623
65	0x3c931e3e	0.017958757
66	0xbc5c4289	-0.013443598
67	0x3cc3bdc8	0.023894206
68	0x3cb740bb	0.022369733
69	0x3c90b907	0.017666353
70	0x3cbd8c80	0.023138285
71	0x3b82ab5e	0.0039877137
72	0x3bc262dd	0.0059321956
73	0x3cc70c2f	0.024297802
74	0xbc57e21b	-0.013176466
75	0x3b2dc3e5	0.0026514467
76	0x39af94e9	0.00033489548
77	0xb97d49e7	-0.00024155491
78	0xbce12ec4	-0.02748812
79	0x3c87dd3d	0.016584987
80	0xbcfb4b1a	-0.03067546
81	0xbcdc1f46	-0.026870381
82	0x3bd0e5b9	0.0063750413
83	0x3cdda0b9	0.027054178
84	0xbc6485b7	-0.013947896
85	0xbb253571	-0.0025208856
86	0x3b96aa7d	0.0045979605
87	0x3c9facbb	0.019491544
88	0xbc37a8f5	-0.011209716
89	0xbc8b9130	-0.017037004
90	0xbcaea89c	-0.021320634
91	0xbb87f79e	-0.0041493913
92	0x3c4aae48	0.012370653
93	0xbc3064c7	-0.010766215
94	0x3c6cf729	0.014463224
95	0x3b7cc55f	0.003856979
96	0xbbd7dfaf	-0.0065879445
97	0x3d3cc4f3	0.046086263
98	0x3b176a33	0.002310407
99	0xbb12e502	-0.0022414331
100	0xbc5cebb8	-0.013483934
101	0xbd5cc938	-0.053902835
102	0x3b9fd57c	0.0048777442
103	0x3c15dfb2	0.009147571
104	0xbc3832af	-0.011242553
105	0xbb8b3bec	-0.0042490866
106	0x3c9edadd	0.019391472
107	0x3cc25ec6	0.023726832
108	0x3cee46b4	0.029086448
109	0x3b84ffdb	0.0040588207
110	0xbd068a89	-0.03284696
111	0x3c086115	0.008323927
112	0x3bfaf9c4	0.007659169
113	0x3c011cbc	0.007880386
114	0xbd5e0ff8	-0.054214448
115	0xbd524769	-0.051337633
116	0x3d48befc	0.049010262
117	0x3c6733c7	0.014111466
118	0xbb882690	-0.0041549876
119	0x3cf3f55c	0.029780082
120	0x3c8e4cfe	0.017370697
121	0xbb883f8c	-0.004157966
122	0x3a8058cc	0.0009792089
123	0x3c2be861	0.010492415
124	0xbd0b2d5c	-0.033978805
125	0x3c829686	0.015940916
126	0xbc84d237	-0.01621352
127	0x3bdbb8a8	0.0067053623
128	0xbb5b8e59	-0.0033501594
129	0x3c246a2c	0.010035079
130	0xbca3f7dd	-0.020015651
131	0x3c43ae8f	0.0119434735
132	0xbd0c9222	-0.03431905
133	0x3b9cea55	0.0047886767
134	0xbd10f48b	-0.035389464
135	0x3ce237b3	0.02761445
136	0x3c6924dd	0.01422998
137	0x3d2b3710	0.04180056
138	0xbcf3178a	-0.02967431
139	0xbd12fde5	-0.035886664
140	0xbc8d7750	-0.017268807
141	0x3d0c579a	0.03426323
142	0xbb3894e2	-0.0028164913
143	0x3aa57a77	0.0012624998
144	0x3c9d57ce	0.019206908
145	0xbcb5eab4	-0.022206642
146	0xbcc6bc37	-0.02425967
147	0x3c43b9d8	0.011946164
148	0xbc63e149	-0.013908693
149	0x3d34d3fe	0.044147484
150	0xbcb8dff7	-0.022567732
151	0x3d3d70a1	0.04624999
152	0xbcf854dd	-0.030313903
153	0xbc91f3cb	-0.017816445
154	0x3c646a51	0.013941363
155	0x3d32b3c3	0.043628465
156	0x3c72e890	0.014825955
157	0xbcab793e	-0.020931836
158	0xbb772389	-0.003771039
159	0x3b4e9ffd	0.0031528466
160	0xbd1a412f	-0.03765982
161	0xbc086776	-0.008325448
162	0xbcfdd301	-0.030984404
163	0x3cf21cee	0.02955481
164	0xbcb8edef	-0.022574393
165	0x3d8603df	0.06543707
166	0x3cd2936f	0.025705067
167	0xbc88b92d	-0.016689861
168	0x3d30853e	0.04309582
169	0x3b9ad795	0.0047254064
170	0x3a62e3da	0.00086551683
171	0x3a96fb06	0.0011518903
172	0xbc74f918	-0.014951967
173	0x3d1b9b97	0.03799018
174	0xbcc9c06e	-0.02462789
175	0x3c088452	0.008332329
176	0xbbae7c2e	-0.005324862
177	0x3ca42843	0.02003873
178	0x3c09292a	0.008371631
179	0xbca6171e	-0.020274695
180	0x3c303722	0.010755332
181	0x3a94a32c	0.0011340133
182	0x3baeb30c	0.0053314026
183	0x3c36b383	0.011151197
184	0x3ca7d131	0.020485492
185	0xbb70d784	-0.003674955
186	0x3ab921ed	0.001412449
187	0x3c192ea6	0.009349501
188	0x3c7b6710	0.015344396
189	0xbb6c332a	-0.0036041238
190	0xbca91729	-0.020640926
191	0x3c4da1e0	0.012550801
192	0x3c846770	0.016162604
193	0xbcde7b50	-0.02715841
194	0x3cb8d80d	0.022563959
195	0x3c2ba7b6	0.010476997
196	0xbc99531c	-0.018716387
197	0x3bafff1d	0.005370988
198	0x3c1e82b2	0.009674715
199	0x3bd51cd1	0.0065036793
200	0xbccac2fd	-0.02475118
201	0x3bff77bd	0.0077962563
202	0xbb12a4eb	-0.002237613
203	0xbb8682af	-0.004104934
204	0x3c93fd67	0.018065168
205	0xbb0a7e34	-0.0021132352
206	0xbb856e47	-0.004071984
207	0x3acb1fce	0.001549715
208	0x3c89d6c2	0.016826037
209	0xbccfd1af	-0.02536854
210	0xbcab6ee5	-0.020926902
211	0x3c46ce1d	0.012134102
212	0x3c9c3031	0.019065948
213	0x39885757	0.00026005015
214	0xbc015c03	-0.007895472
215	0xbc58b0aa	-0.013225714
216	0x3c432126	0.011909759
217	0x374b671c	1.212375e-05
218	0xbcc4dfb5	-0.024032453
219	0xbc951ec2	-0.018203143
220	0xbb0ab638	-0.002116574
221	0x3c49b419	0.012311005
222	0x3c0488ee	0.008089287
223	0xbd0a119f	-0.03370821
224	0xbd3fa261	-0.046785716
225	0xbb7aac30	-0.0038249604
226	0xbd0e2ba3	-0.034709584
227	0x3d18c03f	0.037292715
228	0xba119388	-0.0005553295
229	0xbd22131c	-0.039569005
230	0x3c160791	0.009157077
231	0x3a8e886b	0.0010874396
232	0x3c9e36f7	0.019313319
233	0xbc882fb6	-0.016624313
234	0x3cb67e46	0.022277009
235	0x3d553c0a	0.05205921
236	0xbbf11f27	-0.00735845
237	0xbc8e98cc	-0.017406844
238	0xbb945fff	-0.004528045
239	0xbc8c42b5	-0.017121652
240	0x3cb35bf3	0.02189443
241	0xbbb584fb	-0.005539534
242	0xbd0a5772	-0.0337748
243	0x3cb8197e	0.022473093
244	0xbc98098b	-0.018559238
245	0x3bd3aa40	0.0064595044
246	0x3ceaba08	0.02865316
247	0x3c9b950b	0.018991968
248	0x3cc4f730	0.02404365
249	0xb952aa06	-0.000200905
250	0x3b608ac7	0.0034262405
251	0x3cab030e	0.02087548
252	0x3d0dd689	0.034628425
253	0xbcf1bb7c	-0.029508345
254	0x3c84c206	0.016205799
255	0xb941b305	-0.00018472604

weight f4 [64, 32, 4, 4]
0	0xbccfd2e5	-0.025369117
1	0xbad920da	-0.0016565577
2	0x3c924853	0.017856752
3	0x3bf7ea56	0.007565777
4	0x3afd948f	0.0019346642
5	0x3bc9ba2f	0.006156228
6	0x3d36a2ea	0.04458896
7	0xbd0181a7	-0.031617787
8	0xbc0a4633	-0.008439588
9	0xbcdc4e52	-0.026892815
10	0xbca50c45	-0.020147452
11	0x3bd05bbe	0.006358593
12	0xbc2f54f6	-0.010701409
13	0xbc298dd6	-0.010348758
14	0xbc99f011	-0.01879123
15	0x3d1f9d5a	0.03896842
16	0x3beb1432	0.0071740383
17	0xbd00d2f6	-0.031451188
18	0x3bb48991	0.0055095633
19	0xbc9201c7	-0.017823113
20	0x3c9700a6	0.018432926
21	0xbbc564cc	-0.006023979
22	0xbadb41a1	-0.0016727933
23	0x3c4f8c7a	0.01266777
24	0x3c39acc2	0.011332693
25	0x3a980e1f	0.0011600888
26	0x3c9eabf7	0.019369109
27	0x3c877657	0.016535921
28	0x3cb9cabc	0.02267968
29	0xbcd9dd75	-0.026594857
30	0xbd1b62a5	-0.03793587
31	0x3be25685	0.0069072866
32	0x3d269008	0.040664703
33	0xbc835e92	-0.016036306
34	0xbaaa2515	-0.0012981022
35	0x3c81055f	0.015749631
36	0x3d00b750	0.03142482
37	0xbb3d62ac	-0.0028897924
38	0xbac89e4b	-0.0015305964
39	0x3d064f52	0.03279049
40	0x3bf783e5	0.007553565
41	0x3ccdbd21	0.025114598
42	0x3c8caf41	0.017173411
43	0x3c738fde	0.014865844
44	0x3c39c136	0.011337569
45	0xbc4a40a7	-0.012344516
46	0xbc76651c	-0.015038755
47	0x3d05d54c	0.03267412
48	0x3c5ef6e2	0.013608666
49	0xbc01ce8a	-0.007922778
50	0x3c81ec48	0.015859738
51	0x3c5905f8	0.013246052
52	0x3bdf363c	0.006811885
53	0x3d40cc8e	0.04707008
54	0x3c8cf8f6	0.017208558
55	0x3c85205a	0.016250778
56	0x3c8ae474	0.016954638
57	0x3ca8979f	0.020580111
58	0x3d33f0d2	0.043930836
59	0xbd4e7810	-0.05040747
60	0xbd170887	-0.036873367
61	0x3ca2362a	0.019801218
62	0x3ba43709	0.0050114435
63	0xbbca3881	-0.0061712866
64	0xbb97dc36	-0.0046344055
65	0xbc5eb252	-0.01359232
66	0x3c954693	0.018222129
67	0x3cc32865	0.023822973
68	0xbc967336	-0.018365484
69	0xbc9a8974	-0.01886437
70	0x3cb91b86	0.022596132
71	0xbbfef838	-0.007781055
72	0x3c28aea2	0.010295542
73	0x3c2b3110	0.010448709
74	0x3d19b2e8	0.037524134
75	0xbc81bbc4	-0.015836604
76	0xbc543bbe	-0.012953697
77	0x3caeca7f	0.021336792
78	0x3bc2a67a	0.0059402557
79	0xbc8aa7cd	-0.016925717
80	0xbd2bb0b7	-0.041916575
81	0x3b1a8f72	0.0023584035
82	0xbba610b5	-0.0050679096
83	0x3c9f3fff	0.019439695
84	0xbc167b2f	-0.009184643
85	0xbc67c22c	-0.014145415
86	0xbc756fed	-0.0149802985
87	0xbbd95169	-0.0066320193
88	0xbb3bc53e	-0.00286515
89	0x3c5c8b0e	0.013460888
90	0x3c06f53b	0.008237178
91	0xbce67f39	-0.028136836
92	0xbcc2a247	-0.02375902
93	0x3995f5c2	0.00028602598
94	0x3bbf7923	0.005843298
95	0x3a39368f	0.000706532
96	0xbd3cd5e1	-0.04610241
97	0xbbf9fab7	-0.0076287645
98	0xbc124960	-0.008928627
99	0xbb8bba6c	-0.0042641666
100	0x3cbfce0c	0.02341368
101	0x3c19d8ff	0.009390115
102	0x3ba65dcc	0.0050770994
103	0x3b36c590	0.0027888753
104	0xbd4748a9	-0.04865328
105	0x3b49fa16	0.003081923
106	0xbc9433ed	-0.018091166
107	0x3b1d1794	0.0023970352
108	0xbc8adb43	-0.016950255
109	0xbd43200e	-0.04763799
110	0xbceb882a	-0.028751452
111	0xbd3131a1	-0.04326022
112	0xbcd64732	-0.026156995
113	0xbb905134	-0.0044042114
114	0x3c5ce3b6	0.013482025
115	0xbb866fdd	-0.0041026906
116	0x3c6497a8	0.013952173
117	0x3b59378d	0.0033144683
118	0xbd1c76b7	-0.038199153
119	0xbc21d437	-0.009877256
120	0xbc297550	-0.010342911
121	0xbc54e7b1	-0.012994693
122	0x3d35159d	0.044210065
123	0x3b90f192	0.0044233287
124	0xbc8749c8	-0.016514674
125	0x3c89629b	0.016770652
126	0xbcabdf5b	-0.020980528
127	0xbbfe8f08	-0.0077685155
128	0xbcde9a55	-0.0271732
129	0xbc83bb31	-0.01608047
130	0xbc89379f	-0.016750155
131	0xbcf433d7	-0.029809875
132	0x3af3befe	0.0018596349
133	0x3be667ef	0.007031433
134	0x3d072260	0.032991767
135	0xbb966831	-0.0045900573
136	0x3c55ce3b	0.013049657
137	0xbcc60cd5	-0.02417604
138	0xbbfb5497	-0.007669996
139	0xbc558a20	-0.01303342
140	0xbc84a14e	-0.016190197
141	0xbcc5ba18	-0.024136588
142	0x3cd12f1c	0.025535159
143	0x3c2f18f0	0.010687098
144	0xbbebe410	-0.007198818
145	0xbd23619e	-0.039888017
146	0x3b92bb9e	0.004477932
147	0xbcb3cdfe	-0.02194881
148	0xbc806d15	-0.015677014
149	0x3c1e128a	0.009647975
150	0x3ccc1a15	0.02491478
151	0xbb1a29d9	-0.0023523478
152	0x3aa45f6c	0.0012540645
153	0x3bad8569	0.0052954447
154	0xbbf3c13f	-0.007438808
155	0xbcd8c39e	-0.026460465
156	0x3caef572	0.021357272
157	0x3c88fff8	0.016723618
158	0x3b4d1cc9	0.0031297675
159	0xbb5101e6	-0.0031892
160	0xbcaad7e3	-0.020854896
161	0x3cc97065	0.024589727
162	0xbc0a6526	-0.008446967
163	0x3a1bd723	0.00059448386
164	0xbcadf888	-0.021236673
165	0x3b1a3c1b	0.002353436
166	0x3cfe28b4	0.031025268
167	0x3c3c559d	0.011495021
168	0x3bd5e605	0.0065276646
169	0xbcdbe940	-0.02684462
170	0x3cbdfc2e	0.023191538
171	0xbd5fcf25	-0.054640908
172	0x3cdfc5a5	0.027315924
173	0x3cde479b	0.027133754
174	0xbd1276b2	-0.035757728
175	0x3a8e15af	0.0010840202
176	0xbc92920b	-0.017891904
177	0x3c985de2	0.018599454
178	0x3c2d44cf	0.010575487
179	0xbcd14e3f	-0.025550006
180	0x3b571140	0.0032816678
181	0xbc00bb2b	-0.007857124
182	0xbb17c913	-0.002316062
183	0x3ca64e15	0.020300904
184	0x3c8c5791	0.017131599
185	0xbc6c54f9	-0.014424556
186	0xbcc1a496	-0.023638051
187	0xbd5a640d	-0.053318072
188	0xbcdc7a51	-0.026913794
189	0x3c8230ce	0.015892413
190	0x3cf29cee	0.029615846
191	0x3c4ba302	0.012429001
192	0x3c5b0691	0.013368265
193	0xbbbe20d3	-0.005802253
194	0xbc0cfb5a	-0.008604849
195	0xbc770d17	-0.015078804
196	0xbc644bb1	-0.013934062
197	0xbd375307	-0.044756915
198	0xbd1f2565	-0.03885402
199	0x3cc1983a	0.023632158
200	0xbca596ec	-0.020213567
201	0xbbcf93b4	-0.0063347463
202	0x3c05c4fc	0.0081646405
203	0x3c9c5d0e	0.01908734
204	0xba9fb2f2	-0.0012184067
205	0x3cbf074e	0.023318913
206	0xbb4f944e	-0.003167409
207	0xbc852b9a	-0.016256142
208	0xbd607780	-0.054801464
209	0x3ca8ff5d	0.02062958
210	0x3ba7da57	0.0051224637
211	0x3802ec0f	3.1214262e-05
212	0x3c5d4266	0.0135046
213	0xbc8ecd02	-0.01743174
214	0x3a018ed0	0.000494224
215	0xbc8a23b0	-0.01686272
216	0xbc9b3024	-0.018943854
217	0x3cc56653	0.024096644
218	0x3c47f78c	0.012205016
219	0xbd08147d	-0.033222664
220	0xbc83d7bd	-0.016094083
221	0x3cbaa348	0.022782937
222	0x3c1805fe	0.009278772
223	0x3c1cab17	0.009562275
224	0x3c9c4bcb	0.01907911
225	0x3b814bfe	0.0039458266
226	0xbba5efbe	-0.00506398
227	0x3b9cf891	0.0047903736
228	0x3cdade51	0.026717337
229	0xbc133177	-0.008983961
230	0x3d1e67fa	0.03867338
231	0xbbf31eab	-0.0074194274
232	0xbb56826b	-0.0032731544
233	0x3c80b56b	0.015711507
234	0x3c6efd85	0.014586811
235	0xbb9ceb4c	-0.0047887918
236	0x3cdccfcc	0.026954554
237	0x3ab3cc65	0.001371753
238	0xbc9ee6e4	-0.019397207
239	0x3c3f135c	0.0116623305
240	0xbc97ccb9	-0.018530237
241	0xbbbaeb0e	-0.0057042902
242	0xbbf14c29	-0.0073638153
243	0xbc794ad7	-0.015215597
244	0x3bf3316c	0.007421663
245	0xbc786cc9	-0.015162655
246	0xbc970c8f	-0.018438606
247	0xbd00fe5a	-0.03149257
248	0x3cb40d60	0.021979034
249	0x394565b0	0.00018825266
250	0x3cce57e2	0.02518839
251	0xbd0400fc	-0.0322275
252	0x3c88a8f1	0.01668212
253	0xbb14679c	-0.0022644764
254	0x3cd6872f	0.026187507
255	0x3c6d1e2b	0.014472525

running_mean f4 [64]
0	0xbca29087	-0.019844307
1	0xbc8883a9	-0.016664343
2	0x3b290142	0.0025788103
3	0xbb514b44	-0.003193573
4	0x3b6ab53a	0.0035813586
5	0xbc88f58b	-0.016718647
6	0x3c02a3f0	0.007973656
7	0xbbdf6d77	-0.006818469
8	0x3bdadc8f	0.0066791247
9	0xbafb31ed	-0.0019164659
10	0x3b269a02	0.0025421386
11	0xbc9a6e33	-0.018851375
12	0xbbebcc6c	-0.007196
13	0xbc9bfbd5	-0.019040981
14	0x3b4dc12f	0.0031395664
15	0xbbb25e14	-0.005443344
16	0xbc430bc2	-0.011904659
17	0x3c03d9c8	0.008047529
18	0x397e11ac	0.00024229911
19	0xbc98b6a4	-0.018641777
20	0x3b0d3329	0.0021545386
21	0xbc79364e	-0.015210701
22	0x3a332680	0.0006834045
23	0x3b81882b	0.003953
24	0xbcb4a7ab	-0.022052607
25	0x3ab9b26f	0.0014167557
26	0x3bff3b87	0.0077890786
27	0x3c69556f	0.01424156
28	0xbb8dd6f6	-0.004328604
29	0x3c26b46e	0.010174854
30	0xbb1ef641	-0.0024255665
31	0x3ba904d1	0.005158045
32	0xbc10a312	-0.0088279415
33	0x3adf5bba	0.0017040886
34	0x3c5a7030	0.013332412
35	0x3c00f108	0.007869966
36	0x3b088e9f	0.0020836962
37	0x3cb0f39e	0.02160054
38	0x3c7f0426	0.015564954
39	0x3b494ce2	0.0030715992
40	0x3bc348ef	0.005959622
41	0xbc926595	-0.017870704
42	0xbb5fba6d	-0.0034138218
43	0xbbbf039b	-0.005829287
44	0xba99340b	-0.0011688484
45	0xbb0c8ba1	-0.002144553
46	0xbbb8e4ec	-0.005642524
47	0x3c0fd39e	0.008778481
48	0xbbd291cd	-0.006426072
49	0x3b567c5e	0.0032727937
50	0xbc4296fd	-0.011876819
51	0x3c2c0468	0.010499097
52	0x3b81dde5	0.0039632195
53	0x3b8811b8	0.004152503
54	0xbbaadf23	-0.0052145883
55	0xbb7372a9	-0.00371472
56	0x3bd03a15	0.00635458
57	0xbb4f421d	-0.00316251
58	0x3a9c669d	0.0011932437
59	0x3bb20ecb	0.0054338924
60	0xbb52a450	-0.0032141395
61	0x3bd797c4	0.006579371
62	0x3b0ac46b	0.0021174203
63	0x3ba4c449	0.005028282

running_var f4 [64]
0	0x38acec15	8.245573e-05
1	0x39aa7f84	0.00032519933
2	0x3a674ba9	0.0008823225
3	0x39835c3c	0.00025054987
4	0x3957fcef	0.00020598223
5	0x396cb1ec	0.00022572995
6	0x39b7a3a3	0.000350264
7	0x39e50d7d	0.00043688333
8	0x39cb7d88	0.00038812705
9	0x39180149	0.00014496328
10	0x395e3ea0	0.000211949
11	0x38d0b7c7	9.952444e-05
12	0x3993c9ed	0.0002818847
13	0x39ae4054	0.00033235794
14	0x39a1b431	0.00030842566
15	0x39918e6c	0.00027762668
16	0x39003298	0.00012225879
17	0x38df9f48	0.00010663137
18	0x39a78aaa	0.00031956035
19	0x3971e086	0.00023067193
20	0x39031e59	0.00012504439
21	0x39a18cfc	0.00030813355
22	0x39a4fc2b	0.00031468397
23	0x398aa7a0	0.00026446301
24	0x39508fd9	0.00019890013
25	0x390bdf45	0.00013339247
26	0x393fcf8a	0.00018292494
27	0x399974d1	0.0002926947
28	0x39316269	0.00016916696
29	0x38cda2cd	9.805486e-05
30	0x396cf01a	0.00022596159
31	0x39558e3c	0.0002036625
32	0x395360a7	0.00020158534
33	0x38ce1c9f	9.8281766e-05
34	0x38e61610	0.00010971364
35	0x39f5c2d6	0.00046875206
36	0x39243573	0.0001566017
37	0x3915323e	0.00014228464
38	0x3905a6ae	0.00012745961
39	0x3978b461	0.0002371832
40	0x38199983	3.662101e-05
41	0x39ce7fae	0.0003938651
42	0x3965d057	0.00021916754
43	0x3957958d	0.0002055971
44	0x38febe2e	0.000121470875
45	0x39102add	0.00013748878
46	0x390a49bf	0.00013188178
47	0x38da783c	0.000104174454
48	0x3a17a8fc	0.00057853735
49	0x3a03fc36	0.0005034836
50	0x39873b92	0.0002579359
51	0x39072c41	0.00012891089
52	0x3985c35c	0.0002551329
53	0x398ef5f3	0.00027267597
54	0x3999ba2c	0.00029321143
55	0x394237cd	0.00018522069
56	0x397aac06	0.00023905942
57	0x38bb07a1	8.918276e-05
58	0x38d0c166	9.954236e-05
59	0x39220105	0.00015449904
60	0x39237cca	0.00015591379
61	0x3876c563	5.88348e-05
62	0x3903979e	0.00012549615
63	0x38fd12b9	0.000120674675

weight f4 [64]
0	0x3f79e25f	0.9761104
1	0x3f82045c	1.015758
2	0x3f7dc139	0.9912296
3	0x3f84be39	1.0370551
4	0x3f80477d	1.0021816
5	0x3f7977fb	0.974487
6	0x3f803440	1.0015945
7	0x3f81a08b	1.0127119
8	0x3f812968	1.0090761
9	0x3f7f9fb6	0.99853075
10	0x3f7d6e57	0.9899649
11	0x3f7b0df0	0.9806814
12	0x3f80651a	1.0030854
13	0x3f784f80	0.9699631
14	0x3f863818	1.0485868
15	0x3f80661e	1.0031164
16	0x3f817b39	1.011573
17	0x3f817d70	1.0116405
18	0x3f7c6a60	0.98599815
19	0x3f7a6f4d	0.9782608
20	0x3f7bb970	0.9832983
21	0x3f809b21	1.0047342
22	0x3f7b41e5	0.9814742
23	0x3f7f201d	0.99658376
24	0x3f8481e6	1.0352142
25	0x3f80d2e4	1.0064359
26	0x3f7f8222	0.9980794
27	0x3f832f65	1.0248839
28	0x3f7c96a0	0.98667336
29	0x3f7f21b2	0.9966079
30	0x3f81ddeb	1.0145849
31	0x3f760882	0.9610673
32	0x3f7e0780	0.99230194
33	0x3f7cd45b	0.9876153
34	0x3f824c77	1.0179585
35	0x3f7cf477	0.98810524
36	0x3f79cdcd	0.9757965
37	0x3f786afe	0.9703826
38	0x3f81bf74	1.0136552
39	0x3f7de343	0.991749
40	0x3f7d4a71	0.98941714
41	0x3f7966a2	0.9742223
42	0x3f7f67c6	0.9976772
43	0x3f7dcca8	0.99140406
44	0x3f7dd57f	0.99153894
45	0x3f821365	1.0162169
46	0x3f7bbef9	0.98338276
47	0x3f80e363	1.0069393
48	0x3f7f4808	0.99719286
49	0x3f7c2b20	0.98503304
50	0x3f844f09	1.033662
51	0x3f7ff1f6	0.9997858
52	0x3f85d3ae	1.0455225
53	0x3f783a45	0.9696391
54	0x3f83da1f	1.030094
55	0x3f810519	1.0079681
56	0x3f7bff07	0.98436016
57	0x3f8178a5	1.0114943
58	0x3f79adee	0.9753102
59	0x3f782e68	0.9694581
60	0x3f7f67fc	0.9976804
61	0x3f7a7617	0.9783644
62	0x3f7e1eb4	0.992656
63	0x3f7e3978	0.9930644

bias f4 [64]
0	0x3bb119f9	0.0054047075
1	0x3bc7566c	0.0060833003
2	0xbb3b5fcd	-0.0028591037
3	0xba014b94	-0.00049322215
4	0xbb6e248e	-0.0036337706
5	0xbc3354a9	-0.0109454775
6	0x3b9a8116	0.0047150953
7	0x3b8cb7bd	0.0042943642
8	0x3be70408	0.007050041
9	0xbbe2b73c	-0.006918816
10	0xba8784fa	-0.0010339313
11	0xbc0286bc	-0.0079666935
12	0x3c64f107	0.013973481
13	0xbbaa7114	-0.0052014682
14	0x3c50b70e	0.012738956
15	0xbbd25739	-0.006419089
16	0xbbdbce4b	-0.0067079416
17	0x3bba83a9	0.0056919646
18	0xbb7c5218	-0.003850108
19	0xbb682407	-0.0035421865
20	0x3b051fa5	0.002031305
21	0xbb93a109	-0.004505281
22	0xbc09b2e4	-0.008404467
23	0xb5d9ef80	-1.6237464e-06
24	0x3c5a43b7	0.013321809
25	0x3ba3e928	0.0050021596
26	0xbbf1f8f1	-0.0073844125
27	0xbbf030cb	-0.0073300353
28	0xba57e311	-0.00082354347
29	0x3beac80a	0.00716496
30	0x3a7bcaa6	0.0009605087
31	0xbbe730ce	-0.0070553785
32	0x3a7d7637	0.00096687995
33	0xbb203284	-0.0024444172
34	0xbbf595d5	-0.007494668
35	0xbc34c8ea	-0.01103423
36	0xbbc7c286	-0.006096187
37	0xba26c934	-0.0006362379
38	0x3b9284ac	0.004471382
39	0xbb804478	-0.003914412
40	0x3c17e3da	0.009270633
41	0x3adfb85d	0.0017068494
42	0xbb526a71	-0.00321069
43	0xbbc7d94d	-0.0060989023
44	0xba597959	-0.0008295975
45	0xbbc1cfe4	-0.005914675
46	0xbb0eb1c5	-0.002177344
47	0xbb3f313c	-0.0029173633
48	0x3b837a7f	0.0040124054
49	0xbae730b7	-0.001763842
50	0xba869d13	-0.00102702
51	0xbb8258e4	-0.0039778817
52	0x3bb97a58	0.0056603365
53	0xb98394c7	-0.00025097115
54	0x3bae8527	0.0053259316
55	0x3aa85462	0.0012842531
56	0xbc268f14	-0.010165948
57	0x38a04fb5	7.644241e-05
58	0x3c226804	0.009912495
59	0xbc564ce3	-0.013079855
60	0xbbda2074	-0.0066567007
61	0x3a979132	0.0011563657
62	0x3b9066af	0.004406772
63	0x3bf8c49d	0.0075917975

weight f4 [128, 64, 4, 4]
0	0xbb9ebc62	-0.0048442343
1	0xbd236665	-0.039892573
2	0xbc03696f	-0.008020743
3	0x3aa714ce	0.0012747289
4	0xbc40d207	-0.011768824
5	0xbc8e7e8b	-0.017394325
6	0x3cc8898c	0.02447965
7	0x3cbf46e9	0.023349242
8	0x3c73aafd	0.01487231
9	0x3c92c128	0.01791437
10	0x3ba6654a	0.0050779926
11	0xb8db5210	-0.00010458019
12	0x3b905ad2	0.004405358
13	0x3cf74dd1	0.030188473
14	0x3c2aebea	0.010432223
15	0xbc6e113c	-0.014530476
16	0x3c123967	0.008924819
17	0xbb9cdba8	-0.0047869273
18	0xbb1781e6	-0.0023118197
19	0xbcc0d567	-0.023539258
20	0x3c629b8e	0.013831032
21	0xbcf85c4c	-0.030317448
22	0xbbf044f4	-0.0073324386
23	0x3bd93f61	0.00662987
24	0xbca14664	-0.019686885
25	0x3c80631a	0.015672255
26	0xbb33a2d0	-0.0027410276
27	0x3b9dccf8	0.004815694
28	0x3c4dce77	0.012561432
29	0xbb9f4fac	-0.0048617925
30	0xbc6476c4	-0.013944332
31	0xbcaface9	-0.021444755
32	0x3cd74f67	0.02628298
33	0xbd0b8c4f	-0.034069356
34	0xbb7b5b3c	-0.003835394
35	0xbc2e8596	-0.010651967
36	0xbcc4f570	-0.024042815
37	0x3d312aa7	0.043253567
38	0x3ca51a5b	0.020154169
39	0xbcc8532d	-0.024453724
40	0x3c8a044e	0.016847756
41	0xbc9c8ff5	-0.019111613
42	0x3c90808a	0.017639417
43	0xbd2ad0a2	-0.041702874
44	0xbc1e5df3	-0.009665954
45	0x3d2ab31d	0.041674722
46	0xbce8aa80	-0.028401613
47	0x3c904855	0.017612616
48	0x3cafdbd3	0.021467125
49	0xbb9673db	-0.0045914478
50	0xbcacf8a7	-0.02111466
51	0xbbf8432b	-0.0075763664
52	0xbc898312	-0.016786132
53	0xbb24c832	-0.002514374
54	0x3c84f7e2	0.016231481
55	0x3c3c3a33	0.011488485
56	0xbd216983	-0.039407264
57	0x3c2e169d	0.010625509
58	0x3cc585d1	0.02411166
59	0xbca1c4a6	-0.01974709
60	0xb99dbce4	-0.00030086108
61	0x3bee67c0	0.0072755516
62	0xbbc7330c	-0.0060790833
63	0x3c93c6c0	0.018039107
64	0xbc8623d0	-0.016374499
65	0x3bd80cbd	0.0065933154
66	0xbc99829f	-0.018739043
67	0x3ba38d77	0.004991229
68	0x3bdbb48b	0.006704872
69	0xbca79398	-0.02045612
70	0xbc2df7a4	-0.010618124
71	0xbd09d806	-0.03365328
72	0xbb9f78f2	-0.0048667127
73	0xbc47449f	-0.012162357
74	0x3cf08d88	0.029364362
75	0x3bac8e5b	0.0052659935
76	0xbbe33b17	-0.0069345343
77	0xbcdcc1d8	-0.0269479
78	0x3cdb7265	0.026787946
79	0xbcc3e78a	-0.023914117
80	0xbb67bd87	-0.003536077
81	0x3d079622	0.033102162
82	0xbad882a8	-0.0016518431
83	0xbd203149	-0.039109502
84	0xbcbb3646	-0.022853028
85	0x3d655a35	0.05599423
86	0x3c5c9128	0.013462342
87	0x3c41a132	0.011818217
88	0xbccc74a3	-0.02495796
89	0xbd3f8e5f	-0.046766635
90	0x3c169acb	0.009192179
91	0xbc4c9222	-0.012486013
92	0x3d03ba90	0.03216034
93	0x3c8fc6e3	0.017550891
94	0x3bb5c739	0.005547431
95	0x3c85da74	0.016339518
96	0xbd192b7c	-0.037394986
97	0xbd82c3d4	-0.063850075
98	0x3bbf7bb0	0.005843602
99	0x3bb4400b	0.0055007986
100	0xbbcad1c5	-0.0061895573
101	0xbc998bd2	-0.01874343
102	0x391a6b15	0.00014726476
103	0x3bf20675	0.0073860236
104	0xbce3e0f1	-0.027817221
105	0x3c1160df	0.0088731935
106	0x3c652390	0.01398553
107	0xbc232cfc	-0.009959456
108	0xbb20db55	-0.0024544795
109	0xbbd47ae6	-0.006484377
110	0xbc663185	-0.014049892
111	0x3ca8dd5a	0.020613361
112	0xbc91eed9	-0.017814087
113	0x3cfc9e1b	0.03083711
114	0x3b919c2e	0.004443667
115	0x3c6ca245	0.014442985
116	0x3bd8388d	0.0065985383
117	0xbc5f9874	-0.0136471875
118	0x3c7c5296	0.015400549
119	0x3c5623c8	0.013070054
120	0xbc9aeac7	-0.018910779
121	0x3ca3cdf4	0.019995667
122	0x3b3f0383	0.002914638
123	0xbc15e439	-0.009148651
124	0xbcce9b30	-0.025220484
125	0x3c12bb16	0.008955738
126	0xbc424d7a	-0.011859292
127	0xbbd9eb5a	-0.0066503705
128	0x3cc990c5	0.024605164
129	0xbbdd0b9c	-0.0067457687
130	0xbcc4d95a	-0.024029423
131	0x3c1038a2	0.008802565
132	0xbbd964f5	-0.0066343495
133	0xbbcd1aef	-0.0062593143
134	0xbcdc8b95	-0.026922027
135	0xb8057757	-3.1820815e-05
136	0xbc983220	-0.018578589
137	0xbc20bb0c	-0.00981022
138	0xbbfcd067	-0.007715273
139	0x3bce157d	0.0062891827
140	0x3bcad195	0.006189535
141	0x3caf0f2a	0.021369535
142	0x3ca5819d	0.020203406
143	0xbbf0f674	-0.0073535983
144	0x3cdafb74	0.02673123
145	0xbc11c423	-0.00889686
146	0xbca653e5	-0.020303676
147	0x3c86d2ed	0.016458
148	0xbc0c0419	-0.008545899
149	0x3bbf4e0b	0.005838161
150	0xbd075ff0	-0.033050478
151	0xbc69e8af	-0.0142766675
152	0x3cbdbc8d	0.023161197
153	0xbc875564	-0.01652021
154	0x3c0ad2ca	0.008473108
155	0xbb6a0e6f	-0.003571417
156	0x3cf41aee	0.029797997
157	0x3b7e1b64	0.003877365
158	0xbd0753f9	-0.033039067
159	0x3bd16be2	0.0063910345
160	0x3c5b138a	0.013371358
161	0x3d285e36	0.04110547
162	0xbb2843ac	-0.0025675101
163	0x3bbfe862	0.0058565596
164	0x3c39a8dd	0.011331764
165	0xbd0d9893	-0.034569334
166	0x3c9fc036	0.019500833
167	0x3ccac5c7	0.02475251
168	0x3beb65da	0.0071837725
169	0xba91cca3	-0.0011123609
170	0xbc2de5f2	-0.010613905
171	0x3c6b07d0	0.014345124
172	0xbc8dcab8	-0.017308578
173	0x3c36084f	0.011110379
174	0x3cdc9064	0.02692432
175	0x3c181e3e	0.009284554
176	0x3bda85f6	0.0066688014
177	0x3c4fa5ed	0.012673837
178	0xbce43476	-0.027857047
179	0xbc2c29b0	-0.010507986
180	0xbc0315d8	-0.008000813
181	0x3c109d5a	0.008826578
182	0x3c179a38	0.009253077
183	0xbc7091fb	-0.014683242
184	0x3b6f38aa	0.003650228
185	0x3b5483c1	0.0032427164
186	0x3bcb044b	0.00619558
187	0x3b4f7370	0.00316545
188	0x3d4f4474	0.05060239
189	0x3955618f	0.00020349606
190	0xbbb86b4f	-0.0056280266
191	0x3c17b816	0.009260198
192	0xbd2be46e	-0.041965894
193	0x3c0caa82	0.008585574
194	0xbc493744	-0.012281243
195	0xbc29f511	-0.01037337
196	0xbcc481f6	-0.023987751
197	0x3c16c6f9	0.009202712
198	0xbb82bb1a	-0.0039895894
199	0x3ca6a22a	0.020340998
200	0x3cd344f7	0.025789721
201	0xbd091854	-0.033470467
202	0x3ce48181	0.027893784
203	0xbc190528	-0.009339608
204	0xbc8dcc08	-0.017309204
205	0xbc26b689	-0.010175356
206	0x3d5670d3	0.05235369
207	0x3d1a442b	0.037662666
208	0x3c89dc0b	0.016828557
209	0xbc019729	-0.007909575
210	0x3c188898	0.00930991
211	0xbba048be	-0.004891484
212	0x3c7d4f22	0.015460761
213	0xbb6b356b	-0.0035889994
214	0xbc850adb	-0.016240528
215	0x3c911b9c	0.01771336
216	0x3c07a99b	0.008280183
217	0x3afc9105	0.0019269293
218	0x3c2bd44a	0.010487625
219	0x3c420b98	0.0118435845
220	0xbbfa3590	-0.0076357797
221	0x3bf15f8a	0.0073661255
222	0x3c5cf570	0.013486251
223	0x3cc6b231	0.02425489
224	0x3c0ebd68	0.00871215
225	0xbcd2125b	-0.025643518
226	0x3b1baf98	0.0023755785
227	0xbca8d208	-0.020607963
228	0xbb3200c3	-0.0027161099
229	0x3cf6b35d	0.030114824
230	0x3c6ddbdc	0.014517751
231	0xbb8f26ee	-0.0043686545
232	0xbd11b0f2	-0.03556914
233	0x3b90ab57	0.0044149566
234	0xbc1f7298	-0.009731911
235	0xbd1f33da	-0.03886781
236	0xbcff208b	-0.031143447
237	0xbcc67589	-0.024225967
238	0xbcf84e69	-0.030310826
239	0x3c21c74c	0.009874176
240	0xbc72f6d0	-0.0148293525
241	0x3be65d18	0.0070301406
242	0xbd1be38c	-0.038058802
243	0xb9ae071f	-0.00033193172
244	0xbd53fb22	-0.05175317
245	0xbc15f7d3	-0.009153324
246	0x3bc9031f	0.0061344053
247	0xba487fc5	-0.00076484337
248	0xbcf2dda1	-0.029646697
249	0xbca25907	-0.019817842
250	0xbccc813f	-0.024963973
251	0xbc4b0e6e	-0.012393577
252	0x3c160c41	0.009158195
253	0x3c1010b7	0.008793048
254	0x3cd92d87	0.026510967
255	0x3c2b0a73	0.010439503

running_mean f4 [128]
0	0xbeaf25e2	-0.3420859
1	0xbef6bd7f	-0.4819145
2	0xbd954fc9	-0.072906084
3	0xbca040d5	-0.019562164
4	0xbc6f990a	-0.01462389
5	0x3f0810a5	0.531504
6	0xbf2470fa	-0.6423489
7	0xbd3ce5c5	-0.046117563
8	0xbea146f5	-0.31499448
9	0x3e3dbdb7	0.18529402
10	0xbebc3c25	-0.36764637
11	0x3e67ae7c	0.22625154
12	0x378cc5d4	1.6781421e-05
13	0xbe8ae5e8	-0.2712853
14	0xbc8ed350	-0.017434746
15	0x3db9b7dd	0.09068272
16	0xbf0b1c04	-0.54339623
17	0xbd45689e	-0.048195474
18	0x3e73d47f	0.2381153
19	0xbedee05f	-0.43530557
20	0xbe2ba5af	-0.16762422
21	0xbdf72c4f	-0.12068998
22	0xbe86dac8	-0.26338792
23	0x3f043536	0.51643693
24	0x3c031fbf	0.008003174
25	0xbd8fc33e	-0.07019661
26	0xbebd1d68	-0.36936498
27	0x3d27f8e7	0.041008856
28	0xbe2fedb6	-0.17180523
29	0x3ee75404	0.45181286
30	0xbf1fc79b	-0.6241395
31	0x3d90e8f7	0.070756845
32	0x3db5d6bf	0.0887885
33	0xbca698ff	-0.020336626
34	0x3ed9c24b	0.42531046
35	0x3e4e909f	0.20172356
36	0xbe4ae5f0	-0.19814277
37	0x3e4c53b8	0.19953811
38	0xbdc3ca63	-0.095600866
39	0xbf6e413f	-0.9306831
40	0x3c7d4056	0.015457233
41	0xbe274188	-0.16333592
42	0xbeb0b321	-0.34511665
43	0xbec08439	-0.37600878
44	0xbe14173b	-0.14461987
45	0xbb2016aa	-0.0024427571
46	0x3c1a74ae	0.009427233
47	0xbeb2887c	-0.34869754
48	0x3f101d43	0.5629465
49	0xbf3011d3	-0.687772
50	0x3e20f4d0	0.15718389
51	0xbe490364	-0.196302
52	0xbdbe62ce	-0.09296189
53	0xbd916932	-0.071001425
54	0x3e770988	0.2412473
55	0xbf1c96a7	-0.6116738
56	0xbe400b62	-0.18754342
57	0x3e00b983	0.12570767
58	0xbeae3f24	-0.34032547
59	0x3f0a156c	0.5393894
60	0x3e25b764	0.16183239
61	0x3ce7c7bb	0.028293481
62	0x3e1e3c37	0.15452658
63	0xbe2c994a	-0.1685535
64	0x3f25fec2	0.64841855
65	0x3e90d151	0.28284696
66	0x3ec77937	0.38959667
67	0xbdd5e4ea	-0.104440525
68	0x3d41171f	0.04714119
69	0xbe9c41e2	-0.30519015
70	0x3e9ac63d	0.3022937
71	0xbed6183b	-0.4181536
72	0x3d6efdec	0.058347628
73	0xbe2194cc	-0.15779418
74	0x3f1115d9	0.5667396
75	0x3eefec1b	0.46859822
76	0x3eab4ce5	0.33457103
77	0x3d1dc222	0.038515218
78	0xbe2a8dc8	-0.16655648
79	0xbe7cbf17	-0.2468227
80	0xbd05b7e5	-0.03264608
81	0x3e64d1cc	0.22345656
82	0x3f60fe63	0.87888163
83	0x3e31203a	0.1729745
84	0x3ea8f0bf	0.32996175
85	0x3eb485a1	0.352582
86	0x3d0ad93c	0.033898577
87	0x3eae3123	0.34021863
88	0x3b93eabd	0.004514067
89	0x3c16c996	0.009203335
90	0x3ec9dd50	0.3942666
91	0xbe46766f	-0.19381116
92	0xbe46d280	-0.19416237
93	0xbe96269d	-0.29326335
94	0xbd448582	-0.047978885
95	0xbe5b270f	-0.21401618
96	0xbca5d8aa	-0.020244915
97	0xbeacbe1f	-0.337388
98	0x3df22890	0.11824143
99	0x3dc116e8	0.09428197
100	0xbde237a8	-0.11045772
101	0x3d9a64ff	0.07538795
102	0xbf16f27e	-0.58963764
103	0xbce9f930	-0.028561205
104	0x3db6a519	0.08918209
105	0x3e70d097	0.2351707
106	0xbdf2139f	-0.11820149
107	0xbca2fa0c	-0.019894622
108	0xbeb1f6da	-0.34758645
109	0xbea086be	-0.313528
110	0xbe5204ea	-0.20509687
111	0xbe99b948	-0.3002417
112	0x3d092ada	0.033488132
113	0xbe2d78c6	-0.16940603
114	0xbf1f41d2	-0.6220981
115	0xbe972cc1	-0.29526332
116	0xbeafaf73	-0.34313545
117	0xbe559853	-0.20858888
118	0xbd4ff9bf	-0.050775286
119	0x3f45b045	0.7722209
120	0xbd8d71e2	-0.06906487
121	0x3ee58ffd	0.44836417
122	0xbd4a8251	-0.049440686
123	0x3ed67fec	0.41894472
124	0xbea156d1	-0.31511548
125	0xbe77acaf	-0.24186967
126	0x3f38473e	0.71983707
127	0xbf513d61	-0.8173428

running_var f4 [128]
0	0x3dd97598	0.10618132
1	0x3e4a5f44	0.19762903
2	0x3d30d120	0.043168187
3	0x3e0cbb58	0.13743341
4	0x3dd52413	0.10407271
5	0x3da568ec	0.08076653
6	0x3e0b91d8	0.13629854
7	0x3d644d10	0.055737555
8	0x3d8e32c7	0.06943279
9	0x3ce8b5ad	0.028406942
10	0x3eb5466d	0.35405293
11	0x3dfb1b43	0.12261059
12	0x3d598032	0.053100772
13	0x3dbcd333	0.092199706
14	0x3de12de6	0.109950826
15	0x3d9d08ba	0.0766768
16	0x3e6127f4	0.21987897
17	0x3d97425b	0.07385703
18	0x3d75bf23	0.059996735
19	0x3e5f2975	0.21793158
20	0x3daa07ad	0.08302245
21	0x3ddceea8	0.107877076
22	0x3dffc935	0.12489549
23	0x3e1f12c0	0.15534496
24	0x3ce29884	0.027660616
25	0x3d931938	0.071825445
26	0x3d104331	0.03522033
27	0x3ce0835c	0.027406387
28	0x3dc0b001	0.0940857
29	0x3db56184	0.0885649
30	0x3e4bed72	0.19914797
31	0x3d5504a8	0.052006394
32	0x3e0215bb	0.12703602
33	0x3d878a8b	0.06618222
34	0x3d1fd69d	0.03902303
35	0x3eb27f5e	0.34862798
36	0x3d1844ea	0.037175097
37	0x3dcbc350	0.09949362
38	0x3d32e0fa	0.043671586
39	0x3e702f90	0.23455644
40	0x3d4e0d5e	0.050305717
41	0x3d1f8ec0	0.038954496
42	0x3d8e8783	0.069594406
43	0x3d823fde	0.06359838
44	0x3d1ff39b	0.03905068
45	0x3e49c0f2	0.19702509
46	0x3e0c999c	0.13730472
47	0x3e0e22e5	0.13880499
48	0x3e4decbd	0.2010984
49	0x3e8a2120	0.26978397
50	0x3df5c547	0.12000518
51	0x3d51f9ea	0.051263727
52	0x3ded0f32	0.11575164
53	0x3e161535	0.14656527
54	0x3e346cc2	0.17619613
55	0x3e55c80a	0.2087709
56	0x3cd98a6f	0.026555268
57	0x3d129130	0.035782993
58	0x3d8e9de3	0.06963708
59	0x3e97878f	0.2959561
60	0x3e40930f	0.18806098
61	0x3d5a5797	0.05330619
62	0x3d85d41e	0.06534599
63	0x3cd426c5	0.025897393
64	0x3e33b0d5	0.17547925
65	0x3d4684c0	0.048466444
66	0x3e1ffa0e	0.15622732
67	0x3dc18f59	0.094511695
68	0x3dbecfda	0.09316988
69	0x3e12ba79	0.14328946
70	0x3e263612	0.16231564
71	0x3dfa20d6	0.12213294
72	0x3d33e62b	0.043920677
73	0x3d35b6f0	0.044363916
74	0x3dc066f0	0.09394634
75	0x3e7ebc60	0.24876547
76	0x3e6b9129	0.23004593
77	0x3d38e9c8	0.045144826
78	0x3cab82aa	0.020936329
79	0x3de4effd	0.11178587
80	0x3daa5873	0.083176516
81	0x3d41c797	0.047309484
82	0x3e632c44	0.22184855
83	0x3e495983	0.19663052
84	0x3de3445d	0.11097024
85	0x3dd81cbf	0.10552358
86	0x3e287b46	0.16453275
87	0x3dc92c42	0.09822895
88	0x3d8ef7f7	0.06980889
89	0x3dde9796	0.108687565
90	0x3d9aa00f	0.0755006
91	0x3e048819	0.12942542
92	0x3da0b327	0.078466706
93	0x3df108fb	0.11769291
94	0x3d4b9b6b	0.049708765
95	0x3e1d8057	0.15380989
96	0x3de2de33	0.110775374
97	0x3e564e83	0.20928387
98	0x3d17bb6b	0.03704397
99	0x3d3402e0	0.043948054
100	0x3da9903d	0.082794644
101	0x3d144af3	0.03620429
102	0x3cf7e69d	0.030261332
103	0x3d64fe35	0.055906493
104	0x3e1a9caf	0.15098833
105	0x3d4069a4	0.046975747
106	0x3e2e14eb	0.17000167
107	0x3d1c6589	0.03818277
108	0x3ddedd5a	0.10882063
109	0x3df4d276	0.11954205
110	0x3d8cd81a	0.068771556
111	0x3db605ac	0.088878006
112	0x3e1137d2	0.1418145
113	0x3e50f48b	0.20405786
114	0x3d9b3ca3	0.07579925
115	0x3dd7715d	0.10519669
116	0x3d193d35	0.037411887
117	0x3dfda8e6	0.123857304
118	0x3d9a9c2a	0.07549317
119	0x3e0bad89	0.13640417
120	0x3d92d567	0.071696095
121	0x3e52658c	0.2054655
122	0x3e02b50a	0.12764373
123	0x3d8981c0	0.06714201
124	0x3d1f3885	0.03887226
125	0x3d969cc0	0.073541164
126	0x3e208c7e	0.15678594
127	0x3e95053e	0.29105562

weight f4 [128]
0	0x3f7769f5	0.9664605
1	0x3f79b14a	0.97536147
2	0x3f86a97e	1.0520475
3	0x3f7d04d7	0.9883551
4	0x3f81b61a	1.0133698
5	0x3f82b7e1	1.0212365
6	0x3f7f37d4	0.9969456
7	0x3f83c9ff	1.0296019
8	0x3f809f9b	1.0048708
9	0x3f83de18	1.0302153
10	0x3f7c617f	0.9858627
11	0x3f85e114	1.0459313
12	0x3f7d04bc	0.9883535
13	0x3f81489f	1.0100287
14	0x3f828af1	1.0198652
15	0x3f82a3c3	1.0206226
16	0x3f7b0371	0.98052126
17	0x3f808657	1.0040997
18	0x3f82ba8e	1.0213182
19	0x3f79fbe8	0.97650003
20	0x3f848b28	1.0354967
21	0x3f80e4f7	1.0069875
22	0x3f71d895	0.944711
23	0x3f829453	1.0201515
24	0x3f77330a	0.96562254
25	0x3f7ffad0	0.99992085
26	0x3f820772	1.0158522
27	0x3f7e0184	0.9922106
28	0x3f82c9f9	1.0217887
29	0x3f81f97d	1.0154263
30	0x3f829a8b	1.0203413
31	0x3f810722	1.0080302
32	0x3f80e28c	1.0069137
33	0x3f81f6f7	1.0153493
34	0x3f80268e	1.0011766
35	0x3f820019	1.015628
36	0x3f805c0c	1.002809
37	0x3f85b287	1.0445107
38	0x3f80eeae	1.0072839
39	0x3f80f9b4	1.0076203
40	0x3f8008a9	1.0002643
41	0x3f815f28	1.0107164
42	0x3f80574c	1.0026641
43	0x3f7d5c2d	0.98968774
44	0x3f85dc46	1.0457847
45	0x3f794ed7	0.97385925
46	0x3f7f5d6b	0.9975192
47	0x3f7ea065	0.9946349
48	0x3f78728a	0.9704977
49	0x3f79af7d	0.975334
50	0x3f83bdc5	1.0292288
51	0x3f817810	1.0114765
52	0x3f83cff1	1.0297834
53	0x3f7fed9f	0.99971956
54	0x3f835cab	1.0262655
55	0x3f82a040	1.0205154
56	0x3f7d297d	0.9889143
57	0x3f8666d7	1.0500134
58	0x3f7e4ad6	0.9933294
59	0x3f8083db	1.0040239
60	0x3f824a08	1.0178843
61	0x3f80ffe4	1.0078092
62	0x3f8124e4	1.0089383
63	0x3f81f530	1.015295
64	0x3f8367a3	1.0266002
65	0x3f8097f6	1.0046375
66	0x3f816a2f	1.011053
67	0x3f7a0b2e	0.9767331
68	0x3f71d311	0.94462687
69	0x3f845ac4	1.03402
70	0x3f7acb2e	0.9796628
71	0x3f82d1ce	1.0220277
72	0x3f8331b6	1.0249546
73	0x3f82de1d	1.0224034
74	0x3f820b1b	1.0159639
75	0x3f7ec289	0.9951559
76	0x3f81d337	1.0142583
77	0x3f80d79a	1.0065796
78	0x3f803396	1.0015743
79	0x3f82ca0a	1.0217907
80	0x3f81a810	1.0129414
81	0x3f80b382	1.0054781
82	0x3f81f23c	1.0152049
83	0x3f7e2218	0.9927077
84	0x3f7ffba8	0.9999337
85	0x3f7d0563	0.98836344
86	0x3f827673	1.0192398
87	0x3f81a1b1	1.0127469
88	0x3f7e6ada	0.9938179
89	0x3f837902	1.0271304
90	0x3f814d3f	1.0101699
91	0x3f8382d2	1.0274298
92	0x3f85fc80	1.0467682
93	0x3f7f6ecd	0.99778444
94	0x3f7e79bd	0.9940451
95	0x3f8354fc	1.026031
96	0x3f832b74	1.0247636
97	0x3f7fd03f	0.99927133
98	0x3f85dfdb	1.045894
99	0x3f7d03b8	0.988338
100	0x3f836322	1.0264628
101	0x3f7c8283	0.98636645
102	0x3f819ed8	1.01266
103	0x3f7ef1dc	0.995878
104	0x3f8085b1	1.0040799
105	0x3f85202b	1.0400442
106	0x3f832150	1.0244541
107	0x3f8224ba	1.0167458
108	0x3f7ad360	0.9797878
109	0x3f8129d3	1.0090889
110	0x3f773ee5	0.96580344
111	0x3f870aa9	1.0550128
112	0x3f840de0	1.0316734
113	0x3f7d60ac	0.98975635
114	0x3f7d4a57	0.9894156
115	0x3f83d740	1.0300064
116	0x3f80c9f3	1.006163
117	0x3f818da9	1.0121356
118	0x3f83ce33	1.0297302
119	0x3f7f8156	0.99806726
120	0x3f82af8a	1.020982
121	0x3f840f39	1.0317146
122	0x3f7bbc31	0.9833403
123	0x3f82cc4d	1.0218598
124	0x3f808ec4	1.0043569
125	0x3f8454a2	1.0338328
126	0x3f83dbfe	1.0301511
127	0x3f8592ea	1.043546

bias f4 [128]
0	0xbaf6e688	-0.0018837014
1	0x3bf60d3d	0.0075089023
2	0x3c0e1b72	0.008673536
3	0x3a8169d3	0.0009873457
4	0xba59c2ee	-0.000830694
5	0x3c3f5cfc	0.011679884
6	0x3accabf5	0.0015615212
7	0x3bf89800	0.007586479
8	0x3b39a158	0.0028324928
9	0x3c8d666a	0.017260749
10	0xbb3d01e7	-0.0028840245
11	0xbabdf21d	-0.0014491711
12	0x3c129fa6	0.008949196
13	0x3c513708	0.012769468
14	0xba536b9b	-0.00080650457
15	0x3c29a256	0.010353645
16	0x3b325210	0.0027209558
17	0x3becc1d1	0.007225253
18	0x3bde0aaf	0.006776176
19	0x3bff05f9	0.0077826944
20	0x3c02cfb6	0.007984092
21	0xba3753b2	-0.00069933676
22	0x3ba397c8	0.004992459
23	0x3b6e2516	0.0036338023
24	0x3b932e05	0.00449157
25	0x3c5de3c6	0.013543075
26	0x3b81a37f	0.003956258
27	0x3c7a3044	0.0152702965
28	0x3c4b7024	0.012416873
29	0x39219244	0.00015408645
30	0x3ba72e90	0.005101986
31	0x3bffa9e7	0.0078022364
32	0x3b08a690	0.0020851232
33	0xbb319e38	-0.0027102362
34	0xbb217a91	-0.0024639706
35	0x3c369bb6	0.011145523
36	0xbc2f171e	-0.010686664
37	0xbad5fa38	-0.0016325181
38	0xbb539376	-0.0032283938
39	0x3b9f2450	0.0048566237
40	0x3c0c109a	0.00854888
41	0xbbeb076a	-0.0071725147
42	0xbb2b6777	-0.00261542
43	0x3a45f631	0.0007551639
44	0xbb6aa861	-0.0035805928
45	0x3ae4e555	0.0017463366
46	0x3bb7839b	0.0056004054
47	0xbb63cbab	-0.0034758847
48	0xb911c3dc	-0.00013901241
49	0xbbbc45dd	-0.005745633
50	0x3bd05f0b	0.0063589863
51	0x3be328fd	0.0069323764
52	0x3bce480c	0.0062952098
53	0x3b623890	0.0034518577
54	0x3c4fa8bf	0.01267451
55	0xbb42fa67	-0.0029751302
56	0xbb5e5aeb	-0.0033928703
57	0x3c1e964e	0.00967939
58	0xbb800055	-0.0039062896
59	0xbbae48d4	-0.0053187404
60	0x3c57ee39	0.013179355
61	0x3c1ab1f0	0.009441838
62	0xbc07c15a	-0.008285845
63	0xb9b9a993	-0.00035412292
64	0x3b92057a	0.0044562193
65	0xb95a440e	-0.00020815452
66	0x3b858c53	0.004075566
67	0xbb3c2b93	-0.0028712496
68	0x3afb1afd	0.0019157823
69	0xb9eeb473	-0.00045529343
70	0xbbd86a43	-0.0066044643
71	0x3c05c452	0.008164482
72	0x3b997fb3	0.0046844124
73	0x3bb11e0c	0.005405193
74	0x3b480866	0.0030522584
75	0x3a07093b	0.0005151217
76	0xb9851108	-0.00025380426
77	0xbaa7ab24	-0.0012792093
78	0x3ac4b677	0.0015007992
79	0x3ab4374e	0.0013749392
80	0xbb206ba8	-0.002447823
81	0xbb244293	-0.0025064095
82	0xbbc37882	-0.0059652934
83	0x3bece3c4	0.0072293
84	0x3b6ef1ae	0.003645997
85	0x3c129b5a	0.0089481715
86	0x3c293c10	0.010329261
87	0x3bb3a333	0.0054821013
88	0x3c19ad39	0.009379678
89	0x3c0b033f	0.008484661
90	0xbba2e287	-0.004970852
91	0x3c4b9c38	0.012427382
92	0x3c7fc382	0.015610578
93	0xbb9f32dd	-0.0048583583
94	0xba6d4e57	-0.0009052506
95	0x3b412b8c	0.002947542
96	0x3c008832	0.0078449715
97	0x3a8a2861	0.0010540598
98	0x3bc1abcf	0.0059103738
99	0xbb8c29b1	-0.004277431
100	0x3bd7a384	0.006580772
101	0xbb5730bb	-0.0032835442
102	0x3b88feef	0.004180781
103	0x3b0c4e23	0.0021408878
104	0x3b9e175a	0.004824561
105	0x3c19b0b3	0.009380507
106	0x3c0bb7da	0.00852772
107	0xbafaf28a	-0.0019145769
108	0xbb033ea8	-0.002002636
109	0x3c7d7823	0.015470537
110	0xb9709c26	-0.00022946353
111	0x3bebe1d6	0.0071985526
112	0x3bde5482	0.0067849765
113	0x3bb8f55e	0.0056444844
114	0xbb6ac1f6	-0.0035821176
115	0x3b376144	0.0027981559
116	0x38978493	7.224935e-05
117	0xbbb97d61	-0.0056606983
118	0xbb138e2b	-0.0022515159
119	0xbacf7808	-0.0015828619
120	0x3c4a3fe1	0.0123443315
121	0x3b37f3f3	0.002806899
122	0xbbd7871c	-0.0065773856
123	0x3c202bb6	0.0097760465
124	0x3c6bf93f	0.014402687
125	0x3b6fbcf0	0.0036581121
126	0xbbab0906	-0.0052195815
127	0xba6e3a98	-0.00090877106

weight f4 [1, 128, 4, 4]
0	0xbcc4f93a	-0.024044622
1	0x3cb166d1	0.021655472
2	0xbc70bade	-0.01469299
3	0xbc780960	-0.015138954
4	0xbbc0d66b	-0.0058849356
5	0x3d1808e3	0.03711785
6	0x3c150e25	0.009097611
7	0x3d8fcfc4	0.0702205
8	0xbc26d080	-0.010181546
9	0xbb0b49f2	-0.0021253792
10	0xbb5d6eca	-0.003378796
11	0xbbedba34	-0.007254863
12	0x3ca17abd	0.019711846
13	0xbca8d5e9	-0.020609813
14	0xbd3bf8dc	-0.045891628
15	0xbb2610c9	-0.0025339595
16	0xbc064292	-0.008194583
17	0x3c03061a	0.00799706
18	0x3c45d9ad	0.012075824
19	0xbcb30f68	-0.021857932
20	0x3d0b5f3c	0.03402637
21	0x3d088dff	0.033338543
22	0x3cea3f4d	0.028594637
23	0x3ad5a389	0.0016299348
24	0x3d027e8c	0.031858966
25	0x3c863b96	0.016385835
26	0x3c99802f	0.01873788
27	0xbc287ea4	-0.0102841
28	0x3d1ae846	0.03781917
29	0xbd07efa7	-0.033187535
30	0xbc5549cb	-0.013018082
31	0xbcb38fef	-0.021919219
32	0xbc4670c2	-0.0121118445
33	0xbcd088e0	-0.025455892
34	0xbc5b38ba	-0.013380224
35	0xbca4108b	-0.02002742
36	0xbd091046	-0.033462785
37	0xbac3b712	-0.0014931879
38	0xbc6aa825	-0.014322315
39	0xbac17b20	-0.0014761426
40	0xbc1307c7	-0.008974022
41	0x3c26c881	0.01017964
42	0x3beebf38	0.0072859786
43	0xbb8c576a	-0.0042828815
44	0xbc907e07	-0.01763822
45	0x3c31d753	0.01085456
46	0x3b105cb2	0.0022027907
47	0xbd20ea1d	-0.039285768
48	0x3ce305ea	0.027712781
49	0xbcd69f1b	-0.026198914
50	0xbca6ce25	-0.02036197
51	0xbcae1bd9	-0.021253513
52	0x3c6fd0b8	0.014637165
53	0xbb7d8be6	-0.0038688122
54	0x3cd6d727	0.02622564
55	0xbc786f63	-0.015163275
56	0x3c077861	0.008268447
57	0x3a2d79ea	0.0006617593
58	0xba7d9185	-0.0009672868
59	0x3bf460bc	0.0074578207
60	0xbc1f8b75	-0.009737839
61	0xbcae0147	-0.021240843
62	0x3cbc48f4	0.022984006
63	0xbc43f379	-0.011959904
64	0x3cf06030	0.02934274
65	0xbb9e8edd	-0.004838808
66	0x3bd0c3f6	0.0063710166
67	0xbbe8ed6b	-0.0071083806
68	0xbd276d87	-0.040875938
69	0x3c2ef81e	0.010679273
70	0xbb1c0283	-0.0023805208
71	0x3d59f2b5	0.05320998
72	0x3999d04b	0.00029337624
73	0x3bd8865d	0.006607814
74	0x3cb83142	0.022484425
75	0x3d00474d	0.031317998
76	0xbb84fd20	-0.004058495
77	0xbc3ed97f	-0.011648535
78	0x3c236cc6	0.009974664
79	0x3b460f31	0.0030221457
80	0x3d26179f	0.04054987
81	0xbcc5f74b	-0.02416577
82	0xbc6edd5b	-0.014579142
83	0xbc911d46	-0.017714154
84	0x3cd4a15a	0.025955845
85	0xbc819436	-0.015817743
86	0x3ca5d324	0.020242281
87	0xbd4a659d	-0.049413312
88	0x3c2c31ce	0.010509921
89	0xbc8b6580	-0.017016172
90	0xbce3a1d7	-0.027787132
91	0x3c46d38e	0.0121353995
92	0xbc241784	-0.010015372
93	0x3ce99331	0.02851257
94	0x3c1dcc3d	0.009631214
95	0x3ba36358	0.004986208
96	0x3955e485	0.00020398393
97	0x3cf4422a	0.029816706
98	0xbd1f8aae	-0.038950615
99	0x3d9a7743	0.075422786
100	0x3c2a8d3e	0.010409651
101	0xbc791726	-0.015203273
102	0x3a209423	0.000612559
103	0x3abfe50c	0.0014640405
104	0xbd06cbda	-0.03290925
105	0x3c2dc415	0.010605832
106	0x379d56b6	1.8756236e-05
107	0xbc8e7e10	-0.017394096
108	0x3c8681d5	0.01641933
109	0xbce9a4e8	-0.028521016
110	0xbcd5a2cf	-0.02607861
111	0x3bdfd462	0.006830738
112	0xbd6185cc	-0.05505924
113	0x39f7caad	0.00047262516
114	0x3c028e79	0.007968538
115	0xbc8cb51c	-0.017176203
116	0xbba0b200	-0.0049040318
117	0x3b90c194	0.0044176076
118	0x3cffa39e	0.031205948
119	0xbc6ddfa9	-0.014518657
120	0xbcbb1902	-0.022839073
121	0xbc0b0581	-0.008485199
122	0x3c5ca2b4	0.013466526
123	0x3c0d7e8a	0.008636126
124	0x3c3d9c09	0.011572846
125	0xbd018d16	-0.03162869
126	0xbc7525bf	-0.014962613
127	0x3c85ab30	0.01631698
128	0xb9173f66	-0.000144241
129	0x3d226ce8	0.039654642
130	0xb94fa07d	-0.00019800845
131	0x3cf32838	0.029682264
132	0xbc8f5bb0	-0.017499775
133	0x3baa847a	0.0052037807
134	0x3cf8fb0a	0.030393142
135	0xb9a6ff7e	-0.00031852344
136	0x3b2f6fdf	0.0026769561
137	0x3c04087c	0.008058663
138	0x3c08ceb9	0.008350068
139	0xbd0450d0	-0.03230363
140	0xbd20f1a1	-0.039292935
141	0x3c0de37a	0.008660192
142	0x3c50e207	0.012749202
143	0xbc18fe2e	-0.009337945
144	0xbb30083d	-0.002686038
145	0xbc4e1789	-0.012578853
146	0xbb46a194	-0.003030871
147	0xbb722f76	-0.0036954558
148	0x3d0c44e2	0.03424538
149	0x3a12be0b	0.00055977766
150	0x3be531dd	0.0069944696
151	0x3b89b845	0.004202875
152	0x3c6a80da	0.014312947
153	0x3cdea555	0.027178446
154	0xbc4d17e9	-0.012517908
155	0xbc5d523b	-0.013508375
156	0xbc8ac8eb	-0.016941508
157	0xbc978183	-0.018494373
158	0xbc2667c8	-0.010156579
159	0xbd0f67fc	-0.035011277
160	0xbcd1a427	-0.02559097
161	0x3cc3aec7	0.023887051
162	0x3d082cd4	0.033245876
163	0xbbe81b65	-0.007083344
164	0xbc4d88b1	-0.012544797
165	0x3a9c13a3	0.0011907708
166	0xbbc1e926	-0.005917686
167	0xba0e9986	-0.0005439747
168	0x3bc49284	0.0059989113
169	0xbbe28f86	-0.006914082
170	0xbc88a58b	-0.0166805
171	0xbd075676	-0.03304144
172	0xbd09cf83	-0.033645164
173	0xbc289af2	-0.010290848
174	0x3c184220	0.009293109
175	0xbd018b10	-0.03162676
176	0x3cc0a054	0.02351395
177	0xbc9cd30d	-0.019143606
178	0x3b28c64e	0.0025752964
179	0xbc46d74f	-0.0121362945
180	0x3cbef931	0.023312183
181	0xbc5567b0	-0.013025209
182	0xbc7d3d43	-0.0154565
183	0x3bd6f451	0.0065598865
184	0x3cc621ed	0.024186099
185	0x3b547d5c	0.0032423353
186	0x3cc29188	0.023751035
187	0xba724d05	-0.0009243044
188	0x3d17dc9b	0.03707562
189	0xb888a303	-6.515349e-05
190	0xbbbcb799	-0.0057591912
191	0xbc16b3e5	-0.009198164
192	0x3cac214a	0.021011967
193	0x3bb32a78	0.005467709
194	0x3cb5c993	0.022190845
195	0x3c6a2949	0.01429207
196	0xbce4b98f	-0.027920512
197	0xbbbbea42	-0.005734713
198	0xbd7393a6	-0.05946698
199	0xbc3b946d	-0.011448962
200	0xbcbe3670	-0.023219317
201	0xbc7b05e7	-0.015321231
202	0xbca0e7b5	-0.019641737
203	0x3a2ad307	0.0006516431
204	0xbd0050af	-0.031326946
205	0x3c7aeb41	0.015314878
206	0xbabf1336	-0.0014577869
207	0xbce0a72d	-0.027423466
208	0xbcdbf3f5	-0.026849726
209	0xbcdb373a	-0.026759733
210	0x3c49dbaf	0.012320443
211	0x3cd103ef	0.025514571
212	0xbd047224	-0.032335415
213	0xbb7e8684	-0.0038837502
214	0xbb9f7f2e	-0.004867456
215	0x3d1b33c5	0.03789117
216	0x3bb0d887	0.005396906
217	0xbc0f965e	-0.008763878
218	0xbc977833	-0.018489933
219	0x3d0093ed	0.031391073
220	0x3cac5def	0.021040885
221	0x3cd07baf	0.025449602
222	0x3c586852	0.013208466
223	0xbc39c837	-0.011339239
224	0xbbe3406e	-0.006935171
225	0xbd29839c	-0.041385278
226	0xbc9ff978	-0.019528136
227	0xbca054ef	-0.01957175
228	0xbd0c0217	-0.03418168
229	0x3c1444db	0.00904962
230	0xbc1f0fff	-0.009708404
231	0xbce51d6b	-0.02796813
232	0x3c986bfd	0.01860618
233	0x3ba841d1	0.005134799
234	0xbc618718	-0.013765119
235	0xba6ec654	-0.00091085327
236	0x3c39276a	0.011300901
237	0x3bf5c01b	0.0074997074
238	0xbce8fe4e	-0.028441574
239	0xbc89723c	-0.016778104
240	0xbcd715ef	-0.026255576
241	0x3ca39dab	0.019972643
242	0xbc518781	-0.012788654
243	0xbc85324b	-0.016259333
244	0xbce7c7f7	-0.028293593
245	0x3c92f6b3	0.017939901
246	0xbb850388	-0.004059259
247	0xbc0005db	-0.007813896
248	0xbd1ddfc8	-0.038543493
249	0x3c8496ac	0.016185127
250	0x39dba645	0.00041894816
251	0x3cb00101	0.021484854
252	0x389294bb	6.989526e-05
253	0x3aed7712	0.0018117151
254	0x3b972f3b	0.0046137846
255	0x3cfabafd	0.030606741
