cifar-10/netD.pt (torch_old, 698411 bytes, 12 tensors)

weight f4 [32, 3, 4, 4]
0	0xbcc6e265	-0.024277875
1	0xbb9440fb	-0.004524348
2	0xbcabc2b0	-0.020966858
3	0x3d27242f	0.04080599
4	0x3b9a1583	0.0047022714
5	0x3b1696b3	0.0022978007
6	0xbc82072d	-0.015872562
7	0xbc48d684	-0.012258176
8	0x3c1cb08b	0.0095635755
9	0x3c947b84	0.018125303
10	0x3bbfc191	0.0058519323
11	0xbc9850b2	-0.018593166
12	0x3ba7a531	0.005116128
13	0x3ca7dc98	0.02049093
14	0x3c99e5da	0.01878636
15	0x3c0f72b2	0.008755373
16	0xbbac74a7	-0.0052629295
17	0x3d0a6480	0.03378725
18	0x3cf37c53	0.029722368
19	0x3c41b6a6	0.011823332
20	0x3cb194c5	0.021677384
21	0xbd4e8021	-0.050415162
22	0xbca12bd4	-0.01967422
23	0x3b113d02	0.0022161608
24	0xba69831d	-0.0008907782
25	0xbaabd175	-0.0013108688
26	0xbcd6c429	-0.026216583
27	0x3c84a7cc	0.016193293
28	0xbcdaa62b	-0.026690563
29	0x3c56f80c	0.013120662
30	0x3cb5718c	0.02214887
31	0x3c6c5415	0.014424344
32	0xbb5160d9	-0.0031948595
33	0x3cf98cf0	0.030462712
34	0xba214e40	-0.0006153323
35	0xbd242af8	-0.04008004
36	0x3b7cc2dd	0.0038568296
37	0x3d4dc166	0.050233267
38	0xbb2876d3	-0.002570559
39	0x3c61f7b6	0.013791969
40	0xbcb6f5b3	-0.022333955
41	0xbcd868de	-0.026417192
42	0x3c96c034	0.018402196
43	0x3cc331ce	0.02382746
44	0x3ba76535	0.0051085004
45	0xbca89c8b	-0.020582458
46	0x3d0c9882	0.03432513
47	0xbc206952	-0.009790735
48	0xbc7e7d86	-0.015532857
49	0x3bec643e	0.0072140982
50	0xbc72ba74	-0.014814962
51	0x3bd895bc	0.0066096466
52	0xbc209b2b	-0.00980262
53	0x3ca76af1	0.020436736
54	0x3c164d1b	0.009173657
55	0x3c3fa4e3	0.011697027
56	0x3c2d5795	0.010579963
57	0xbb04d97f	-0.002027124
58	0xbc0c7c26	-0.008574521
59	0x3d499cf0	0.049221933
60	0xbb4e94af	-0.0031521728
61	0x3d0515bc	0.03249143
62	0x3cdc7d73	0.026915288
63	0x3d0b26fd	0.03397273
64	0x3b752651	0.0037406872
65	0x3c92a964	0.017903037
66	0xbc5121aa	-0.012764374
67	0x3cc2ad9f	0.02376443
68	0x3cb89953	0.022534048
69	0x3c86f042	0.016471986
70	0x3cbf20f6	0.023331147
71	0x3b8e0c61	0.004334972
72	0x3baa2f8d	0.005193657
73	0x3cc9036a	0.02453776
74	0xbc6d4f62	-0.014484258
75	0x3aea598f	0.0017879474
76	0x392e9046	0.00016647679
77	0xba83618a	-0.0010023576
78	0xbce2bd44	-0.02767814
79	0x3c86c6c3	0.016452199
80	0xbcfbd59c	-0.030741505
81	0xbcdccc30	-0.026952833
82	0x3bdee847	0.006802592
83	0x3cd23f64	0.025664993
84	0xbc5a5306	-0.013325458
85	0xbb43851e	-0.0029833983
86	0x3bb57e4c	0.0055387374
87	0x3ca134de	0.01967853
88	0xbc34ae8a	-0.0110279415
89	0xbc9132b2	-0.017724369
90	0xbcb95c54	-0.022627033
91	0xbbb186a7	-0.005417663
92	0x3c41bcc6	0.011824792
93	0xbc3aaa4a	-0.011393139
94	0x3c6cf50e	0.014462722
95	0x3b8d6642	0.0043151686
96	0xbbd6c71f	-0.006554499
97	0x3d3fd5fd	0.046834935
98	0x3b1403d4	0.002258529
99	0xbb343b18	-0.0027501043
100	0xbc5815b5	-0.013188769
101	0xbd616ffb	-0.055038434
102	0x3bb6de06	0.0055806665
103	0x3c22b059	0.00992974
104	0xbc30a0ce	-0.010780526
105	0xbb8998af	-0.0041991095
106	0x3c9da926	0.019245695
107	0x3cc7462b	0.02432545
108	0x3ce5e865	0.028064916
109	0x3b2371de	0.0024939696
110	0xbd07315b	-0.033006053
111	0x3bfc7a2a	0.007704993
112	0x3bfdf080	0.007749617
113	0x3b8c1ca3	0.0042758747
114	0xbd59a285	-0.053133506
115	0xbd4da070	-0.050201833
116	0x3d477622	0.048696645
117	0x3c69292b	0.014231007
118	0xbb96ed2f	-0.004605911
119	0x3cf32568	0.029680923
120	0x3c8c46bd	0.017123574
121	0xbb81db3e	-0.0039629033
122	0x3a0c8e8d	0.0005361818
123	0x3c26359d	0.010144618
124	0xbd0f76c5	-0.035025377
125	0x3c700a02	0.014650824
126	0xbc83fdc4	-0.016112216
127	0x3bc54c59	0.0060210642
128	0xbb530305	-0.0032197845
129	0x3c2b4758	0.010454021
130	0xbc958b8e	-0.018255021
131	0x3c3f9647	0.011693544
132	0xbd0c05b4	-0.034185126
133	0x3bc79e94	0.006091902
134	0xbd174d6f	-0.03693908
135	0x3ce3f49b	0.027826598
136	0x3c65a736	0.014016917
137	0x3d2b58b4	0.04183264
138	0xbcf4ea1e	-0.029896792
139	0xbd0f4490	-0.034977496
140	0xbc966bc0	-0.018361926
141	0x3d0c5af1	0.034266416
142	0xbb30a473	-0.0026953488
143	0x3b1f455d	0.0024302818
144	0x3ca0cbb6	0.019628387
145	0xbcc044e0	-0.023470342
146	0xbcc5d70e	-0.024150398
147	0x3c423df2	0.011855589
148	0xbc53d0b1	-0.012928174
149	0x3d38964c	0.04506521
150	0xbcb2ec8f	-0.021841316
151	0x3d3e5121	0.04646409
152	0xbcf0ef3c	-0.02941095
153	0xbc9024ff	-0.017595766
154	0x3c62afd9	0.013835871
155	0x3d3398af	0.043846782
156	0x3c733c40	0.014845908
157	0xbcac56aa	-0.021037418
158	0xbb38d625	-0.0028203812
159	0x3b4be3c5	0.0031111103
160	0xbd1cf35c	-0.038318023
161	0xbc0159ab	-0.007894914
162	0xbd00cd91	-0.031446043
163	0x3cf1cc2f	0.029516308
164	0xbcb69073	-0.022285676
165	0x3d883bff	0.06652068
166	0x3cd0e43b	0.025499454
167	0xbc90001a	-0.017578173
168	0x3d3105db	0.043218475
169	0x3ba0646d	0.004894784
170	0x3b0ed408	0.002179386
171	0x3abc10fb	0.0014348322
172	0xbc60918d	-0.013706577
173	0x3d15786d	0.0364918
174	0xbccefb14	-0.025266208
175	0x3c0236da	0.007947648
176	0xbb9e1217	-0.004823934
177	0x3ca3f4ff	0.020014284
178	0x3c0f6944	0.008753125
179	0xbcad4550	-0.021151215
180	0x3c2a20eb	0.010383825
181	0xbb0285de	-0.0019916217
182	0x3bb95275	0.0056555816
183	0x3c2d2b1f	0.010569363
184	0x3ca9dc8a	0.020735044
185	0xbb4cb80d	-0.0031237633
186	0x39d3c391	0.00040390764
187	0x3c245c85	0.010031824
188	0x3c611c53	0.013739663
189	0xbb8c0f2e	-0.0042742705
190	0xbca9e717	-0.020740075
191	0x3c4a4533	0.0123456
192	0x3c8050dd	0.015663559
193	0xbcd7ed7a	-0.026358355
194	0x3cbce3b2	0.023057792
195	0x3c07f5bb	0.008298333
196	0xbc92bf07	-0.017913355
197	0x3ba3c411	0.004997738
198	0x3c15c3cf	0.009140923
199	0x3bdfc6f6	0.006829138
200	0xbcca04fd	-0.024660582
201	0x3c020f57	0.007938228
202	0xbae81864	-0.0017707464
203	0xbb4594d5	-0.0030148525
204	0x3c9adb3b	0.018903365
205	0xbaeabb6d	-0.001790864
206	0xbb6ab520	-0.0035813525
207	0x3a96458e	0.0011464821
208	0x3c7cbd36	0.015425971
209	0xbcd8265c	-0.026385479
210	0xbcaa7537	-0.020807846
211	0x3c618767	0.013765193
212	0x3ca84be6	0.020544004
213	0xb9e87206	-0.00044335442
214	0xbc0f8191	-0.008758918
215	0xbc49f7f2	-0.012327181
216	0x3c4dfdf6	0.012572756
217	0x398bbe14	0.00026653765
218	0xbcc8f4a7	-0.024530722
219	0xbc917ade	-0.017758783
220	0xbb020c7a	-0.0019843862
221	0x3c358c00	0.011080742
222	0x3c08ca53	0.008349019
223	0xbd090797	-0.033454504
224	0xbd403ec0	-0.046934843
225	0xbb45e2e7	-0.0030195059
226	0xbd0b268a	-0.0339723
227	0x3d16314d	0.03666811
228	0xba48ac14	-0.0007655036
229	0xbd250245	-0.040285368
230	0x3c1c57a9	0.009542384
231	0x3997eb24	0.00028976158
232	0x3ca25628	0.019816473
233	0xbc8992d3	-0.016793644
234	0x3cafadc0	0.021445155
235	0x3d56b190	0.05241543
236	0xbc118d08	-0.008883722
237	0xbc92f5ad	-0.017939413
238	0xbb73e1f6	-0.003721354
239	0xbc9139e4	-0.0177278
240	0x3cb2998c	0.021801732
241	0xbba5c5cc	-0.0050589796
242	0xbd06b2d1	-0.032885376
243	0x3cc34e28	0.023840979
244	0xbc9ccf6e	-0.019141879
245	0x3ba68665	0.005081939
246	0x3ced109c	0.028938584
247	0x3c964d51	0.018347414
248	0x3cba7d94	0.022764958
249	0x3aa426c6	0.0012523762
250	0x3b1d0f62	0.0023965468
251	0x3cab6eac	0.020926796
252	0x3d080fca	0.033218183
253	0xbcf1f5a5	-0.029536078
254	0x3c83227c	0.016007654
255	0xba5f9d32	-0.0008530199

weight f4 [64, 32, 4, 4]
0	0xbccb518b	-0.024819156
1	0xbb17d95b	-0.0023170325
2	0x3c9cd6a3	0.019145316
3	0x3c08c9f8	0.008348934
4	0x3ab253ff	0.0013605355
5	0x3bc717cc	0.006075835
6	0x3d33d544	0.043904558
7	0xbd03c038	-0.032165736
8	0xbc1cb5f0	-0.009564862
9	0xbcde2a91	-0.027119907
10	0xbc91dd1e	-0.017805632
11	0x3c0736d3	0.008252817
12	0xbc1d7777	-0.009611002
13	0xbc2bc34f	-0.010483577
14	0xbc95a6cc	-0.018268012
15	0x3d22c559	0.039738987
16	0x3bec3bf5	0.007209296
17	0xbd0376c6	-0.032095693
18	0x3baf2a57	0.0053456235
19	0xbc9017ca	-0.017589469
20	0x3c9865d9	0.018603252
21	0xbbe1337d	-0.006872593
22	0xbabff601	-0.0014645458
23	0x3c6287e0	0.01382634
24	0x3c3ca43a	0.011513764
25	0x3a4ab92f	0.0007733283
26	0x3c9ff38c	0.019525312
27	0x3c8918a0	0.016735375
28	0x3cb5831a	0.02215724
29	0xbcdd1607	-0.026988043
30	0xbd1d6026	-0.038421772
31	0x3c00c572	0.007859575
32	0x3d260d90	0.040540278
33	0xbc6cfd4b	-0.014464687
34	0xbad00d9c	-0.0015873197
35	0x3c84098d	0.016117835
36	0x3cf8a0c9	0.030350106
37	0xbb72eadc	-0.0037066257
38	0xba23dd82	-0.0006250964
39	0x3d073773	0.033011865
40	0x3bed5b92	0.007243582
41	0x3ccc42bd	0.024934167
42	0x3c8c211d	0.017105633
43	0x3c773ad3	0.015089708
44	0x3c180949	0.0092795575
45	0xbc53d984	-0.012930278
46	0xbc5df979	-0.013548248
47	0x3d0242ae	0.031801872
48	0x3c5d5e00	0.013511181
49	0xbc04c6c2	-0.008104028
50	0x3c834cd5	0.016027847
51	0x3c5efc59	0.013609969
52	0x3bf2f223	0.007414119
53	0x3d3f26e0	0.046667933
54	0x3c93612b	0.01799067
55	0x3c8a64fa	0.016893853
56	0x3c8d077b	0.017215481
57	0x3c9a3551	0.018824251
58	0x3d34b8c5	0.044121522
59	0xbd50b9c8	-0.050958425
60	0xbd158510	-0.03650385
61	0x3c9b39cb	0.018948456
62	0x3bad0217	0.00527979
63	0xbbc9a49e	-0.006153657
64	0xbbb0d7ee	-0.0053968346
65	0xbc5e2efd	-0.013561008
66	0x3c947961	0.018124284
67	0x3cd09473	0.025461411
68	0xbc983cb3	-0.018583631
69	0xbc98f385	-0.018670807
70	0x3cbe1306	0.02320243
71	0xbc0c47ed	-0.00856207
72	0x3c111cae	0.008856935
73	0x3c203f9d	0.009780792
74	0x3d187210	0.037218153
75	0xbc87b3a1	-0.016565146
76	0xbc5935c4	-0.013257448
77	0x3caefca9	0.021360712
78	0x3c0b4742	0.008500876
79	0xbc86d01c	-0.016456656
80	0xbd2b963f	-0.041891333
81	0x3afff04d	0.0019526571
82	0xbba6ac2a	-0.0050864415
83	0x3c9db24c	0.019250058
84	0xbc13e603	-0.009027007
85	0xbc7cdd9b	-0.015433694
86	0xbc6fccc9	-0.014636227
87	0xbbd172b3	-0.006391847
88	0xbb302e59	-0.0026883094
89	0x3c49f0cc	0.012325477
90	0x3c00183e	0.00781828
91	0xbcea7e43	-0.02862466
92	0xbcc23dbe	-0.023711082
93	0xbb07926b	-0.0020686637
94	0x3b4ef428	0.0031578634
95	0x39de7cd9	0.00042436158
96	0xbd440c32	-0.047863193
97	0xbbf4e7ba	-0.007473913
98	0xbc0acbd6	-0.00847145
99	0xbb81d1ec	-0.003961792
100	0x3cc3f285	0.023919353
101	0x3c1accc3	0.009448233
102	0x3bbe9c9f	0.0058170105
103	0x3b68d272	0.0035525826
104	0xbd475cac	-0.048672363
105	0x3b2087e1	0.0024495053
106	0xbc9090ae	-0.017647114
107	0x3af0c9ad	0.0018370651
108	0xbc9a36b9	-0.018824922
109	0xbd431878	-0.047630757
110	0xbcdecca3	-0.027197188
111	0xbd322d51	-0.04350025
112	0xbcd6b66d	-0.026210034
113	0xbb821b90	-0.003970571
114	0x3c55f4c8	0.013058849
115	0xbb5a8579	-0.0033343716
116	0x3c6d6f92	0.0144919325
117	0x3b8a8f74	0.0042285267
118	0xbd18af4e	-0.03727656
119	0xbc056376	-0.008141389
120	0xbc257dc2	-0.010100784
121	0xbc5116e0	-0.0127618015
122	0x3d2fb9af	0.04290169
123	0x3b7a1cf2	0.0038164225
124	0xbc862863	-0.01637668
125	0x3c82a2fb	0.015946856
126	0xbcaa455f	-0.020785032
127	0xbc02ca0f	-0.007982745
128	0xbce016b6	-0.02735458
129	0xbc873422	-0.016504351
130	0xbc8e061c	-0.017336898
131	0xbcf24a9b	-0.02957659
132	0x3aefaf2c	0.0018286458
133	0x3be271ff	0.006910562
134	0x3d073ead	0.033018757
135	0xbb7e3e9a	-0.0038794638
136	0x3c4ec54e	0.012620283
137	0xbcc220d3	-0.023697292
138	0xbc03d1a4	-0.008045588
139	0xbc439183	-0.011936548
140	0xbc835cfd	-0.016035551
141	0xbccd5b49	-0.025067942
142	0x3cd2a378	0.025712714
143	0x3c3a5463	0.011372658
144	0xbbdf0a29	-0.006806631
145	0xbd1e9ca7	-0.038723614
146	0x3b8d61d3	0.00431464
147	0xbcb162e9	-0.02165361
148	0xbc7d433c	-0.015457924
149	0x3c2afa52	0.010435658
150	0x3ccc0550	0.024904877
151	0xbb33ae16	-0.0027416996
152	0x3ad0bad1	0.0015924816
153	0x3bb53857	0.005530398
154	0xbbeb6cd9	-0.0071846065
155	0xbcd653d1	-0.026163014
156	0x3ca9bb05	0.02071906
157	0x3c8a482e	0.016880121
158	0x3b245d12	0.0025079888
159	0xbb4e7d99	-0.0031507968
160	0xbca2197f	-0.019787548
161	0x3ccf8e97	0.025336547
162	0xbc083cb0	-0.00831525
163	0x3a12090f	0.0005570808
164	0xbca5a97e	-0.020222422
165	0x3b3ac658	0.002849957
166	0x3cfeef47	0.031119956
167	0x3c4152a3	0.011799487
168	0x3bdf3a06	0.006812337
169	0xbcd3090f	-0.025761155
170	0x3cc16108	0.023605838
171	0xbd5d5219	-0.054033373
172	0x3ce3d9d0	0.027813822
173	0x3ce58985	0.028019676
174	0xbd123697	-0.035696592
175	0x3b1b0b5d	0.0023657896
176	0xbc96cb2d	-0.018407429
177	0x3c999a17	0.018750234
178	0x3c2dd6ed	0.010610324
179	0xbcce864b	-0.02521052
180	0x3b3ab043	0.0028486408
181	0xbc022e65	-0.007945632
182	0xbb02c3e8	-0.0019953195
183	0x3ca343b6	0.019929748
184	0x3c82f08d	0.015983844
185	0xbc734d94	-0.014850039
186	0xbcbfc9cb	-0.023411652
187	0xbd55850f	-0.052128848
188	0xbce33e35	-0.027739624
189	0x3c83e655	0.016101042
190	0x3cf88169	0.030335145
191	0x3c4ec8c6	0.01262111
192	0x3c6a9bb8	0.014319353
193	0xbbb7eadb	-0.0056127138
194	0xbbf216f0	-0.0073879883
195	0xbc74f3aa	-0.014950672
196	0xbc70c079	-0.014694327
197	0xbd392098	-0.0451971
198	0xbd20dc17	-0.039272394
199	0x3cbc2e22	0.022971217
200	0xbcaec553	-0.021334326
201	0xbbd3ea5f	-0.006467148
202	0x3c01a301	0.007912398
203	0x3cae3456	0.02126519
204	0xbaed0045	-0.0018081745
205	0x3cc909f5	0.02454088
206	0xbb20856d	-0.002449359
207	0xbc8dbace	-0.01730099
208	0xbd5eea69	-0.05442277
209	0x3ca7bb6c	0.020475112
210	0x3baf4dc4	0.0053498466
211	0xb8bc8721	-8.989708e-05
212	0x3c6c49ec	0.014421921
213	0xbc853df1	-0.016264888
214	0x3abe20b7	0.0014505599
215	0xbc8eafc3	-0.017417794
216	0xbc8a436d	-0.016877854
217	0x3ccefda2	0.025267426
218	0x3c5e0acc	0.013552379
219	0xbd05063c	-0.03247665
220	0xbc83b2d2	-0.01607648
221	0x3cbf9c77	0.023390038
222	0x3c1cbf84	0.009567145
223	0x3c15c742	0.009141745
224	0x3c991942	0.018688802
225	0x3b7cc21f	0.0038567854
226	0xbbc82255	-0.0061076083
227	0x3bac5184	0.005258741
228	0x3cde0f6e	0.027106967
229	0xbc187b27	-0.009306706
230	0x3d1ec544	0.038762346
231	0xbc020f3f	-0.007938205
232	0xbb8cdafa	-0.004298565
233	0x3c79dff4	0.0152511485
234	0x3c575a87	0.013144142
235	0xbbc2da2f	-0.0059464197
236	0x3cdc98ab	0.026928267
237	0x3aa747a6	0.0012762442
238	0xbca2630a	-0.019822616
239	0x3c40a6e7	0.011758543
240	0xbc992d76	-0.018698435
241	0xbbafa5a2	-0.005360321
242	0xbbf924a0	-0.007603243
243	0xbc78893a	-0.015169436
244	0x3bfa8ae4	0.0076459516
245	0xbc7ba30d	-0.015358699
246	0xbc9d3ec9	-0.019194977
247	0xbd03c541	-0.032170538
248	0x3cb11101	0.021614553
249	0xba497a64	-0.0007685779
250	0x3ccdcfd5	0.025123516
251	0xbd07f953	-0.03319676
252	0x3c922e61	0.01784438
253	0xbb245703	-0.0025076277
254	0x3cd55d14	0.02604536
255	0x3c646bb2	0.013941692

weight f4 [64]
0	0x3f79d3ad	0.97588617
1	0x3f8204bb	1.0157694
2	0x3f7e0b9f	0.9923648
3	0x3f84d11a	1.0376313
4	0x3f803586	1.0016334
5	0x3f797615	0.97445804
6	0x3f800bde	1.0003622
7	0x3f81a533	1.012854
8	0x3f811eb4	1.0087495
9	0x3f7fbba9	0.9989572
10	0x3f7d619d	0.9897707
11	0x3f7b3d95	0.9814084
12	0x3f80895c	1.0041919
13	0x3f7850bc	0.9699819
14	0x3f862269	1.0479251
15	0x3f808549	1.0040675
16	0x3f816d08	1.0111399
17	0x3f81aa69	1.013013
18	0x3f7c5262	0.98563206
19	0x3f7a9d30	0.978961
20	0x3f7c1abd	0.984783
21	0x3f80984e	1.004648
22	0x3f7b7130	0.98219585
23	0x3f7f1508	0.99641466
24	0x3f8461df	1.0342368
25	0x3f80c42f	1.005987
26	0x3f7f696a	0.99770224
27	0x3f832fa9	1.024892
28	0x3f7cc69c	0.98740554
29	0x3f7f2620	0.9966755
30	0x3f81e5a2	1.0148203
31	0x3f75ada9	0.9596811
32	0x3f7ddbbd	0.9916342
33	0x3f7cc2ac	0.98734546
34	0x3f826f0b	1.0190138
35	0x3f7d4c01	0.989441
36	0x3f79c4d5	0.97565967
37	0x3f786b29	0.97038513
38	0x3f820322	1.0157206
39	0x3f7e03a9	0.99224335
40	0x3f7d2e1a	0.9889847
41	0x3f79719a	0.9743897
42	0x3f7f6cbd	0.99775296
43	0x3f7dc197	0.9912352
44	0x3f7dc279	0.99124867
45	0x3f81fb88	1.0154886
46	0x3f7bbeb6	0.98337877
47	0x3f80bd18	1.0057707
48	0x3f7f0cfb	0.9962918
49	0x3f7bb5a0	0.9832401
50	0x3f845d46	1.0340965
51	0x3f7ff18a	0.99977934
52	0x3f85d984	1.0457006
53	0x3f77f05a	0.9685112
54	0x3f83e6d1	1.0304815
55	0x3f8107e7	1.0080537
56	0x3f7bf5df	0.98422045
57	0x3f818630	1.0119076
58	0x3f796ace	0.97428596
59	0x3f784865	0.96985465
60	0x3f7f50b8	0.9973254
61	0x3f7aaacf	0.97916883
62	0x3f7e2e63	0.9928953
63	0x3f7df674	0.9920418

bias f4 [64]
0	0x3be41d80	0.0069615245
1	0x3b8c53fb	0.004282472
2	0xba9d4724	-0.0011999351
3	0xb918c3dc	-0.00014568813
4	0xbb61e91a	-0.0034471215
5	0xbc31b1a5	-0.010845576
6	0x3b84c852	0.0040522004
7	0x3b8ba48b	0.0042615584
8	0x3bde3c1e	0.006782069
9	0xbbb44c16	-0.005502234
10	0xbb6c8d13	-0.003609483
11	0xbbf37a4a	-0.0074303495
12	0x3c7e0e01	0.0155062685
13	0xbba5313b	-0.005041269
14	0x3c4f4c98	0.012652539
15	0xbbc42974	-0.005986387
16	0xbbc05dcc	-0.0058705565
17	0x3bb194e0	0.0054193586
18	0xbb833343	-0.0040039136
19	0xbb989d6b	-0.0046574376
20	0x3b6612b0	0.0035106353
21	0xbb8f3a30	-0.00437095
22	0xbbfc9e8d	-0.0077093304
23	0xba9e4fab	-0.0012078186
24	0x3c55747d	0.013028261
25	0x3bd1cf34	0.0064028744
26	0xbbe1a34e	-0.0068859225
27	0xbbd8d77a	-0.0066174837
28	0xba8b44db	-0.0010625379
29	0x3bf37b17	0.007430445
30	0x3aad05cb	0.0013200579
31	0xbc0be4be	-0.008538423
32	0x3ad382a7	0.001613696
33	0xbac4fc16	-0.0015028741
34	0xbbd43bb4	-0.0064768437
35	0xbc3ec745	-0.011644189
36	0xbbc33327	-0.0059570256
37	0xbaa0d242	-0.0012269693
38	0x3b8588a0	0.004075125
39	0xbb739e7d	-0.0037173324
40	0x3c1f177a	0.009710187
41	0x3b102e5b	0.0022000286
42	0xbb3a4b76	-0.0028426326
43	0xbbeb3ac8	-0.007178638
44	0xbb0abb67	-0.002116883
45	0xbbb85ae8	-0.0056260712
46	0xba62389f	-0.0008629653
47	0xbb73ebba	-0.0037219361
48	0x3b373ee9	0.0027961081
49	0xbb378e10	-0.002800826
50	0xbaedcf8c	-0.0018143519
51	0xbb82aa16	-0.003987561
52	0x3bea5a3f	0.0071518715
53	0xbac1a98b	-0.0014775259
54	0x3b9f899a	0.0048686983
55	0x3aec2513	0.001801642
56	0xbc2d31ff	-0.010571002
57	0xb81f3941	-3.7961876e-05
58	0x3c1fed1c	0.009761121
59	0xbc3e2143	-0.01160461
60	0xbbe0ec52	-0.006864109
61	0x3b15aa19	0.0022836982
62	0x3b8da45b	0.004322571
63	0x3bd53ffb	0.006507871

running_mean f4 [64]
0	0xbcb17780	-0.021663427
1	0xbc9c791f	-0.019100724
2	0x3ba98857	0.0051737237
3	0xbb4756a9	-0.0030416644
4	0x3b3316bb	0.002732678
5	0xbc81be12	-0.015837703
6	0x3bcd3df3	0.0062634884
7	0xbc0ee23f	-0.008720933
8	0x3b7f8d64	0.0038994187
9	0xb991e8ca	-0.00027829997
10	0x39fdbcb6	0.0004839652
11	0xbc9da5c3	-0.01924408
12	0xbba6dbb5	-0.005092109
13	0xbcaaf26f	-0.020867554
14	0x3b5c84b6	0.0033648438
15	0xbb935e4f	-0.0044973264
16	0xbc25a4c5	-0.010110085
17	0x3c01eaaa	0.007929483
18	0x3a0a3bfd	0.0005273221
19	0xbcaf4d27	-0.021399094
20	0x3b63fa6a	0.003478671
21	0xbc7cbe74	-0.015426267
22	0xb9b207f1	-0.00033956722
23	0x3b446f65	0.0029973623
24	0xbca9be78	-0.020720705
25	0x3b2b4249	0.0026132038
26	0x3c0b6cc6	0.00850982
27	0x3c8b07ba	0.016971458
28	0xbbc5d0cd	-0.006036854
29	0x3c50b625	0.012738739
30	0xba84141b	-0.0010076793
31	0x3ae9113e	0.0017781628
32	0xbbfc91c6	-0.0077078072
33	0x39693625	0.00022240782
34	0x3c65a317	0.014015934
35	0x3c25d9b9	0.01012271
36	0x3aca3248	0.0015426362
37	0x3cb8a133	0.022537803
38	0x3c704146	0.014664
39	0x3b63bbcb	0.0034749385
40	0x3c0d5f4c	0.008628678
41	0xbc94e310	-0.018174678
42	0xbad4563b	-0.0016200015
43	0xbbbb2e1d	-0.0057122842
44	0xb98d8a7c	-0.00026996795
45	0xbb5e5024	-0.003392228
46	0xbc0b00d5	-0.008484085
47	0x3c3e4b61	0.011614651
48	0xbbc596eb	-0.0060299537
49	0x3b5d850e	0.003380123
50	0xbc5713c4	-0.013127271
51	0x3c137694	0.009000439
52	0x3b96ff4b	0.00460807
53	0x3ba2feb8	0.0049742125
54	0xbc0fb5f6	-0.00877141
55	0xbb7a19eb	-0.003816242
56	0x3b993f19	0.0046767113
57	0xbb9e0e84	-0.0048235077
58	0x3b7cb538	0.0038560163
59	0x3bbf6a0b	0.0058414987
60	0xba05292c	-0.00050796825
61	0x3c3068ad	0.010767144
62	0x3b39c83b	0.0028348106
63	0x3b70ddbe	0.0036753262

running_var f4 [64]
0	0x3873a29c	5.8087157e-05
1	0x39b15cd9	0.00033829248
2	0x3a4ad8dd	0.00077380036
3	0x3986393b	0.00025601112
4	0x39493b90	0.00019191043
5	0x397c7ee9	0.0002407987
6	0x39a4a939	0.00031406598
7	0x39cafaa6	0.0003871519
8	0x39f283af	0.0004625595
9	0x390f9ce2	0.00013695986
10	0x391dac8c	0.00015036965
11	0x38c55028	9.408622e-05
12	0x39847617	0.00025264986
13	0x39c09e50	0.00036739046
14	0x39ca3abf	0.00038572212
15	0x395b49ae	0.00020912915
16	0x38f2047f	0.00011540297
17	0x3901c3ac	0.00012375292
18	0x39cec048	0.00039434643
19	0x397f5884	0.0002435167
20	0x38a22f5a	7.733582e-05
21	0x39c0ecf1	0.0003679763
22	0x39bfc146	0.0003657436
23	0x39410f02	0.00018411505
24	0x395f6f23	0.00021308339
25	0x39214644	0.00015380332
26	0x394e611c	0.00019681867
27	0x39a58023	0.00031566722
28	0x38fed4fb	0.000121513345
29	0x3903d4b8	0.00012572377
30	0x39960f1d	0.0002862149
31	0x3982c894	0.00024944975
32	0x399c874c	0.00029855443
33	0x38ca371e	9.642377e-05
34	0x38d81ddf	0.000103052465
35	0x39bb2c36	0.0003570036
36	0x390289fb	0.00012449168
37	0x3960fd9e	0.00021456784
38	0x38e072cd	0.00010702536
39	0x394c5abe	0.0001948876
40	0x38079be1	3.233168e-05
41	0x39b2fab8	0.00034137606
42	0x39278b1f	0.00015978188
43	0x3929e7ee	0.00016203496
44	0x39310e04	0.00016885257
45	0x392e84b9	0.00016643376
46	0x392ec4f7	0.00016667308
47	0x3903f53c	0.0001258449
48	0x39ce265d	0.00039319965
49	0x39f87746	0.00047391112
50	0x39876036	0.0002582089
51	0x3913590b	0.00014052184
52	0x39332a01	0.00017086418
53	0x39a58083	0.00031567
54	0x39c50302	0.0003757701
55	0x39421067	0.00018507392
56	0x39710ce3	0.00022988352
57	0x38bfa95c	9.139135e-05
58	0x3933274d	0.00017085411
59	0x3939f5aa	0.00017734492
60	0x393e200c	0.0001813175
61	0x387bfeb0	6.008026e-05
62	0x38fc98d7	0.00012044765
63	0x3954be41	0.0002028877

weight f4 [128, 64, 4, 4]
0	0xbb8b5f57	-0.0042533088
1	0xbd3152ae	-0.04329174
2	0xbbfa01e2	-0.007629619
3	0xba7dfa15	-0.0009688449
4	0xbc489aaf	-0.012243911
5	0xbc85442a	-0.016267855
6	0x3ccbc7e1	0.024875583
7	0x3cc4ad8b	0.024008533
8	0x3c4fa5e1	0.012673826
9	0x3c9cdd9a	0.019148637
10	0x39e2e457	0.00043276206
11	0xbb9c8eee	-0.0047777807
12	0x3b88d5f5	0.0041758963
13	0x3cf85bf3	0.030317282
14	0x3c18a5a1	0.009316833
15	0xbc784c8f	-0.015154972
16	0x3c3a0b18	0.011355184
17	0xbb5fa423	-0.0034124933
18	0xba8bbaca	-0.0010660526
19	0xbcbe2e10	-0.023215324
20	0x3c580158	0.013183914
21	0xbce2c25e	-0.027680572
22	0xbbcbac18	-0.0062155835
23	0x3b315354	0.0027057724
24	0xbc9d6d3f	-0.019217132
25	0x3c813fb3	0.015777444
26	0xbb422462	-0.0029623737
27	0xba0f9066	-0.0005476534
28	0x3c5c407c	0.013443109
29	0x3ab770cc	0.0013995408
30	0xbc3bdbe1	-0.011465997
31	0xbc973af8	-0.018460736
32	0x3cccb825	0.02499015
33	0xbd071f78	-0.032988995
34	0xbbc09b43	-0.0058778836
35	0xbc105ef5	-0.008811702
36	0xbcd581a5	-0.026062796
37	0x3d34a1ac	0.044099495
38	0x3c86452c	0.016390406
39	0xbcbf8143	-0.023377066
40	0x3c876a46	0.016530167
41	0xbc99f057	-0.01879136
42	0x3c89c0cb	0.016815564
43	0xbd28d58d	-0.041219283
44	0xbc1801b6	-0.009277752
45	0x3d2bce7c	0.041944966
46	0xbcc586cb	-0.024112126
47	0x3c989e1d	0.018630082
48	0x3caef659	0.021357702
49	0xbbfdecef	-0.007749192
50	0xbca559c9	-0.020184414
51	0xbc751359	-0.014958226
52	0xbc8a0650	-0.016848713
53	0xba74a2ad	-0.0009332102
54	0x3c82b111	0.015953572
55	0x3c60890c	0.0137045495
56	0xbd1f9047	-0.038955953
57	0x3c536272	0.012901889
58	0x3cd3aa3e	0.025838014
59	0xbca73035	-0.02040873
60	0xb7ee660b	-2.8419328e-05
61	0x3bdb1337	0.00668564
62	0xbbeb0dc3	-0.0071732714
63	0x3c8cb45e	0.01717585
64	0xbc7f1969	-0.015570023
65	0x3b9ccc01	0.0047850613
66	0xbc902c1e	-0.017599162
67	0xba4d156e	-0.00078233227
68	0x3b73b72f	0.0037188043
69	0xbcb930f9	-0.02260636
70	0xbc1f8e19	-0.009738469
71	0xbd130446	-0.035892747
72	0xbb9cec2a	-0.004788895
73	0xbc2cce26	-0.0105471965
74	0x3ceb5b16	0.028729957
75	0x3c06efff	0.00823593
76	0xbbefe0ed	-0.0073205144
77	0xbcd63f4e	-0.026153233
78	0x3cdb8205	0.026795397
79	0xbcb0072c	-0.021487795
80	0xbb171ebb	-0.0023059088
81	0x3d0bb83c	0.034111246
82	0xbae06c44	-0.001712211
83	0xbd2719b8	-0.04079601
84	0xbcc4be64	-0.024016567
85	0x3d60573c	0.054770693
86	0x3c534dbb	0.01289695
87	0x3bc0673d	0.005871682
88	0xbcc6c914	-0.024265803
89	0xbd3870fc	-0.045029625
90	0x3c202d6e	0.009776456
91	0xbc269dcc	-0.010169458
92	0x3d0609c2	0.03272415
93	0x3caa82dd	0.020814354
94	0x3bf9e8a0	0.007626608
95	0x3ca7daf4	0.020490147
96	0xbd13ef54	-0.036116913
97	0xbd81344c	-0.06308803
98	0x3be7ed85	0.007077875
99	0x3b0a1aac	0.0021073027
100	0xbbc3a675	-0.005970771
101	0xbc96c852	-0.018406067
102	0x3a79b328	0.00095252926
103	0x3b616728	0.0034393761
104	0xbcdcc307	-0.026948465
105	0x3c6e98db	0.014562811
106	0x3c85145c	0.01624506
107	0xbba35c2e	-0.004985354
108	0xbb77cddf	-0.0037811918
109	0xbc01918a	-0.007908234
110	0xbc2f3b00	-0.010695219
111	0x3cb37fe4	0.021911569
112	0xbc811e5f	-0.015761552
113	0x3cfe058d	0.031008506
114	0x3bb99a87	0.005664173
115	0x3c77ed1b	0.015132214
116	0x3bcdcdd3	0.0062806397
117	0xbc76631f	-0.015038281
118	0x3c86ab0c	0.016438983
119	0x3c35692a	0.011072436
120	0xbc9afe4f	-0.018920092
121	0x3c9f86ef	0.019473521
122	0x3b3a52de	0.002843074
123	0xbc1f09c2	-0.009706916
124	0xbccfa4ba	-0.025347102
125	0x3c2f520e	0.010700716
126	0xbbfe8195	-0.007766912
127	0xbb1395f2	-0.0022519794
128	0x3cc99ae6	0.024609994
129	0xbb95bd7c	-0.0045697074
130	0xbcc5588d	-0.024090076
131	0x3c17df55	0.009269555
132	0xbc0063ab	-0.007836263
133	0xbbf912f2	-0.0076011354
134	0xbcdfd5e9	-0.02732368
135	0xbb469b35	-0.0030304913
136	0xbc93c0c0	-0.018036246
137	0xbc0508e0	-0.008119792
138	0xbc00a854	-0.007852633
139	0x3bcf31d7	0.00632308
140	0x3bb94775	0.0056542703
141	0x3cbfa8d4	0.023395933
142	0x3ca32d99	0.019919204
143	0xbb9850c5	-0.0046483004
144	0x3cb6d44c	0.022318028
145	0xbbfd0ff6	-0.00772285
146	0xbca93006	-0.020652782
147	0x3c946f03	0.01811934
148	0xbbf097d1	-0.0073423167
149	0x3c243968	0.010023452
150	0xbd062112	-0.032746382
151	0xbc36787b	-0.011137123
152	0x3cc94745	0.024570117
153	0xbc65c41d	-0.014023808
154	0x3c3fb72d	0.011701387
155	0xbae9dfbb	-0.0017843166
156	0x3cf8849c	0.03033667
157	0x3babb9eb	0.005240669
158	0xbd0c30ea	-0.034226336
159	0x3bb472b5	0.005506838
160	0x3c67e4cc	0.0141536705
161	0x3d1a9d61	0.037747744
162	0xbb0cef63	-0.002150499
163	0x3b17b976	0.0023151315
164	0x3c241642	0.010015072
165	0xbd040fe6	-0.032241724
166	0x3c8de310	0.017320186
167	0x3cb1771b	0.02166324
168	0x3b86d727	0.0041150036
169	0xbb5529db	-0.0032526169
170	0xbc83a51b	-0.01606994
171	0x3c2b38bf	0.010450541
172	0xbc860ef0	-0.016364545
173	0x3c406376	0.011742463
174	0x3cd9b9a0	0.02657777
175	0x3bf5a52b	0.007496496
176	0x3beb36e7	0.0071781757
177	0x3c41b2fb	0.011822457
178	0xbcdaaf30	-0.026694864
179	0xbc3d535a	-0.011555517
180	0xbbf57e3b	-0.0074918545
181	0x3c0f8589	0.008759865
182	0x3c21519b	0.009846116
183	0xbc4999e4	-0.012304757
184	0x3b5d0118	0.0033722576
185	0x3aacec9a	0.0013193071
186	0x3bbb39d8	0.0057136826
187	0x3af46988	0.0018647173
188	0x3d4d3a1d	0.05010425
189	0x3aa8f876	0.001289143
190	0xbbdd2cf5	-0.006749744
191	0x3c225858	0.009908758
192	0xbd28697d	-0.041116226
193	0x3bdb6b2b	0.006696125
194	0xbc324f5a	-0.010883177
195	0xbc5a0218	-0.013306163
196	0xbcc1f496	-0.023676198
197	0x3c6acd5e	0.01433119
198	0xbb9d1bb1	-0.004794561
199	0x3cb524a9	0.022112207
200	0x3cc1dc10	0.023664504
201	0xbd014e27	-0.031568673
202	0x3cce1f0e	0.025161292
203	0xbc0695bd	-0.008214411
204	0xbc86071c	-0.016360812
205	0xbc196d81	-0.009364487
206	0x3d56e006	0.05245974
207	0x3d1e6712	0.038672514
208	0x3c67db6d	0.014151436
209	0xbc1eac0b	-0.009684573
210	0x3c129025	0.0089455
211	0xbc0e5dfd	-0.008689401
212	0x3c7beffd	0.015377042
213	0xbb54ebb0	-0.0032489114
214	0xbc836c5a	-0.016042877
215	0x3c905a25	0.01762111
216	0x3b0cd35b	0.0021488282
217	0xba6fc169	-0.0009145947
218	0x3c145917	0.009054444
219	0x3c04ced0	0.008105949
220	0xbc06ee30	-0.008235499
221	0x3be7ddd9	0.007076007
222	0x3c42bf7c	0.011886474
223	0x3cc37205	0.02385808
224	0x3c205220	0.009785205
225	0xbcc789f9	-0.024357783
226	0x3b367f39	0.0027846827
227	0xbc9dda30	-0.019269079
228	0xbbad7601	-0.005293608
229	0x3ce6cf73	0.028175091
230	0x3c33368d	0.010938299
231	0xbbd09c24	-0.0063662697
232	0xbd1727f9	-0.036903355
233	0x3b815e95	0.0039480426
234	0xbc29af3c	-0.010356721
235	0xbd1ee1b2	-0.03878946
236	0xbcf1b2ca	-0.029504199
237	0xbcc22daa	-0.023703415
238	0xbcd1ab30	-0.025594324
239	0x3c5346c0	0.012895286
240	0xbc59ebaf	-0.01330082
241	0x3bc23b17	0.005927454
242	0xbd1e1542	-0.03859449
243	0xbb557ba9	-0.0032574928
244	0xbd5b0132	-0.053467937
245	0xbc0c957b	-0.008580561
246	0x3bb5d9f7	0.005549665
247	0x3a1fa7a2	0.0006090348
248	0xbd00a2a8	-0.03140512
249	0xbc9dd9ae	-0.019268837
250	0xbccbaf84	-0.024863966
251	0xbc5b338f	-0.013378992
252	0x3c1702d6	0.009216985
253	0x3c03485e	0.008012859
254	0x3cef85a2	0.029238526
255	0x3c26e0f5	0.01018547

weight f4 [128]
0	0x3f770cab	0.96503705
1	0x3f7a486c	0.97766757
2	0x3f86a6e3	1.051968
3	0x3f7d0ecd	0.9885071
4	0x3f81bad7	1.0135144
5	0x3f82ba5d	1.0213124
6	0x3f7f7f10	0.99803257
7	0x3f83cd6c	1.0297065
8	0x3f808613	1.0040916
9	0x3f83ec77	1.0306538
10	0x3f7c70be	0.9860953
11	0x3f85e13a	1.0459359
12	0x3f7d202b	0.9887721
13	0x3f8137db	1.0095171
14	0x3f8286e6	1.0197418
15	0x3f82a7dc	1.0207477
16	0x3f7aea95	0.98014194
17	0x3f809826	1.0046432
18	0x3f82ab8b	1.0208601
19	0x3f7a040a	0.97662413
20	0x3f847214	1.0347314
21	0x3f80e2be	1.0069196
22	0x3f71d1dc	0.94460845
23	0x3f8265ef	1.0187358
24	0x3f771631	0.96518236
25	0x3f7fa35c	0.9985864
26	0x3f820f81	1.0160981
27	0x3f7da78e	0.99083793
28	0x3f82c9be	1.0217817
29	0x3f81e801	1.0148927
30	0x3f8298ea	1.0202916
31	0x3f80cad4	1.0061898
32	0x3f80d279	1.0064231
33	0x3f81f549	1.015298
34	0x3f800aa7	1.0003251
35	0x3f81fc19	1.0155059
36	0x3f804a99	1.0022765
37	0x3f859a14	1.0437646
38	0x3f80db4c	1.0066924
39	0x3f810959	1.0080978
40	0x3f8017c0	1.0007248
41	0x3f816a5d	1.0110584
42	0x3f8057f7	1.0026845
43	0x3f7d98ac	0.99061084
44	0x3f85cf07	1.0453805
45	0x3f7947aa	0.97374976
46	0x3f7f5fa5	0.99755317
47	0x3f7ea462	0.9946958
48	0x3f78848b	0.97077245
49	0x3f797c62	0.9745542
50	0x3f83b07c	1.0288234
51	0x3f818e35	1.0121523
52	0x3f83d25e	1.0298574
53	0x3f800fbb	1.00048
54	0x3f835451	1.0260106
55	0x3f828c22	1.0199015
56	0x3f7d3bc1	0.989193
57	0x3f865d44	1.0497212
58	0x3f7e55ec	0.99349856
59	0x3f808b7c	1.0042567
60	0x3f824fca	1.01806
61	0x3f80e2f6	1.0069263
62	0x3f811fc3	1.0087818
63	0x3f8206dd	1.0158345
64	0x3f835f0c	1.0263381
65	0x3f808b52	1.0042517
66	0x3f81619f	1.0107917
67	0x3f79ef39	0.9763065
68	0x3f71ce9b	0.9445588
69	0x3f844776	1.0334308
70	0x3f7ae0da	0.97999346
71	0x3f82d09f	1.0219916
72	0x3f833515	1.0250574
73	0x3f82db8c	1.022325
74	0x3f82184c	1.0163665
75	0x3f7e9a40	0.99454117
76	0x3f81e72b	1.0148672
77	0x3f80e308	1.0069284
78	0x3f801ecf	1.0009402
79	0x3f82d365	1.0220762
80	0x3f81b938	1.0134649
81	0x3f80b5e3	1.0055507
82	0x3f81f548	1.0152979
83	0x3f7e3aba	0.9930836
84	0x3f802e3e	1.0014112
85	0x3f7d322e	0.98904693
86	0x3f827233	1.0191101
87	0x3f81b125	1.0132185
88	0x3f7eed68	0.99581003
89	0x3f836206	1.0264289
90	0x3f814d11	1.0101644
91	0x3f838e97	1.027789
92	0x3f85fb05	1.046723
93	0x3f7f9db3	0.99850005
94	0x3f7e9ef9	0.99461323
95	0x3f833f2b	1.0253652
96	0x3f83537e	1.0259855
97	0x3f7fb481	0.998848
98	0x3f85e69a	1.0460999
99	0x3f7d140c	0.98858714
100	0x3f834c0b	1.0257581
101	0x3f7c76f0	0.98618984
102	0x3f81a744	1.012917
103	0x3f7f09cc	0.99624324
104	0x3f80b0a5	1.0053908
105	0x3f853c90	1.0409107
106	0x3f8330ee	1.0249307
107	0x3f822de0	1.017025
108	0x3f7ae4f7	0.9800562
109	0x3f812649	1.0089809
110	0x3f772792	0.96544755
111	0x3f871dac	1.055593
112	0x3f8427a8	1.0324602
113	0x3f7d56f5	0.9896081
114	0x3f7d4954	0.98940015
115	0x3f83e8c9	1.0305415
116	0x3f80d3bc	1.0064616
117	0x3f8186c8	1.0119257
118	0x3f83cd08	1.0296946
119	0x3f7f549f	0.99738497
120	0x3f82a27e	1.0205839
121	0x3f8415df	1.0319175
122	0x3f7bda1a	0.9837967
123	0x3f82c296	1.0215633
124	0x3f807599	1.0035888
125	0x3f8452ec	1.0337806
126	0x3f840379	1.031356
127	0x3f859b23	1.0437969

bias f4 [128]
0	0xbb3f5e44	-0.0029200474
1	0x3c1ae6d3	0.009454447
2	0x3c133edc	0.008987155
3	0x3a43ba8c	0.00074664573
4	0xba47522c	-0.0007603492
5	0x3c3d3ea8	0.011550583
6	0x3b0e7981	0.0021739902
7	0x3bf68fba	0.0075244578
8	0x3b21b842	0.0024676477
9	0x3c8df738	0.017329797
10	0xbb24950b	-0.002511325
11	0xbae5dbc9	-0.0017536815
12	0x3c13d8df	0.009023874
13	0x3c499177	0.012302748
14	0xb9d9af2e	-0.00041519984
15	0x3c334837	0.01094251
16	0x3b205f44	0.0024470845
17	0x3be5024d	0.0069887997
18	0x3bc747a1	0.006081537
19	0x3bfa04b9	0.0076299575
20	0x3bff94c1	0.0077997153
21	0xba2ffa0c	-0.000671298
22	0x3ba33598	0.004980754
23	0x3b5d2bb3	0.003374797
24	0x3b8b06f9	0.0042427746
25	0x3c4ec0d9	0.012619221
26	0x3b8b593d	0.0042525814
27	0x3c678338	0.014130406
28	0x3c4ce9c9	0.012506911
29	0x3969dc5d	0.00022302703
30	0x3ba6413c	0.0050736945
31	0x3be41ed4	0.006961683
32	0x3b0889fc	0.0020834198
33	0xbb3cd2c8	-0.002881216
34	0xbb6d61cd	-0.0036221624
35	0x3c33d865	0.010976885
36	0xbc3889e6	-0.011263346
37	0xbb27eacf	-0.0025622135
38	0xbb830dc7	-0.003999445
39	0x3bb908eb	0.005646815
40	0x3c153e35	0.00910907
41	0xbbdb01d8	-0.0066835694
42	0xbb2d76bd	-0.0026468479
43	0x3a454634	0.00075254147
44	0xbb63a007	-0.0034732835
45	0x3ada089c	0.0016634646
46	0x3bb2d681	0.0054576998
47	0xbb8369a7	-0.0040103975
48	0x3956bef4	0.00020479766
49	0xbbc95a26	-0.0061447797
50	0x3bc59a99	0.0060303924
51	0x3bfa16bd	0.007632105
52	0x3bae80ba	0.005325404
53	0x3b762ae2	0.0037562181
54	0x3c4e8449	0.012604781
55	0xbb639816	-0.0034728101
56	0xbb81ff69	-0.003967215
57	0x3c19b1b8	0.00938075
58	0xbb85b4ce	-0.0040803915
59	0xbba85db8	-0.0051381253
60	0x3c568c09	0.01309491
61	0x3c06cca9	0.008227506
62	0xbc08ea13	-0.008356589
63	0xb8e9b85c	-0.000111446454
64	0x3b8a9189	0.004228775
65	0xb7d98fea	-2.5935431e-05
66	0x3b6f4dbe	0.0036514844
67	0xbb49db03	-0.0030800707
68	0x3ae288d8	0.0017283214
69	0xb9818e90	-0.00024711015
70	0xbbc18f93	-0.005907008
71	0x3bf22b75	0.0073904344
72	0x3bac44aa	0.005257209
73	0x3b99bbc6	0.004691574
74	0x3b4d42e9	0.00313204
75	0x39cb5699	0.00038783698
76	0x390689ad	0.00012830524
77	0xba911c8d	-0.0011071131
78	0x3aca34a2	0.0015427063
79	0x3ad49e0b	0.0016221417
80	0xbaf89417	-0.0018965033
81	0xbb2820b5	-0.002565426
82	0xbbbcdacd	-0.005763388
83	0x3bdbc940	0.0067073405
84	0x3bba806e	0.0056915795
85	0x3c11fffe	0.008911131
86	0x3c2e0557	0.01062139
87	0x3b97d2df	0.004633292
88	0x3c2b30a5	0.0104486095
89	0x3c003954	0.007826168
90	0xbba3acbc	-0.004994957
91	0x3c49d5c5	0.012319033
92	0x3c772c40	0.015086234
93	0xbb88e51c	-0.0041777026
94	0xb9572e9b	-0.0002052136
95	0x3b633692	0.0034669978
96	0x3c0f0d34	0.008731175
97	0x39cd678b	0.00039177792
98	0x3bb8d775	0.005640919
99	0xbb787e12	-0.003791694
100	0x3bcc8ef1	0.006242626
101	0xbb4c925f	-0.0031215174
102	0x3b8793ed	0.004137507
103	0x3b22356b	0.0024751078
104	0x3bb316b4	0.005465353
105	0x3c1fcdee	0.009753687
106	0x3c0ff6cd	0.008786869
107	0xbacb3321	-0.0015502908
108	0xbb0aad92	-0.0021160585
109	0x3c7e25f0	0.015511975
110	0xba70cb32	-0.0009185552
111	0x3c029c0d	0.007971776
112	0x3be43e17	0.0069654095
113	0x3bba496c	0.005685022
114	0xbb88cf29	-0.004175086
115	0x3b37bad1	0.0028034935
116	0x3926e135	0.0001591489
117	0xbbbc4c3f	-0.005746394
118	0xbb3a6cc5	-0.002844618
119	0xbacc2a68	-0.0015576603
120	0x3c42e072	0.011894332
121	0x3b4359e1	0.002980821
122	0xbbcbf367	-0.006224084
123	0x3c1e0c42	0.009646477
124	0x3c58e20c	0.0132374875
125	0x3b7ed3ec	0.003888364
126	0xbb9929b6	-0.004674162
127	0xbaa29719	-0.001240465

running_mean f4 [128]
0	0xbe5d4459	-0.21608104
1	0xbed30f51	-0.41222623
2	0x3b5eae65	0.003397846
3	0x3d83e214	0.06439605
4	0x3e7a2bc2	0.24430755
5	0x3f00108f	0.50025266
6	0xbf1fdeef	-0.62449545
7	0xbd2638ac	-0.04058139
8	0xbeb79c23	-0.3586131
9	0x3e3df92b	0.18552081
10	0xbeea0ba4	-0.45712006
11	0x3e6d7d5b	0.2319235
12	0xbd85125c	-0.064976424
13	0xbe2bf64c	-0.16793174
14	0x3d1a0d27	0.0376102
15	0xbd78fb5f	-0.0607866
16	0xbf15eb18	-0.5856185
17	0xbd892dc7	-0.066981845
18	0x3d86bca9	0.06578953
19	0xbec89e25	-0.39183155
20	0xbe8f641e	-0.2800607
21	0xbdad6c65	-0.0846794
22	0xbea11a3a	-0.31465322
23	0x3f260dd7	0.6486487
24	0x3d2c2299	0.042025182
25	0xbda1f06e	-0.079071864
26	0xbeb9d67f	-0.3629646
27	0x3e8fd5fc	0.28092945
28	0xbe35b875	-0.17746146
29	0x3e9caed9	0.30602148
30	0xbee21ec7	-0.44164106
31	0x3e4b3041	0.19842626
32	0xbe195d0d	-0.14976902
33	0x3e35e8b3	0.17764549
34	0x3ec79496	0.3898055
35	0x3e2cf35e	0.16889712
36	0xbe8f813c	-0.28028286
37	0x3e88aebb	0.2669581
38	0xbdc342e2	-0.09534241
39	0xbf5983c5	-0.8496669
40	0x3c5874a2	0.013211401
41	0xbe29a20d	-0.16565724
42	0xbea049e7	-0.31306383
43	0xbeac969b	-0.33708653
44	0xbd01aa82	-0.03165675
45	0x3e6d6a8e	0.23185179
46	0xbd160727	-0.036627915
47	0xbe33af5f	-0.17547368
48	0x3e99986e	0.29999107
49	0xbf493356	-0.7859396
50	0x3e0c20fb	0.13684456
51	0xbe2b70e8	-0.16742289
52	0x3da2eb83	0.079550765
53	0xbdf1d854	-0.118088394
54	0x3e38d1c8	0.18048775
55	0xbf0daf68	-0.55345774
56	0xbc7427af	-0.014902039
57	0x3d2073d2	0.039172955
58	0xbe77ce35	-0.24199755
59	0x3eae7d57	0.34080002
60	0x3e82dadf	0.2555761
61	0x3d591a85	0.053003807
62	0x3e7dfa03	0.24802403
63	0xbe5170e0	-0.20453215
64	0x3f449843	0.7679483
65	0x3e38081d	0.17971845
66	0x3e448b00	0.1919365
67	0xbd5d8a81	-0.054087166
68	0xbd1c6428	-0.038181454
69	0xbeca42b9	-0.3950403
70	0x3eb715e4	0.3575889
71	0xbea08e72	-0.31358677
72	0x3e3b054a	0.18263736
73	0xbe64403d	-0.2229013
74	0x3eea7b10	0.45797014
75	0x3ec63297	0.38710472
76	0x3e7e15ec	0.2481305
77	0x3d26f7c9	0.04076365
78	0xbe61eecc	-0.2206375
79	0xbe868216	-0.26271123
80	0x3e6d2d33	0.23161773
81	0x3ea59022	0.32336527
82	0x3f5e974f	0.8694963
83	0x3ec61537	0.3868806
84	0x3ec36839	0.38165453
85	0x3ed23ef6	0.4106366
86	0x3e496a7b	0.19669525
87	0x3e024d0c	0.12724704
88	0xbde5e91b	-0.11226102
89	0x3e33f489	0.17573752
90	0x3ea51f71	0.3225055
91	0xbe0219cf	-0.12705158
92	0xbed967d8	-0.4246204
93	0xbeb76e94	-0.35826552
94	0xbe1353f0	-0.14387488
95	0xbe716928	-0.2357527
96	0xbe1a5742	-0.15072349
97	0xbe71551b	-0.23567621
98	0x3e461576	0.19344124
99	0xbdf7e9c9	-0.12105138
100	0xbdc78948	-0.09742981
101	0x3dd805bd	0.105479695
102	0xbea9eec5	-0.3318998
103	0xbdbffbc3	-0.093741916
104	0xbd6b9302	-0.057513244
105	0x3e235eac	0.15954083
106	0xbd2b8262	-0.04187239
107	0xbe1b3c60	-0.1515975
108	0xbebff04a	-0.37488014
109	0xbef7555c	-0.48307312
110	0xbd993635	-0.07481042
111	0xbea200b4	-0.3164116
112	0xbd2baf4d	-0.041915227
113	0xbe47e79b	-0.19521944
114	0xbf2e74c8	-0.68146944
115	0xbe5ed28b	-0.21760003
116	0xbf155f1e	-0.5834826
117	0xbe1bdc7b	-0.15220825
118	0x3e41121f	0.18854569
119	0x3f354879	0.7081371
120	0xbe69a75f	-0.22817753
121	0x3e9e3e74	0.30907023
122	0x3d81bfa6	0.06335382
123	0x3ecce863	0.40021047
124	0xbecf9b7d	-0.40548316
125	0xbe3f38ac	-0.18673962
126	0x3f2e237b	0.6802289
127	0xbee79b04	-0.45235455

running_var f4 [128]
0	0x3dc80ccc	0.09768066
1	0x3e3d079f	0.18459938
2	0x3cdfd1fd	0.02732181
3	0x3e32b878	0.17453182
4	0x3dc02ecd	0.093839265
5	0x3dec1c13	0.11528792
6	0x3e1f00b5	0.15527613
7	0x3d8a3ff7	0.067504816
8	0x3de0835a	0.10962553
9	0x3d4f146b	0.05055658
10	0x3eaf023d	0.34181395
11	0x3dd57e7f	0.10424518
12	0x3d693c85	0.05694248
13	0x3e10c842	0.14138892
14	0x3e043043	0.12909035
15	0x3dc8cf0d	0.09805117
16	0x3e4ca961	0.19986488
17	0x3d9596ea	0.07304175
18	0x3d970987	0.07374864
19	0x3ddb112f	0.10696637
20	0x3dfb2859	0.12263555
21	0x3e0e796a	0.13913503
22	0x3e4c27bd	0.19937034
23	0x3e7ff8df	0.2499728
24	0x3d0fd65c	0.03511654
25	0x3de87589	0.11350543
26	0x3d512060	0.051056266
27	0x3d67e320	0.056613088
28	0x3d9ea913	0.07747092
29	0x3e2c607f	0.16833685
30	0x3de13f3d	0.1099839
31	0x3d623295	0.05522402
32	0x3da4dbda	0.08049746
33	0x3da44150	0.0802027
34	0x3d641be1	0.05569065
35	0x3e84359c	0.2582215
36	0x3d3ca5ff	0.046056744
37	0x3de134eb	0.109964214
38	0x3d1a52b2	0.03767652
39	0x3e6a27ec	0.22866791
40	0x3d4c4d36	0.04987832
41	0x3d72b651	0.0592559
42	0x3daa2afa	0.083089784
43	0x3da64658	0.08118886
44	0x3d7a71b1	0.06114358
45	0x3e2893ba	0.16462603
46	0x3dd37ac9	0.10326154
47	0x3dd563d8	0.10419434
48	0x3da00cd8	0.0781495
49	0x3e4ce7ca	0.20010296
50	0x3dcf3779	0.101180024
51	0x3d83c5d0	0.06434214
52	0x3de47368	0.111548245
53	0x3df09aa8	0.11748248
54	0x3ddd1235	0.10794488
55	0x3e3f07fd	0.18655391
56	0x3caf50b6	0.02140079
57	0x3d9ffc74	0.078118235
58	0x3d49557e	0.049153797
59	0x3e815744	0.2526189
60	0x3e339e60	0.17540884
61	0x3d8206c4	0.06348947
62	0x3d696285	0.05697872
63	0x3ce552bc	0.027993552
64	0x3e6e3172	0.2326105
65	0x3d7bc701	0.06146908
66	0x3dba8243	0.09106877
67	0x3dd05c58	0.10173863
68	0x3dad083d	0.08448837
69	0x3e1dae94	0.15398628
70	0x3e0fd8db	0.14047568
71	0x3e14abcf	0.14518665
72	0x3d583027	0.052780297
73	0x3d3e47a5	0.046455044
74	0x3db10532	0.08643569
75	0x3e38a936	0.18033299
76	0x3e38ce96	0.18047556
77	0x3da8e72b	0.08247217
78	0x3ca90e0d	0.020636583
79	0x3e14b765	0.14523084
80	0x3d2f083f	0.042732473
81	0x3cdcaf6b	0.026939115
82	0x3e6e5082	0.23272899
83	0x3e230f47	0.15923797
84	0x3dad9ff8	0.08477777
85	0x3de13c5a	0.10997839
86	0x3e3ad024	0.18243462
87	0x3d3f2de5	0.046674628
88	0x3dae32e5	0.08505801
89	0x3d8bc162	0.06823994
90	0x3d6e2f27	0.058150437
91	0x3e1321a6	0.14368305
92	0x3db11d33	0.086481474
93	0x3e12b3ae	0.14326355
94	0x3d791234	0.060808375
95	0x3e3db116	0.18524584
96	0x3d2dbf9c	0.04241906
97	0x3e02394b	0.12717168
98	0x3d65e9e4	0.05613126
99	0x3d81bc89	0.06334788
100	0x3d98b0ec	0.0745562
101	0x3cc0b29b	0.023522666
102	0x3d0701fa	0.03296087
103	0x3d6f7486	0.058460735
104	0x3e111a4b	0.14170186
105	0x3d137e96	0.036009394
106	0x3e1856c2	0.14876845
107	0x3d69d8ba	0.057091452
108	0x3dfe503b	0.124176465
109	0x3e0a8dab	0.13530605
110	0x3d5d7844	0.054069772
111	0x3d82dab9	0.06389374
112	0x3e4d30ab	0.20038097
113	0x3e29d466	0.1658493
114	0x3db0b8fe	0.086290345
115	0x3d88af22	0.06674029
116	0x3d5ee898	0.054421037
117	0x3dcd720f	0.100315206
118	0x3d3e643e	0.046482317
119	0x3dd3d776	0.1034383
120	0x3db5e3e2	0.08881356
121	0x3e5a92c3	0.21345048
122	0x3df0bd74	0.11754885
123	0x3d9c2ed2	0.07626118
124	0x3d6925f9	0.05692098
125	0x3d8b4f60	0.06802249
126	0x3dfbf6dd	0.12302945
127	0x3e27b9b2	0.16379431

weight f4 [1, 128, 4, 4]
0	0xbcd3417d	-0.025788063
1	0x3c91a6e7	0.01777978
2	0xbc93f773	-0.018062329
3	0xbc8c2590	-0.017107755
4	0xbbcac7f8	-0.006188389
5	0x3d17f294	0.037096575
6	0x3c16c95b	0.00920328
7	0x3d8ddb71	0.06926621
8	0xbc32416a	-0.010879854
9	0xbaf6c3de	-0.0018826684
10	0xbb22d8bf	-0.002484843
11	0xbbe9861e	-0.0071265837
12	0x3cca9c31	0.024732681
13	0xbc81bdb5	-0.01583753
14	0xbd18d555	-0.037312824
15	0x3b773e55	0.0037726362
16	0xbc12fe1e	-0.008971719
17	0x3bffb926	0.007804054
18	0x3c4573f5	0.012051572
19	0xbcb457d7	-0.022014542
20	0x3d0ff8e4	0.03514947
21	0x3d0e0798	0.03467521
22	0x3cfc3609	0.030787485
23	0x3aaaff64	0.0013046083
24	0x3d03f170	0.032212675
25	0x3c8c8974	0.017155387
26	0x3ca289a8	0.01984103
27	0xbc2b2f99	-0.01044836
28	0x3d1b1cdc	0.03786932
29	0xbd0bbc78	-0.034115285
30	0xbc605557	-0.013692222
31	0xbcc36bad	-0.023855055
32	0xbc44d3d4	-0.012013394
33	0xbcc9bd53	-0.02462641
34	0xbc52462c	-0.012834113
35	0xbca82d55	-0.020529428
36	0xbd0b963f	-0.034078833
37	0xbb2a1da7	-0.0025957616
38	0xbc789080	-0.01517117
39	0xbaa0557c	-0.0012232508
40	0xbc1c0042	-0.009521546
41	0x3c204ea1	0.009784372
42	0x3be1e247	0.0068934294
43	0xbb86240a	-0.0040936517
44	0xbc8fe12d	-0.017563427
45	0x3c308696	0.010774275
46	0x3b241f3d	0.0025043034
47	0xbd1fd02f	-0.0390169
48	0x3ce00032	0.027343843
49	0xbcddec33	-0.027090168
50	0xbcb4ddca	-0.022078414
51	0xbcb2070d	-0.021731878
52	0x3c6b2a2b	0.014353315
53	0xbb6de3e1	-0.0036299156
54	0x3cd3ea25	0.025868485
55	0xbc794343	-0.01521379
56	0x3c05c02f	0.008163496
57	0x3ad42472	0.0016185178
58	0xba844fa8	-0.001009454
59	0x3bf6bcc5	0.0075298273
60	0xbc200137	-0.009765915
61	0xbca6a751	-0.020343455
62	0x3cc200dd	0.023682052
63	0xbc31233a	-0.010811621
64	0x3cf93b39	0.030423747
65	0xbb61f8d4	-0.0034480589
66	0x3bed2832	0.0072374577
67	0xbbd3a57b	-0.006458936
68	0xbd27955b	-0.04091392
69	0x3c2426c6	0.01001901
70	0xbb23725f	-0.0024939997
71	0x3d57be35	0.05267163
72	0x3a0495c9	0.000505772
73	0x3bcc8104	0.006240966
74	0x3cb884fc	0.02252435
75	0x3d00c33e	0.031436197
76	0xbb85d7e3	-0.0040845736
77	0xbc51c2ca	-0.012802789
78	0x3c1aa963	0.009439799
79	0x3af89179	0.0018964253
80	0x3d26389f	0.04058134
81	0xbcbf46d8	-0.02334921
82	0xbc61a6be	-0.013772665
83	0xbc8f52a6	-0.017495465
84	0x3cd3f000	0.025871277
85	0xbc85102d	-0.016243065
86	0x3ca3a0de	0.019974168
87	0xbd4a9e9d	-0.04946767
88	0x3c2a6071	0.01039897
89	0xbc8ede21	-0.017439904
90	0xbce66034	-0.028122045
91	0x3c464116	0.012100479
92	0xbc174b15	-0.00923421
93	0x3ce98c43	0.028509265
94	0x3c1a9b5a	0.009436453
95	0x3b97c19c	0.0046312343
96	0x397f1c6e	0.00024329286
97	0x3cf6e3ef	0.030137984
98	0xbd1f2954	-0.038857773
99	0x3d9c2f6d	0.07626233
100	0x3c2881cc	0.010284852
101	0xbc7f372d	-0.01557712
102	0x3a1485f0	0.000566571
103	0x3af18539	0.0018426544
104	0xbd06cd28	-0.032910496
105	0x3c2512b6	0.010075262
106	0xb9746994	-0.00023308984
107	0xbc8afa87	-0.016965164
108	0x3c88d17d	0.016701454
109	0xbceec4c6	-0.029146563
110	0xbcd8b810	-0.026454955
111	0x3bd25308	0.0064185895
112	0xbd629d76	-0.055325948
113	0xb8b237d0	-8.498097e-05
114	0x3be73662	0.0070560435
115	0xbc8c371e	-0.017116126
116	0xbbd2d74d	-0.0064343573
117	0x3b8867f8	0.0041627847
118	0x3cfcb6d7	0.030848904
119	0xbc6d7b79	-0.01449477
120	0xbcb8796b	-0.022518834
121	0xbc03d27a	-0.008045787
122	0x3c6524a3	0.013985786
123	0x3c0ed155	0.008716901
124	0x3c48df57	0.01226028
125	0xbd00f4a3	-0.031483304
126	0xbc71c401	-0.014756204
127	0x3c86b3e9	0.01644321
128	0xb9c055e6	-0.00036685093
129	0x3d1e1c59	0.038601253
130	0xbae58736	-0.001751161
131	0x3cf12830	0.029438108
132	0xbc8c5186	-0.017128717
133	0x3bc37bfd	0.0059657083
134	0x3cff7d80	0.031187773
135	0xb86ecbf3	-5.6933564e-05
136	0x3b2ccff7	0.0026369074
137	0x3bffea58	0.0078099184
138	0x3c0bf231	0.00854163
139	0xbd03ce0c	-0.032178923
140	0xbd2013e3	-0.039081465
141	0x3c079be1	0.0082769105
142	0x3c505622	0.012715848
143	0xbc2d3b04	-0.010573152
144	0xbb3613f3	-0.0027782887
145	0xbc4235bc	-0.011853632
146	0xbb341f67	-0.0027484538
147	0xbb636ff5	-0.0034704183
148	0x3d0c5365	0.03425922
149	0x3a69b50e	0.0008915224
150	0x3be0a745	0.0068558776
151	0x3b8b1d30	0.004245423
152	0x3c6c326d	0.014416319
153	0x3cdeb0fe	0.027184006
154	0xbc54f9df	-0.012999027
155	0xbc63acfd	-0.013896224
156	0xbc8b8b69	-0.01703425
157	0xbc971ab9	-0.01844536
158	0xbc28051a	-0.010255123
159	0xbd105fe9	-0.035247717
160	0xbcd0a369	-0.025468545
161	0x3cc4bd19	0.02401595
162	0x3d08901b	0.033340555
163	0xbbef1b55	-0.0072969594
164	0xbc4ba60f	-0.012429728
165	0x3a5c9212	0.00084141
166	0xbbcabb03	-0.0061868443
167	0xb9cbeac9	-0.00038894106
168	0x3bc7c6ac	0.0060966816
169	0xbbe23b66	-0.0069040535
170	0xbc88c051	-0.016693266
171	0xbd06da9c	-0.032923326
172	0xbd0a8a4e	-0.033823304
173	0xbc2b12a3	-0.010441455
174	0x3c123429	0.008923569
175	0xbd0445c1	-0.032293085
176	0x3cbf9e35	0.023390869
177	0xbc9f798c	-0.019467138
178	0x3b264d9b	0.0025375846
179	0xbc51e075	-0.012809862
180	0x3cba52e7	0.022744609
181	0xbc52ce3b	-0.012866552
182	0xbc8313e3	-0.016000694
183	0x3bdc2f22	0.006719486
184	0x3cc52636	0.024066072
185	0x3b6be1f0	0.0035992824
186	0x3cbf80d8	0.023376867
187	0xba4779b7	-0.00076093845
188	0x3d184a5d	0.037180293
189	0x3a0d44d9	0.0005388982
190	0xbbb413c5	-0.005495521
191	0xbc19e3b6	-0.009392669
192	0x3cabbea4	0.020964928
193	0x3bb67c17	0.005568992
194	0x3cb44595	0.022005836
195	0x3c6d5015	0.014484425
196	0xbce4ed4c	-0.027945183
197	0xbbc0376e	-0.0058659827
198	0xbd76b980	-0.0602355
199	0xbc38a932	-0.011270808
200	0xbcbb93b1	-0.022897573
201	0xbc8060e0	-0.015671194
202	0xbca37c59	-0.019956755
203	0x3872cfe7	5.789092e-05
204	0xbd004b13	-0.031321596
205	0x3c838fa8	0.016059712
206	0xba7a18e9	-0.0009540455
207	0xbce0e2b1	-0.027451845
208	0xbcdb54b5	-0.02677379
209	0xbcd3e168	-0.025864318
210	0x3c51eafc	0.012812372
211	0x3ccff792	0.025386605
212	0xbd04a850	-0.032387078
213	0xbb3cfae1	-0.002883606
214	0xbb227539	-0.0024789108
215	0x3d1d5f68	0.038421065
216	0x3ba6fac7	0.005095813
217	0xbc14582f	-0.009054228
218	0xbc984317	-0.018586678
219	0x3d01437d	0.031558502
220	0x3c991fc2	0.018691901
221	0x3ccbad2c	0.024862848
222	0x3c5018bd	0.012701211
223	0xbc46959b	-0.01212063
224	0xbbdac12a	-0.006675859
225	0xbd291b6f	-0.04128593
226	0xbca05ca1	-0.019575419
227	0xbca0b60a	-0.019618053
228	0xbd0e7036	-0.03477498
229	0x3c0bb493	0.008526939
230	0xbc306a68	-0.010767557
231	0xbce3bc07	-0.02779962
232	0x3c93bd93	0.018034732
233	0x3b9cd3fb	0.004786012
234	0xbc681d16	-0.014167091
235	0xba319a4e	-0.00067750074
236	0x3c37c402	0.0112161655
237	0x3bfecc5e	0.0077758273
238	0xbce52235	-0.027970413
239	0xbc838493	-0.016054427
240	0xbcdb9baf	-0.026807634
241	0x3c9fe7d3	0.019519722
242	0xbc54b66a	-0.012982944
243	0xbc784901	-0.015154124
244	0xbce9a045	-0.028518805
245	0x3c8d8708	0.017276302
246	0xbb8da8c1	-0.0043230955
247	0xbbecb7e7	-0.0072240713
248	0xbd1e36f9	-0.038626645
249	0x3c8375e7	0.016047431
250	0x39a0c2f8	0.0003066284
251	0x3cb9c65a	0.02267759
252	0x3814ad02	3.5447076e-05
253	0x3ac9dbef	0.0015400628
254	0x3b936951	0.0044986387
255	0x3cff10fa	0.031136025
