cifar-10/netD.pt (torch_old, 698419 bytes, 12 tensors)

weight f4 [32, 3, 4, 4]
0	0xbc9a6498	-0.018846795
1	0xbbc5421e	-0.0060198447
2	0xbc3d9c70	-0.011572942
3	0x3d3f33a1	0.046680097
4	0x3b0d0195	0.0021515836
5	0xbbefa634	-0.007313514
6	0xbc961e1a	-0.0183249
7	0xbcc93386	-0.024560701
8	0x3cdab739	0.026698695
9	0x3bc5c2cc	0.0060351845
10	0x3b3845cc	0.0028117774
11	0xbc9bc7c5	-0.019016156
12	0x3a4a5d53	0.0007719595
13	0x3c8d918c	0.017281316
14	0x3c6e0d79	0.014529579
15	0xbac39190	-0.00149207
16	0x3ac3af31	0.001492953
17	0x3cfcc6fe	0.030856606
18	0x3ce7d722	0.028300826
19	0x3b7fc6d8	0.0039028432
20	0x3d0421b7	0.032258715
21	0xbd3b64ba	-0.045750357
22	0xbcaadea9	-0.020858126
23	0xbb7b58f8	-0.003835259
24	0xbb482128	-0.003053734
25	0x3c0bbf0b	0.008529435
26	0xbcec1892	-0.02882031
27	0x3c65162c	0.013982337
28	0xbcea9547	-0.028635634
29	0x3b8c0bed	0.0042738826
30	0x3d176742	0.03696371
31	0x3c4cd724	0.012502465
32	0x3bd1a525	0.0063978606
33	0x3d0e399a	0.034722902
34	0x3be595d6	0.007006387
35	0xbc601523	-0.013676914
36	0x3b85f627	0.0040881815
37	0x3d4ea89e	0.050453775
38	0x3b434fa3	0.0029802106
39	0x3c53db8e	0.012930764
40	0xbc6c4dfe	-0.014422892
41	0xbc86229b	-0.016373923
42	0x3cc533e4	0.024072595
43	0x3cbaa039	0.022781478
44	0x3c9c34f5	0.01906822
45	0xbc6ad2e8	-0.0143325105
46	0x3d0661d2	0.032808132
47	0xbc325d47	-0.010886497
48	0xbc0ef4e5	-0.00872538
49	0x3b9f0c1a	0.0048537375
50	0xbb5c258b	-0.0033591713
51	0x3b3338c3	0.0027347065
52	0xbc073bf1	-0.008254037
53	0x3c8a3e3a	0.016875375
54	0xbb85f915	-0.004088531
55	0x3bfacc7d	0.0076537714
56	0x3c918a4c	0.01776614
57	0x3a98c6c9	0.0011655922
58	0xbadfed08	-0.0017084191
59	0x3d38721a	0.04503069
60	0xbbb4e0ba	-0.0055199536
61	0x3cbc3eb4	0.022979118
62	0x3d093179	0.033494446
63	0x3d0f3d9a	0.034970857
64	0x3bbf493f	0.005837589
65	0x3cf05894	0.029339112
66	0xbc290f00	-0.010318518
67	0x3cbf8d3a	0.023382772
68	0x3b7a3ab4	0.0038181962
69	0x3cacf88c	0.02111461
70	0x3c62839a	0.013825322
71	0xbbf6f33a	-0.007536319
72	0x3b593e0f	0.0033148562
73	0x3ca05905	0.019573698
74	0xbc464ce8	-0.012103297
75	0x39282160	0.00016034162
76	0xbb99652e	-0.004681251
77	0xbb71a161	-0.003686987
78	0xbd01a162	-0.031648047
79	0x3ca40efb	0.020026674
80	0xbc8ec451	-0.017427595
81	0xbcc87e85	-0.024474392
82	0xb9edb6af	-0.00045340272
83	0x3cbfe3d2	0.023424063
84	0xbb9b7857	-0.0047445702
85	0x3a8ee5b8	0.0010902202
86	0x3c0f1e31	0.008735226
87	0x3c61470b	0.013749848
88	0xba698fde	-0.00089096825
89	0xbc4e170d	-0.012578738
90	0xbb9636fd	-0.004584192
91	0x3a85b0a1	0.0010199734
92	0x3be48844	0.006974252
93	0xbc6b3a8d	-0.014357221
94	0x3cc0523b	0.02347671
95	0x3c8aa4be	0.016924258
96	0xbbd14a64	-0.006387042
97	0x3d2432cf	0.040087517
98	0x3b9a2e5b	0.004705233
99	0xbc79ba47	-0.015242166
100	0xbb1cba64	-0.0023914808
101	0xbd252211	-0.04031569
102	0x3c2648ee	0.010149224
103	0x3c505ef2	0.012717949
104	0xbc2d4e4d	-0.01057775
105	0xbc426f37	-0.011867336
106	0x3ccb8db0	0.024847835
107	0x3cb149f5	0.02164171
108	0x3d0dd619	0.034628008
109	0xbb004c04	-0.001957656
110	0xbca7354a	-0.020411152
111	0x3c479708	0.012182005
112	0x3c36a322	0.011147292
113	0x3c2f989e	0.010717539
114	0xbcf82e29	-0.030295448
115	0xbd31a165	-0.04336681
116	0x3d1667fb	0.036720257
117	0x3cd058c8	0.02543296
118	0xbc19648c	-0.009362351
119	0x3cd2cff5	0.025733927
120	0x3cdf40a6	0.027252506
121	0xbc366a61	-0.011133761
122	0x3c09b306	0.008404499
123	0x3c938d3b	0.01801168
124	0xbd170b87	-0.036876228
125	0x3cc05921	0.02348
126	0xbcb173aa	-0.021661598
127	0x3c11f8ff	0.008909463
128	0xbb07a774	-0.0020699175
129	0xbc1efd33	-0.009703922
130	0xbceffa26	-0.029294085
131	0xbbbc86e1	-0.0057533835
132	0xbd08a47e	-0.033359997
133	0xbb142473	-0.0022604733
134	0xbcfa3c30	-0.030546278
135	0x3c4ed0eb	0.012623052
136	0x3c888d9f	0.016669093
137	0x3d183610	0.037160933
138	0xbc733650	-0.014844492
139	0xbcf2862d	-0.029604996
140	0xbc67a60f	-0.014138713
141	0x3cee2fbd	0.029075498
142	0xbb6aafc0	-0.0035810322
143	0x3af5122a	0.001869743
144	0x3cbfaf24	0.023398943
145	0xbd054394	-0.03253515
146	0xbc86f2a5	-0.016473124
147	0x3b5a9c90	0.0033357479
148	0xbc62cf3d	-0.013843355
149	0x3ce2b1b3	0.027672624
150	0xbca5bd99	-0.020232009
151	0x3d2d89e3	0.042367827
152	0xbcd2238e	-0.02565172
153	0xbbecfcd8	-0.0072322898
154	0x3c553db4	0.013015199
155	0x3d60f9c6	0.054925703
156	0x3c890d65	0.01673002
157	0xbc9c9496	-0.01911382
158	0xba3a98f3	-0.0007118128
159	0xb8382974	-4.3907625e-05
160	0xbd26c24e	-0.040712647
161	0xbc3be907	-0.011469132
162	0xbd17e6da	-0.03708539
163	0x3ccc855b	0.024965933
164	0xbcc836cd	-0.024440194
165	0x3d6308aa	0.055428185
166	0x3ca3d4c0	0.019998908
167	0xbc40c279	-0.011765116
168	0x3d571d5d	0.052518237
169	0xbbe6c225	-0.007042187
170	0x393dd72d	0.00018104604
171	0xbc141b29	-0.009039679
172	0xbce57b85	-0.028013
173	0x3cf31e01	0.029677393
174	0xbc8ab21b	-0.01693063
175	0xba857d6d	-0.0010184475
176	0xbadc24d5	-0.0016795645
177	0x3cbcc7d3	0.023044502
178	0x3c27a8e5	0.010233139
179	0xbcd00cf9	-0.02539681
180	0x3c95a508	0.01826717
181	0x3aa46695	0.0012542779
182	0x3a13d0ba	0.00056387077
183	0x3c694e9a	0.0142399315
184	0x3cf207b0	0.029544681
185	0x3b8b8d07	0.004258755
186	0x3c4b2ab3	0.012400317
187	0xbb0d4dd7	-0.0021561289
188	0x3bfc3890	0.0076971725
189	0x3ba55fc7	0.005046818
190	0xbcb0d213	-0.021584546
191	0x3a8b61a2	0.0010633955
192	0x3ce92020	0.028457701
193	0xbce10d50	-0.027472168
194	0x3cd3e069	0.025863843
195	0x3c14a1f3	0.009071815
196	0xbb921978	-0.0044586025
197	0xbb561392	-0.0032665473
198	0x3c203c87	0.009780056
199	0x3cb69089	0.022285717
200	0xbc6d8a10	-0.014498249
201	0xbad18219	-0.0015984207
202	0xbc297696	-0.0103432145
203	0xbc56045d	-0.013062564
204	0x3ce7f120	0.02831322
205	0xbc0e1499	-0.008671903
206	0xba60eff8	-0.000858068
207	0x3b68c5dc	0.0035518324
208	0x3cb060c7	0.021530522
209	0xbc9ddb91	-0.019269736
210	0xbca0e0f5	-0.019638518
211	0x3c8568ac	0.016285263
212	0x3c42b91d	0.011884955
213	0x3b94e7ec	0.004544249
214	0xbb273b53	-0.0025517538
215	0xbc13f1fb	-0.009029861
216	0x39ac944d	0.0003291689
217	0x3bfac8f5	0.0076533505
218	0xbcee1cbc	-0.029066436
219	0xbd0071fe	-0.03135871
220	0xbc68fb4e	-0.014220072
221	0x3bc09af5	0.0058778473
222	0x3c149710	0.009069219
223	0xbd0eaf85	-0.034835357
224	0xbd2e1075	-0.042496163
225	0xbc94c8ba	-0.01816212
226	0xbcb2d20b	-0.021828672
227	0x3ca9672b	0.020679077
228	0x3b5e395a	0.0033908696
229	0xbd4ebfd6	-0.050475918
230	0x3c3a99b1	0.011389182
231	0xbc11dced	-0.0089027705
232	0x3ced49da	0.02896588
233	0xbc1647b3	-0.009172368
234	0x3ce3c56b	0.027804097
235	0x3d480c7d	0.048840035
236	0xbc180233	-0.009277868
237	0xbbfb67e4	-0.007672297
238	0xbc390fc4	-0.011295263
239	0xbcd31cda	-0.025770593
240	0x3b6ffe9c	0.0036620265
241	0x3af99f39	0.0019044644
242	0xbd2c1d58	-0.042020172
243	0x3cb03a62	0.021512214
244	0xbcf970dc	-0.030449323
245	0xbb605d16	-0.003423517
246	0x3cb9ddbf	0.022688745
247	0x3c251a49	0.010077068
248	0x3ca1b397	0.019738955
249	0x3bfc8e6c	0.0077074077
250	0xbbc37655	-0.005965034
251	0x3c949e5c	0.018141918
252	0x3cc24e44	0.02371896
253	0xbd15a78c	-0.03653674
254	0x3c849490	0.016184121
255	0x3c009777	0.007848612

weight f4 [64, 32, 4, 4]
0	0xbc6311c8	-0.01385922
1	0xba185830	-0.0005811481
2	0x3c48ee32	0.012263821
3	0x3c0e243c	0.008675631
4	0xbba30695	-0.00497515
5	0x3c095170	0.008381233
6	0x3d2550d7	0.040360298
7	0xbd051835	-0.03249379
8	0xbba32dd8	-0.0049798302
9	0xbcb6550b	-0.022257349
10	0xbccc211f	-0.024918137
11	0x3c8e8059	0.017395185
12	0xbc4326fc	-0.01191115
13	0xbcb7ad11	-0.022421392
14	0xbcbe6e41	-0.023245933
15	0x3d1654d7	0.036702003
16	0x3ba099c0	0.004901141
17	0xbcbb9f97	-0.022903247
18	0x3c1e4668	0.009660341
19	0xbc538632	-0.012910413
20	0x3cabff4e	0.020995762
21	0x3b2bb087	0.0026197748
22	0x3a36e6eb	0.00069771585
23	0x3c7ab8f4	0.015302885
24	0x3b65295e	0.0034967284
25	0xbc2166fb	-0.009851213
26	0x3c0df408	0.008664139
27	0x3c98d047	0.018654002
28	0x3c6fd513	0.014638203
29	0xbcdfd5b7	-0.027323587
30	0xbd24d103	-0.04023839
31	0x3c321453	0.0108691035
32	0x3ced16a3	0.028941458
33	0xbbefa112	-0.0073129022
34	0xbc017e7c	-0.007903691
35	0x3cbcbbad	0.02303871
36	0x3d16ce13	0.03681762
37	0x3c039c0b	0.008032809
38	0xb908337d	-0.00012989152
39	0x3ca44b9f	0.02005559
40	0x3c19432c	0.009354394
41	0x3cc469e1	0.023976268
42	0x3c83a734	0.01607094
43	0x3c36a518	0.01114776
44	0x3c61f0f2	0.013790356
45	0xbb8f70d2	-0.004377463
46	0xbc7a9758	-0.015294872
47	0x3c806938	0.015675172
48	0x3ba6a431	0.005085491
49	0x3af98a38	0.0019038385
50	0x3c79dc62	0.015250297
51	0x3c11a73c	0.008889969
52	0x3c7e346f	0.015515431
53	0x3d4730ee	0.048630647
54	0x3cb69122	0.022286002
55	0x3ca2f391	0.019891532
56	0x3be6dd03	0.0070453896
57	0x3c3e315f	0.011608451
58	0x3d1a213e	0.03762936
59	0xbd790400	-0.06079483
60	0xbcf426d3	-0.02980367
61	0x3caef8da	0.021358896
62	0x3c451c45	0.012030666
63	0x396decf7	0.00022690358
64	0xbaa6adb6	-0.0012716565
65	0xb8fe8827	-0.00012137024
66	0xbaa0d95c	-0.0012271809
67	0x3c140f16	0.0090368
68	0xbcaf9fa9	-0.021438437
69	0xbbf93c59	-0.007606071
70	0x3ca322cb	0.019914052
71	0xbc3c893f	-0.011507331
72	0x3bdbe1d0	0.0067102686
73	0x3c3d96a9	0.011571565
74	0x3d1d5306	0.038409255
75	0xbc2278e8	-0.009916522
76	0xbb37946c	-0.002801205
77	0x3cc259e5	0.023724506
78	0x3c082473	0.008309471
79	0xbc95770c	-0.018245243
80	0xbd38864a	-0.045049943
81	0x38145aba	3.5370445e-05
82	0xbbb714d8	-0.0055872016
83	0x3cb433cc	0.021997355
84	0xbb841881	-0.0040312414
85	0xbcad643d	-0.021165961
86	0xbcb68204	-0.022278793
87	0xbbf06257	-0.007335942
88	0xbc19b103	-0.009380582
89	0x3bf2b114	0.0074063633
90	0xbb82df23	-0.003993885
91	0xbd0e158c	-0.034688517
92	0xbcb4cc37	-0.022070033
93	0xb8fbb4c7	-0.00012002285
94	0x3c1ba893	0.00950064
95	0xba9a67f8	-0.0011780253
96	0xbd5c6b46	-0.05381324
97	0xbc023856	-0.007948002
98	0xbc8b6364	-0.017015167
99	0x3b37050f	0.00279266
100	0x3ce578ef	0.028011767
101	0x3c684c6f	0.014178379
102	0x3a9bfc7a	0.0011900805
103	0xba4e5974	-0.0007871606
104	0xbd3610c5	-0.044449586
105	0xbc04872c	-0.008088868
106	0xbcaba6d3	-0.020953571
107	0x3c042d55	0.008067449
108	0xbc40b745	-0.011762445
109	0xbd20aaf1	-0.039225522
110	0xbcb99494	-0.022653855
111	0xbd0b3d9a	-0.033994295
112	0xbcde231d	-0.027116353
113	0xbbc8ce7a	-0.0061281295
114	0x3c73422e	0.014847321
115	0xbb77650f	-0.0037749445
116	0x3c58f0f5	0.013241042
117	0xba800aff	-0.0009768902
118	0xbd154cea	-0.036450304
119	0xbc952c6f	-0.018209664
120	0xbc26d992	-0.010183709
121	0xbc87aeeb	-0.0165629
122	0x3d01587c	0.031578526
123	0xbaebc91f	-0.0017989016
124	0x3baeb105	0.005331161
125	0x3c878028	0.016540602
126	0xbbdc7f1d	-0.0067290203
127	0xbb8d743a	-0.004316834
128	0xbd00c23e	-0.031435244
129	0xbca3e4f4	-0.020006634
130	0xbbeced7e	-0.0072304597
131	0xbc8d509c	-0.017250352
132	0x3bc02259	0.0058634696
133	0x3c994731	0.018710705
134	0x3ce99fe0	0.028518617
135	0xbc0eee2c	-0.008723777
136	0x3c4a51a2	0.012348564
137	0xbd100b07	-0.035166766
138	0xbc26f064	-0.0101891495
139	0xbaf2d133	-0.0018525481
140	0xbca38463	-0.019960588
141	0xbc9eaf96	-0.019370835
142	0x3bf632cf	0.007513381
143	0x3c157abd	0.009123501
144	0xbbfc3b59	-0.0076975045
145	0xbcb77d6e	-0.022398677
146	0xba3ebce9	-0.00072760746
147	0xbce6b8b6	-0.028164249
148	0xbbf97228	-0.0076124854
149	0x3bc79cce	0.0060916906
150	0x3c955777	0.018230183
151	0xbbcd583f	-0.0062666233
152	0xbbb5c44f	-0.0055470834
153	0x3b9b2e06	0.004735711
154	0xbca939d0	-0.02065745
155	0xbcca1b3e	-0.024671193
156	0x3c8d4ae1	0.01724762
157	0x3c200ac7	0.0097681945
158	0xbbe472ad	-0.006971678
159	0xbc0dda1f	-0.008657961
160	0xbb8d0fd5	-0.004304866
161	0x3cc9cdb7	0.024634225
162	0xbb8a0ac1	-0.0042127077
163	0xba8bfa4b	-0.0010679452
164	0xbcd5944f	-0.026071696
165	0x3b25a034	0.002527249
166	0x3cf61c5c	0.03004282
167	0x3bbefdbd	0.005828588
168	0x3a1e846b	0.00060469535
169	0xbc828968	-0.015934661
170	0x3c02f9c0	0.007994115
171	0xbd3aead1	-0.045634095
172	0x3cb857d9	0.022502827
173	0x3cef7581	0.029230835
174	0xbd165ff3	-0.036712598
175	0xba0a1785	-0.0005267787
176	0xbbdab673	-0.0066745817
177	0x3ca2188b	0.019787094
178	0x3b269e12	0.0025423807
179	0xbd06e754	-0.032935455
180	0x3ab0c2f4	0.0013485835
181	0xbc7f1595	-0.01556911
182	0xbafc2549	-0.0019237186
183	0x3c18f5ad	0.009335917
184	0x3cedd5ac	0.02903255
185	0xbc49c87b	-0.012315865
186	0xbcce2547	-0.02516426
187	0xbd06bf83	-0.032897484
188	0xbd0060e5	-0.031342406
189	0x3b65c194	0.0035058009
190	0x3cbe77c5	0.02325047
191	0xbb1b77da	-0.002372256
192	0x3cb5e4a6	0.022203755
193	0xbbbc9a6f	-0.0057557146
194	0xbc895b70	-0.016767234
195	0xbc811fd8	-0.015762255
196	0xbc536b19	-0.012903952
197	0xbd3431de	-0.04399287
198	0xbcede23c	-0.029038541
199	0x3ca61e78	0.0202782
200	0xbcb0e038	-0.02159129
201	0xba99ad5b	-0.0011724638
202	0x3c417390	0.011807337
203	0x3b94c9be	0.004540651
204	0xbbb333b7	-0.0054688114
205	0x3ca514d5	0.020151535
206	0xbbb53bda	-0.0055308165
207	0xbce26303	-0.027635103
208	0xbd54eb5a	-0.05198226
209	0x3ce6cfed	0.028175319
210	0xbbb000f2	-0.0053712064
211	0x3ba3e227	0.0050013247
212	0x3c8e77eb	0.017391166
213	0xbc10ff74	-0.008849967
214	0x39bcca33	0.00036008804
215	0xbc7cfb5f	-0.015440791
216	0xbc663c10	-0.014052406
217	0x3cdecf82	0.027198557
218	0x3c76e01a	0.015068078
219	0xbc79317b	-0.015209551
220	0xbc8c35e5	-0.017115543
221	0x3c55db0a	0.013052711
222	0x3c289da3	0.01029149
223	0x3b3d2a08	0.0028864164
224	0x3b7494fb	0.0037320245
225	0x3b86f847	0.0041189524
226	0xbc0343e6	-0.008011794
227	0xbae74149	-0.0017643358
228	0x3c9b34dd	0.018946106
229	0xbca7f0f7	-0.020500643
230	0x3d0183d6	0.03161987
231	0xbca58ddb	-0.020209244
232	0x3b5f568e	0.003407869
233	0x3cc8fdc7	0.024535073
234	0x3c3b0b71	0.011416302
235	0x3c141b67	0.009039736
236	0x3cc6e63a	0.024279702
237	0x3c193319	0.009350562
238	0xbc2b4969	-0.010454514
239	0x3c492687	0.012277252
240	0xbccaf501	-0.02477503
241	0x3b6fe46c	0.0036604656
242	0xbc4d634e	-0.012535883
243	0xbc8bde1a	-0.01707368
244	0x3b294361	0.0025827514
245	0xbc69bc3b	-0.014266069
246	0xbcbe6dca	-0.02324571
247	0xbd1f8beb	-0.038951796
248	0x3c7efc35	0.0155630605
249	0xbac8b2b7	-0.001531205
250	0x3c84372d	0.016139591
251	0xbd578b76	-0.052623235
252	0x3c8922c5	0.016740212
253	0xbc1d4c48	-0.009600706
254	0x3cb3cc6b	0.02194806
255	0x3c6c9daf	0.014441892

weight f4 [64]
0	0x3f78ef01	0.9723969
1	0x3f80776e	1.0036447
2	0x3f7f3611	0.99691874
3	0x3f846f00	1.0346375
4	0x3f803002	1.0014651
5	0x3f7a6083	0.97803515
6	0x3f7f802d	0.99804956
7	0x3f82052f	1.0157832
8	0x3f8062b0	1.0030117
9	0x3f81fae8	1.0154696
10	0x3f7e25e0	0.9927654
11	0x3f7d2b3e	0.9889411
12	0x3f806186	1.0029762
13	0x3f78dffb	0.9721677
14	0x3f8496b8	1.0358496
15	0x3f8143b3	1.0098785
16	0x3f81e255	1.0147196
17	0x3f80a7f7	1.0051259
18	0x3f7c2a37	0.98501915
19	0x3f779af7	0.9672083
20	0x3f7cd237	0.9875826
21	0x3f801623	1.0006756
22	0x3f7c3f32	0.9853393
23	0x3f7e87f8	0.9942622
24	0x3f83030b	1.0235304
25	0x3f7d8d22	0.99043477
26	0x3f7f5989	0.99745995
27	0x3f843bf0	1.0330791
28	0x3f7d546f	0.9895696
29	0x3f7bed99	0.9840942
30	0x3f828660	1.0197258
31	0x3f7490b3	0.95533293
32	0x3f7f0247	0.9961285
33	0x3f8029ad	1.0012718
34	0x3f82b147	1.0210351
35	0x3f7c4610	0.98544407
36	0x3f7bc8b4	0.98353124
37	0x3f79d1f5	0.97585994
38	0x3f822460	1.0167351
39	0x3f7fd70c	0.9993751
40	0x3f78a8d4	0.9713261
41	0x3f78e3e8	0.9722276
42	0x3f7c7da9	0.9862924
43	0x3f7e1c45	0.99261886
44	0x3f7ef352	0.9959003
45	0x3f824c02	1.0179446
46	0x3f7d6511	0.9898234
47	0x3f81adbc	1.0131145
48	0x3f806c57	1.0033063
49	0x3f7d8bf2	0.99041665
50	0x3f8318ad	1.0241905
51	0x3f803d9f	1.0018805
52	0x3f846150	1.0342197
53	0x3f7b2c44	0.9811442
54	0x3f8283af	1.0196437
55	0x3f808765	1.0041319
56	0x3f7d34fb	0.98908967
57	0x3f8100d4	1.0078378
58	0x3f790282	0.9726945
59	0x3f7a516d	0.97780496
60	0x3f80d757	1.0065717
61	0x3f7aaa6b	0.9791629
62	0x3f7fc9fd	0.99917585
63	0x3f7a804a	0.97852004

bias f4 [64]
0	0x3aabf179	0.0013118229
1	0xbb577f5e	-0.0032882313
2	0x3c1cb5da	0.009564841
3	0x3b96031b	0.004578007
4	0xb9d08f9d	-0.00039779852
5	0x3a7b74c9	0.00095922925
6	0x3c16878a	0.0091875885
7	0x3b919576	0.004442866
8	0xbaa5deb2	-0.0012654869
9	0x3bd2d6ae	0.006434283
10	0xbb009ff9	-0.00196266
11	0x3b76552d	0.003758739
12	0x3c2131fd	0.009838578
13	0x3b381db5	0.0028093879
14	0x3b99be6d	0.00469189
15	0x3be68987	0.0070354375
16	0xbb543433	-0.0032379746
17	0xbae91286	-0.001778201
18	0xbb87463c	-0.0041282456
19	0xbba69161	-0.0050832485
20	0x3b61e8c9	0.0034471026
21	0xbb2816c9	-0.0025648347
22	0xbb20ebcf	-0.0024554615
23	0x3aea1cd6	0.0017861377
24	0x3befc2b5	0.007316912
25	0x3b967275	0.004591281
26	0xbb513fa5	-0.0031928804
27	0x3b36c06a	0.0027885684
28	0x3bd1c0dd	0.006401165
29	0x3b8ad7e2	0.004237161
30	0x3c255cd9	0.010092937
31	0xbbbfc7f0	-0.005852692
32	0x3b8b0713	0.0042427867
33	0x3c30109b	0.010746147
34	0xb9f90b02	-0.00047501182
35	0xbb6a451e	-0.0035746763
36	0x3bc61636	0.006045128
37	0x3a7b0412	0.00095754967
38	0x3a849408	0.0010114918
39	0xba39f5aa	-0.0007093797
40	0x39999ada	0.00029297807
41	0x3b54c12b	0.003246377
42	0x3b31a763	0.0027107827
43	0xbbfc662b	-0.007702609
44	0x3b972137	0.004612114
45	0x3b1b1a36	0.0023666746
46	0xbb17f3d9	-0.0023186116
47	0x3b8134f8	0.003943082
48	0x3ae07a44	0.0017126282
49	0x3b804c07	0.003915313
50	0xba501056	-0.00079370046
51	0xbbb9edd0	-0.0056741014
52	0xbaf94262	-0.0019016976
53	0x3b68a385	0.0035497856
54	0xb84657f2	-4.7288784e-05
55	0xba9d67cc	-0.0012009083
56	0xbb080ba8	-0.00207589
57	0x39df0bbb	0.00042542614
58	0x3bc43827	0.005988139
59	0xbbfb6fea	-0.0076732533
60	0x3c13e34c	0.00902636
61	0xba276dc0	-0.00063868985
62	0x3c02fe91	0.007995264
63	0x3b63bb5e	0.003474913

running_mean f4 [64]
0	0xbcbd322e	-0.023095217
1	0x3a32ec20	0.00068253465
2	0xba42666d	-0.00074157753
3	0xba63919b	-0.00086810597
4	0xbc457bab	-0.0120534105
5	0xbca88110	-0.020569354
6	0x3bc9ac5e	0.006154581
7	0xbc626048	-0.013816901
8	0xbc879436	-0.016550165
9	0x3cae31f8	0.021264061
10	0x3bb43275	0.005499179
11	0x3bc791ce	0.0060903793
12	0xbad7820b	-0.0016441954
13	0xbc8f5fd2	-0.017501745
14	0xbc41b2dd	-0.0118224295
15	0x3bfca5d4	0.007710198
16	0xb9482888	-0.00019088585
17	0x3b765661	0.0037588107
18	0xbbfbc638	-0.0076835416
19	0xbc234cb6	-0.00996702
20	0xb846cb16	-4.7396017e-05
21	0xbcc3b554	-0.023890175
22	0x3bd0c850	0.0063715354
23	0xbc7fa24f	-0.015602662
24	0xbc18335a	-0.009289587
25	0xb9f50217	-0.000467316
26	0xbb7a2f11	-0.0038175026
27	0xbad05639	-0.0015894837
28	0xbab0e73c	-0.0013496648
29	0x3a05e564	0.0005107729
30	0x3ad0319d	0.0015883927
31	0x3b9739cd	0.0046150447
32	0xbc3acb8b	-0.0114010675
33	0xb97e1494	-0.00024230994
34	0x3be647a1	0.007027582
35	0xbc894636	-0.016757112
36	0xba2abf19	-0.0006513461
37	0x3bae29a6	0.0053150235
38	0x3baf9e9d	0.0053594843
39	0xbc1efcab	-0.009703795
40	0x3b0e1a5d	0.0021683194
41	0xbcfbddb2	-0.030745361
42	0xbbcc234e	-0.0062297946
43	0x3a6ffdab	0.0009154926
44	0x3b9d59d6	0.004801969
45	0xb7c6f0a5	-2.3715498e-05
46	0xbab36dc3	-0.0013689328
47	0x3c4ab190	0.012371436
48	0x3c5719eb	0.013128738
49	0x3b09eb6b	0.002104486
50	0xb9524fd1	-0.00020056895
51	0x3c4877fd	0.012235639
52	0x3c45e0a8	0.012077488
53	0x3c09cbd1	0.00841041
54	0x3b5345cf	0.0032237654
55	0x3b7b2fed	0.0038328127
56	0x3c5cf3b0	0.013485834
57	0xbc10db99	-0.008841419
58	0x3a2bf9e2	0.0006560368
59	0xbb994624	-0.004677551
60	0xbb1139aa	-0.0022159615
61	0x3c59e3af	0.013298913
62	0xbbd44c20	-0.0064788014
63	0x3c5cad67	0.013469077

running_var f4 [64]
0	0x38b6041e	8.679203e-05
1	0x39173899	0.00014421566
2	0x39a141a6	0.00030757225
3	0x390fd578	0.00013717066
4	0x38f37427	0.00011608778
5	0x38a372d1	7.793832e-05
6	0x3883aac9	6.278378e-05
7	0x39038bb0	0.00012545171
8	0x39911703	0.000276737
9	0x38c01e98	9.160972e-05
10	0x38c08a25	9.181005e-05
11	0x3898aaaa	7.2797135e-05
12	0x388f26fd	6.8260335e-05
13	0x38e8ed9e	0.00011106882
14	0x38936162	7.027645e-05
15	0x39219ddd	0.00015412965
16	0x38f84aab	0.000118394695
17	0x38a774e7	7.984955e-05
18	0x392bce0e	0.00016384592
19	0x3895724b	7.1261624e-05
20	0x391d7bac	0.00015018758
21	0x388dde3f	6.7648005e-05
22	0x385418db	5.0567887e-05
23	0x38a265fe	7.7437595e-05
24	0x3914d629	0.00014194161
25	0x392a66b5	0.00016250725
26	0x395c09be	0.00020984464
27	0x39164aee	0.00014333028
28	0x390712ae	0.00012881562
29	0x38f3aa19	0.00011618826
30	0x38bf642b	9.1262475e-05
31	0x3928e246	0.00016106022
32	0x3939d878	0.00017723616
33	0x3945238f	0.0001880063
34	0x390ba94c	0.00013319141
35	0x38485df4	4.7771216e-05
36	0x38d57c8f	0.00010179832
37	0x38d90df9	0.00010349969
38	0x391b20af	0.00014794127
39	0x391b9cd7	0.0001484038
40	0x38ffaf1c	0.00012191964
41	0x38b8bbf0	8.80881e-05
42	0x38b5e316	8.6730506e-05
43	0x37faa9cd	2.9881392e-05
44	0x39671c6a	0.00022040462
45	0x39ad524f	0.00033058456
46	0x38b6f9e6	8.7249835e-05
47	0x39bb68c0	0.00035745464
48	0x3892a447	6.9924215e-05
49	0x38a92cba	8.066879e-05
50	0x38e475dc	0.0001089384
51	0x38d8044a	0.000103004815
52	0x3971d142	0.00023061506
53	0x3978bad9	0.00023720729
54	0x38a53c3f	7.879035e-05
55	0x38b61689	8.682634e-05
56	0x3917618f	0.00014436826
57	0x38de7c87	0.0001060898
58	0x3881f2c1	6.196416e-05
59	0x393870e6	0.00017589665
60	0x3905972e	0.00012740187
61	0x38dfdb92	0.00010674367
62	0x3801040a	3.075976e-05
63	0x38dce3c3	0.000105328414

weight f4 [128, 64, 4, 4]
0	0x3bce93bf	0.006304234
1	0xbd0231bb	-0.031785708
2	0xbbb6fd50	-0.0055843964
3	0x3aa05268	0.001223159
4	0xbc5d0624	-0.013490234
5	0xbcb1c553	-0.021700537
6	0x3cd6049c	0.026125245
7	0x3cda5e2c	0.026656233
8	0x3a844d79	0.001009389
9	0x3c88fb08	0.016721264
10	0x3a0a9a5c	0.00052872836
11	0xbc5e1ba6	-0.013556397
12	0x3b9eb1cc	0.0048429724
13	0x3cba2098	0.02272062
14	0x3c3578ae	0.011076136
15	0xbc63ebf7	-0.013911239
16	0x3c5808f1	0.013185726
17	0xbaee7953	-0.0018194116
18	0xbbf8e497	-0.0075956094
19	0xbcc226fc	-0.02370023
20	0x3c60c4b1	0.01371877
21	0xbce4eabd	-0.027943963
22	0xbc13ef47	-0.009029216
23	0xbb26f0d1	-0.0025473128
24	0xbc7bf30b	-0.01537777
25	0x3c299ac3	0.0103518395
26	0xbc79b30e	-0.015240444
27	0x3baf4e4b	0.0053499094
28	0x3c8d4e2b	0.017249187
29	0xb98d2891	-0.0002692384
30	0xbc610a45	-0.013735359
31	0xbcd4fb2a	-0.02599867
32	0x3c991d67	0.018690778
33	0xbcf35fa7	-0.029708697
34	0xbc3518d6	-0.011053285
35	0xbbceea8c	-0.0063145813
36	0xbcd59797	-0.02607326
37	0x3d490921	0.04908097
38	0x3c57e8a1	0.013178022
39	0xbcc8eafd	-0.024526114
40	0x3c99891e	0.01874214
41	0xbca75997	-0.020428462
42	0x3c9e135e	0.019296344
43	0xbd222355	-0.039584477
44	0xbb8f7fb8	-0.004379239
45	0x3d2d8fd6	0.0423735
46	0xbcbfb9bd	-0.023403997
47	0x3c54f174	0.01299702
48	0x3cce754b	0.025202414
49	0xbbc31646	-0.005953583
50	0xbc9c5397	-0.019082827
51	0xbcb3c40a	-0.021944065
52	0xbca7ac67	-0.02046795
53	0xbb82ec77	-0.003995474
54	0x3ca3e2df	0.020005642
55	0x3c4ecc1d	0.012621907
56	0xbd1f8bdb	-0.038951736
57	0x3cad4e14	0.021155395
58	0x3ceb1cca	0.028700251
59	0xbcbbf400	-0.022943497
60	0xbbc9fd81	-0.006164253
61	0x3bb52f24	0.0055293012
62	0xbb083553	-0.0020783737
63	0x3c25981c	0.0101070665
64	0xbc8a4f61	-0.016883554
65	0x3c342998	0.010996245
66	0xbcbded8c	-0.02318456
67	0x3c21f026	0.009883916
68	0x3bf9f31c	0.007627858
69	0xbca183e5	-0.019716213
70	0xbb72779a	-0.0036997558
71	0xbd316776	-0.04331156
72	0x3b9ba5d1	0.0047499915
73	0xbb83dcc7	-0.0040241214
74	0x3cd3d34f	0.025857596
75	0x3c53bf95	0.012924095
76	0xbc07d705	-0.008291011
77	0xbc93d157	-0.018044157
78	0x3cf99c7c	0.030470125
79	0xbce08255	-0.027405897
80	0xbbf62250	-0.0075114146
81	0x3d0da13b	0.03457759
82	0xbb922b75	-0.004460747
83	0xbd1eb8da	-0.038750507
84	0xbc92d43e	-0.01792347
85	0x3d4d55e2	0.050130732
86	0x3c0edf6b	0.008720259
87	0x3c08222e	0.00830893
88	0xbc9f4d59	-0.019446062
89	0xbd4d021b	-0.050050836
90	0x3c91f5e1	0.01781744
91	0xbbc4ee23	-0.0060098334
92	0x3d174621	0.036932115
93	0x3ccc172d	0.024913395
94	0x3c584668	0.01320038
95	0x3cea385d	0.02859133
96	0xbd1b1b0f	-0.037867602
97	0xbd4e14b6	-0.05031272
98	0x3a6b9786	0.00089871173
99	0xbb21fb1d	-0.0024716326
100	0xbb8f07be	-0.0043649366
101	0xbc6e6f12	-0.014552848
102	0x3bcd5bd1	0.006267049
103	0xbb3c4f36	-0.0028733737
104	0xbc8cb81b	-0.017177632
105	0x3c7976b1	0.015226052
106	0x3c44dad7	0.012015066
107	0xbc1cb70d	-0.009565127
108	0xba953645	-0.0011383971
109	0xbb9167bc	-0.004437415
110	0xbcace0e7	-0.021103336
111	0x3c94ec16	0.01817898
112	0xbcbe095c	-0.023197822
113	0x3cc4d00b	0.024024984
114	0x3b62ee86	0.0034627034
115	0x3ca7e097	0.020492835
116	0x3c91f112	0.017815147
117	0xbc1e06ec	-0.009645205
118	0x3c89e6a0	0.016833603
119	0x3c1e25e4	0.0096525885
120	0xbc499653	-0.0123039065
121	0x3c7e3f44	0.015518013
122	0x3af0bff4	0.0018367753
123	0x3b3e1ba2	0.002900817
124	0xbc2e05b6	-0.010621479
125	0x3b72d053	0.003705044
126	0xbc145fb7	-0.009056023
127	0xbb6f7e99	-0.0036543964
128	0x3c58be39	0.013228946
129	0xbbe4781a	-0.006972325
130	0xbd1a3a0a	-0.037653007
131	0x3c52457e	0.012833951
132	0xbc64fce2	-0.013976308
133	0xbc68c2f4	-0.014206637
134	0xbcda2737	-0.026630027
135	0xbbc0ec4f	-0.005887545
136	0xbbd27613	-0.006422767
137	0xbc2d2434	-0.0105677135
138	0xbc24f039	-0.010067039
139	0x3c2819b4	0.010260034
140	0x3be80e7d	0.0070818053
141	0x3ce61a07	0.028088583
142	0x3cab553e	0.02091467
143	0xbba8c417	-0.005150329
144	0x3c53beae	0.01292388
145	0xbb8437b3	-0.00403496
146	0xbcbc25cc	-0.022967242
147	0x3c949411	0.01813701
148	0xbc224b6a	-0.009905675
149	0xbbe0515c	-0.0068456363
150	0xbd382f15	-0.044966776
151	0xbc60ce5f	-0.013721078
152	0x3cbea622	0.023272578
153	0xbc946bc2	-0.01811779
154	0x3c4332cf	0.011913969
155	0x3b87d95b	0.004145784
156	0x3d10c29a	0.035341837
157	0xbbd15a39	-0.006388929
158	0xbd265ded	-0.04061692
159	0x3c067432	0.008206414
160	0x3c8c5599	0.01713066
161	0x3cf284b5	0.029604295
162	0x396e15d1	0.00022705576
163	0xbad51871	-0.0016257894
164	0xba8315a1	-0.0010000953
165	0xbd18182f	-0.03713244
166	0x3b78f95e	0.0037990431
167	0x3cb19787	0.0216787
168	0x3b1c617d	0.0023861818
169	0x3c162fb9	0.009166651
170	0xbc5b2b06	-0.013376957
171	0x3c40dd40	0.0117715
172	0xbc041131	-0.008060739
173	0x3be9002f	0.0071106176
174	0x3cc80f5f	0.024421392
175	0x3c3d1cf8	0.011542551
176	0x3c304cc2	0.010760488
177	0x3c796dbe	0.0152239185
178	0xbcdf0a64	-0.027226634
179	0xbc36f96b	-0.011167864
180	0xbbcf4662	-0.006325529
181	0x3bae4e82	0.0053194175
182	0x3bc7269f	0.006077602
183	0xbc70ff88	-0.014709361
184	0x3ae87b15	0.0017736877
185	0xbb3e3706	-0.0029024496
186	0x3b29c608	0.002590539
187	0xbbc8ca9b	-0.006127668
188	0x3d489f3c	0.048979983
189	0xbbdab7d6	-0.006674747
190	0xbc336ec7	-0.010951704
191	0x3c4c6b47	0.012476749
192	0xbd195cc6	-0.03744199
193	0x3c837512	0.016047034
194	0xbcc161f2	-0.023606274
195	0xbca08717	-0.019595666
196	0xbca9443c	-0.02066242
197	0x3c94199d	0.01807862
198	0xbc91a7cf	-0.017780213
199	0x3c7890bc	0.015171226
200	0x3c50db53	0.0127476035
201	0xbcd6142d	-0.026132667
202	0x3c870ca3	0.016485518
203	0xbc7558db	-0.014974798
204	0xbc61c607	-0.013780124
205	0xbbe914b5	-0.007113064
206	0x3d454d7d	0.0481696
207	0x3d11d718	0.03560552
208	0x3c6b0da6	0.014346516
209	0xbb80872c	-0.0039223637
210	0x3c71f9c5	0.014769022
211	0xbc1858ff	-0.009298562
212	0x3c82d792	0.015971933
213	0xbaee44be	-0.0018178446
214	0xbc43095e	-0.011904089
215	0x3c24f7d6	0.010068854
216	0xbbbde28b	-0.0057948283
217	0x3b84b7d1	0.004050233
218	0x3c8d32f5	0.017236212
219	0x3b294ac1	0.002583191
220	0xbbb46fa5	-0.005506473
221	0x3c836e8c	0.016043924
222	0x3c957d8c	0.018248342
223	0x3cb4615e	0.022019085
224	0x3c48652c	0.0122311525
225	0xbcfdd230	-0.030984014
226	0x3c35ebfa	0.0111036245
227	0xbcc23445	-0.023706565
228	0x3a3eadd3	0.00072738266
229	0x3cb7c139	0.022431003
230	0x3cac14cd	0.021006012
231	0xbb93bfc4	-0.004508944
232	0xbd2d9203	-0.042375576
233	0x3ad4c603	0.0016233328
234	0xbbf08780	-0.0073403716
235	0xbd1ae509	-0.03781608
236	0xbcadc598	-0.021212384
237	0xbc83def4	-0.016097523
238	0xbca11457	-0.01966302
239	0x3c93b594	0.01803092
240	0xbbfc9904	-0.0077086706
241	0x3c6554fa	0.013997311
242	0xbd07e226	-0.033174656
243	0x3bdd8e1a	0.0067613246
244	0xbd28e687	-0.041235473
245	0xbc1359a0	-0.008993536
246	0x3c2c5204	0.010517601
247	0x3bf2fdbb	0.007415501
248	0xbd082382	-0.033236988
249	0xbc959876	-0.018261176
250	0xbca52906	-0.020161163
251	0xbc0dd855	-0.008657535
252	0x3c5a2528	0.013314523
253	0x3ae67b3e	0.0017584336
254	0x3cf2cacb	0.029637715
255	0x3c8bafae	0.017051544

weight f4 [128]
0	0x3f7437e7	0.953978
1	0x3f753a7d	0.9579237
2	0x3f85c0aa	1.0449421
3	0x3f7a7990	0.9784174
4	0x3f80150d	1.0006424
5	0x3f808919	1.0041839
6	0x3f7a28e2	0.9771863
7	0x3f8120ed	1.0088173
8	0x3f7df826	0.9920677
9	0x3f81e9f8	1.0149527
10	0x3f7cb912	0.98719895
11	0x3f84d2d2	1.0376837
12	0x3f7ab8c9	0.9793821
13	0x3f7dc5c3	0.99129885
14	0x3f82b8e9	1.021268
15	0x3f80c7f9	1.0061027
16	0x3f78dcca	0.972119
17	0x3f7dd909	0.99159294
18	0x3f80148d	1.0006272
19	0x3f76d679	0.9642101
20	0x3f82d226	1.0220382
21	0x3f811f37	1.0087651
22	0x3f702496	0.93805826
23	0x3f80a405	1.0050055
24	0x3f72b246	0.94803274
25	0x3f7cb769	0.9871736
26	0x3f8113f8	1.0084219
27	0x3f7b1f76	0.9809488
28	0x3f808123	1.0039409
29	0x3f7fe3ed	0.9995716
30	0x3f819451	1.0123388
31	0x3f7cf0ae	0.9880475
32	0x3f7f5691	0.99741465
33	0x3f81662e	1.0109308
34	0x3f7ff241	0.99979025
35	0x3f7f98cc	0.99842525
36	0x3f8054fb	1.0025934
37	0x3f83a974	1.0286088
38	0x3f7f5bf9	0.99749714
39	0x3f7d3aa3	0.989176
40	0x3f7e004a	0.9921919
41	0x3f81592f	1.0105342
42	0x3f7f8f59	0.99828106
43	0x3f7bc10f	0.9834146
44	0x3f855875	1.041762
45	0x3f764200	0.9619446
46	0x3f7ce1ba	0.9878193
47	0x3f7b8e98	0.98264456
48	0x3f764bc8	0.96209383
49	0x3f785141	0.96998984
50	0x3f829063	1.0200313
51	0x3f8001da	1.0000565
52	0x3f80c89c	1.0061221
53	0x3f7ba67a	0.983009
54	0x3f81e6c6	1.0148551
55	0x3f812bb4	1.0091462
56	0x3f7cc65d	0.9874018
57	0x3f84af33	1.0365967
58	0x3f7d40e5	0.98927146
59	0x3f7fc83b	0.999149
60	0x3f809376	1.0045002
61	0x3f7bef3b	0.9841191
62	0x3f80b2d6	1.0054576
63	0x3f7d15d4	0.9886143
64	0x3f82965b	1.0202135
65	0x3f81011d	1.0078465
66	0x3f7ca9d3	0.9869663
67	0x3f769b36	0.96330583
68	0x3f70127b	0.937782
69	0x3f836bb4	1.0267243
70	0x3f7a38ec	0.97743106
71	0x3f81ed9d	1.0150639
72	0x3f81004a	1.0078213
73	0x3f81a850	1.012949
74	0x3f821db5	1.0165316
75	0x3f7b324d	0.9812363
76	0x3f82066e	1.0158212
77	0x3f812ff5	1.009276
78	0x3f7f24f4	0.9966576
79	0x3f82a14f	1.0205477
80	0x3f805bd7	1.0028027
81	0x3f806b2d	1.0032707
82	0x3f816e58	1.0111799
83	0x3f7b394e	0.98134315
84	0x3f7fcff9	0.99926716
85	0x3f77a67e	0.9673842
86	0x3f8105e6	1.0079925
87	0x3f802155	1.0010172
88	0x3f7aae17	0.9792189
89	0x3f81a1ce	1.0127504
90	0x3f80667d	1.0031277
91	0x3f815e6c	1.010694
92	0x3f83728a	1.026933
93	0x3f7e0014	0.9921887
94	0x3f7d7f44	0.99022317
95	0x3f812dae	1.0092065
96	0x3f81fb05	1.015473
97	0x3f808d2c	1.0043082
98	0x3f83a652	1.0285132
99	0x3f7d43f4	0.98931813
100	0x3f8284ff	1.0196837
101	0x3f7c2f30	0.985095
102	0x3f80f377	1.00743
103	0x3f7ef65c	0.99594665
104	0x3f7f14fc	0.99641395
105	0x3f82ab8f	1.0208606
106	0x3f80562e	1.00263
107	0x3f81b4c8	1.0133295
108	0x3f7aad19	0.97920376
109	0x3f7afeea	0.9804522
110	0x3f750033	0.9570343
111	0x3f856d6e	1.042402
112	0x3f832cd0	1.0248051
113	0x3f794e0e	0.97384727
114	0x3f7d99ec	0.9906299
115	0x3f82e06d	1.0224739
116	0x3f8190e1	1.0122339
117	0x3f817723	1.0114483
118	0x3f832086	1.02443
119	0x3f806b91	1.0032827
120	0x3f807b74	1.0037675
121	0x3f84b50e	1.0367754
122	0x3f7bfc05	0.98431426
123	0x3f8161b9	1.0107948
124	0x3f7d041b	0.9883439
125	0x3f83e835	1.0305239
126	0x3f8364da	1.0265152
127	0x3f841850	1.031992

bias f4 [128]
0	0xbc05a69a	-0.008157397
1	0xbbb570a3	-0.005537109
2	0x3bf69a13	0.0075256913
3	0xbb44da3d	-0.0030037307
4	0xbbab65c0	-0.0052306354
5	0x3b59e79c	0.0033249622
6	0x3a9a3b3d	0.0011766922
7	0x3aaec652	0.001333425
8	0xbb379a3e	-0.002801552
9	0x3c0f6d8c	0.008754145
10	0xb9123554	-0.00013943511
11	0xbc164fa4	-0.009174261
12	0x3beb1883	0.007174553
13	0xbb9d60ad	-0.0048027844
14	0x3bd26bd3	0.006421545
15	0x3bdc6a5c	0.006726546
16	0x3b0d29ff	0.0021539924
17	0xbb7a374a	-0.0038179928
18	0xbb340174	-0.0027466686
19	0xbbc9e2ee	-0.0061610853
20	0xbaf2c465	-0.0018521665
21	0x3b1ebe53	0.0024222329
22	0xbb13da67	-0.0022560598
23	0x3b093f9f	0.0020942462
24	0xbc0631db	-0.008190597
25	0x3bd756c6	0.0065716235
26	0x3b49488c	0.0030713407
27	0x3b6573ff	0.0035011766
28	0x3b86b533	0.004110956
29	0xbbe524d5	-0.006992916
30	0xbbd10778	-0.006379064
31	0xbbb4e9c3	-0.0055210306
32	0xba9707c3	-0.0011522699
33	0xbb22fd4e	-0.002487022
34	0xbb65c63b	-0.0035060782
35	0x3bdf43ab	0.0068134866
36	0xbc2e2dc4	-0.010631029
37	0xbbd39811	-0.0064573367
38	0xbc1e6ac1	-0.009669007
39	0xbbeeecea	-0.007291426
40	0x3bf7cada	0.0075620236
41	0xbbb5481e	-0.0055322787
42	0xbc099bc4	-0.008398954
43	0xbb8a3062	-0.0042171935
44	0xba56580d	-0.0008176573
45	0x3bca31e3	0.0061704977
46	0xb9a1ba2e	-0.00030847028
47	0xbc0d7076	-0.00863277
48	0x3aaa5338	0.0012994772
49	0xbc26bf15	-0.010177393
50	0xbaf52ae9	-0.0018704805
51	0xbb3e297d	-0.0029016428
52	0xbc357f00	-0.011077642
53	0xbb7ae5a4	-0.003828385
54	0x3aff785d	0.0019490827
55	0xbba1b615	-0.004935036
56	0x3ae28cf1	0.0017284435
57	0x3be37cc0	0.0069423616
58	0xbc08cc5d	-0.008349505
59	0xbc052596	-0.008126637
60	0x3bbebbc4	0.0058207233
61	0xbbf6be6d	-0.0075300247
62	0xbbefc6d9	-0.0073174057
63	0xbc004c49	-0.007830688
64	0x3bebb24e	0.0071928864
65	0x3c07ee52	0.008296566
66	0xbba5c6d9	-0.005059105
67	0xbbf80623	-0.007569091
68	0xbc083708	-0.008313902
69	0xbc04ed8a	-0.008113274
70	0x3bb9fdec	0.005676022
71	0xbb1e4969	-0.0024152643
72	0xbb9c2c80	-0.004766047
73	0x3b1743b5	0.0023081128
74	0x3c02cc0f	0.007983222
75	0xbbeb7918	-0.0071860664
76	0x3ac42b55	0.0014966527
77	0x3a483976	0.0007637957
78	0xbaad11af	-0.0013204123
79	0x3b222706	0.0024742498
80	0xbbfc7850	-0.007704772
81	0xbbfbe400	-0.007687092
82	0xbb74a83d	-0.0037331723
83	0xbbb77866	-0.0055990694
84	0x3c05bca8	0.008162655
85	0xba052c38	-0.00050801365
86	0x3b77bb7f	0.0037800965
87	0x3b2f663c	0.0026763817
88	0x3c2e790d	0.010648978
89	0xbc066105	-0.008201842
90	0xbbd98320	-0.006637946
91	0xbb9761a7	-0.0046197954
92	0xbb3142b3	-0.0027047812
93	0xbbc39966	-0.0059692143
94	0x3b6886c8	0.0035480727
95	0xbc033f5f	-0.008010714
96	0x3ad94f3e	0.0016579402
97	0x3bde424f	0.006782807
98	0x39d9d73a	0.00041549822
99	0x39fbfead	0.000480642
100	0x3c0557f3	0.0081386445
101	0xbbfb096c	-0.0076610353
102	0x3bf151a9	0.007364471
103	0x3c1450e3	0.009052488
104	0xbb3ec3c4	-0.0029108385
105	0x3b018806	0.0019764914
106	0xbb44426a	-0.0029946812
107	0xbba485f6	-0.005020852
108	0xba902e3e	-0.0011000109
109	0xbbb57dec	-0.0055386927
110	0xbc0fff84	-0.008788947
111	0x3bc36539	0.0059629944
112	0x3c0bd6ce	0.0085351
113	0xbba283bc	-0.0049595516
114	0xbb82161c	-0.003969921
115	0x3b818590	0.0039526895
116	0x3b6425dc	0.0034812605
117	0xbc003622	-0.007825406
118	0xbbc56781	-0.0060243015
119	0x3bc8ecc1	0.006131739
120	0xbb212eae	-0.0024594474
121	0x3c0ae014	0.008476276
122	0xbb734a9e	-0.0037123333
123	0x3c0d5cf3	0.008628118
124	0x3aef144e	0.0018240304
125	0x3ba8a56c	0.005146673
126	0xbb202002	-0.002443314
127	0xbbd90653	-0.0066230684

running_mean f4 [128]
0	0xbdf1336a	-0.117773846
1	0xbddcb869	-0.10777361
2	0xbeb88b4d	-0.36043778
3	0x3f1393c4	0.5764735
4	0x3e9ece8d	0.3101696
5	0x3e1c4d3d	0.15263839
6	0xbcb4d662	-0.022074882
7	0xbdb9fb38	-0.09081119
8	0x3e069834	0.13143998
9	0x3ebcc555	0.36869302
10	0xbe100519	-0.14064445
11	0xbed9d8f9	-0.4254835
12	0x3e356bac	0.17716855
13	0xbec1cd6b	-0.37852034
14	0xbd9ad090	-0.075593114
15	0xbc6f6a84	-0.014612798
16	0xbe7aff67	-0.24511491
17	0xbdf0f792	-0.1176597
18	0xbe13dcf2	-0.14439753
19	0x3ebcaf45	0.3685247
20	0xbe672743	-0.22573571
21	0x3e827aae	0.25484222
22	0x3e847e71	0.25877717
23	0xbeaed235	-0.3414475
24	0xbe151778	-0.14559734
25	0xbebdaa1d	-0.3704385
26	0x3e86736e	0.2625994
27	0xbe86f991	-0.2636228
28	0xbd215c54	-0.03939469
29	0x3f4837a0	0.78209877
30	0xbebb4105	-0.36573043
31	0x3e67a307	0.22620784
32	0x3de586b7	0.112073354
33	0xbd3290fe	-0.043595307
34	0x3d3c81cf	0.046022233
35	0xbe26d39c	-0.1629166
36	0xbedc7093	-0.43054637
37	0x3e08bac4	0.13352495
38	0xbd91dbbc	-0.07121989
39	0xbefc6a13	-0.49299678
40	0xbd2acfc7	-0.04170206
41	0xbe457916	-0.19284472
42	0xbeceaf54	-0.4036814
43	0x3d6ba712	0.057532378
44	0xbe3651bd	-0.17804618
45	0xbe884607	-0.26615927
46	0xbcdd0c66	-0.026983451
47	0xbedc14a6	-0.42984504
48	0xbcda383a	-0.026638139
49	0xbf5addee	-0.8549489
50	0x3d0dedbd	0.034650553
51	0xbeba3c0b	-0.36373934
52	0xbee4cf99	-0.44689634
53	0xbdb16cae	-0.08663307
54	0x3d22d3cc	0.039752766
55	0xbe290c9c	-0.16508716
56	0x3e91dfbf	0.28491017
57	0x3e93c4a1	0.28860953
58	0x3b3a6bfa	0.0028445707
59	0xbdb80ec6	-0.08987193
60	0xbe997bc5	-0.2997724
61	0x3e2d8bca	0.16947857
62	0x3e7f6826	0.24942073
63	0xbe92869a	-0.28618318
64	0x3bfa697d	0.0076419697
65	0xbf05e8ea	-0.52308524
66	0xbd36a7af	-0.04459351
67	0xbe2e7e51	-0.17040373
68	0x3e1cf276	0.15326867
69	0xbecc3ce0	-0.39890194
70	0x3e822c35	0.25424352
71	0xbeab0ae2	-0.3340674
72	0x3e1b64c7	0.15175162
73	0xbe6eb736	-0.23312077
74	0xbe883285	-0.26601043
75	0x3dafdac1	0.08586646
76	0x3e12df24	0.14342934
77	0x3dddb51b	0.10825559
78	0x3e9f3287	0.31093237
79	0x3dcedb69	0.10100443
80	0xbe4e727f	-0.20160864
81	0xbe03feb0	-0.12890124
82	0xbdd80c94	-0.10549274
83	0xbe9e6083	-0.30933008
84	0x3e14825f	0.14502858
85	0x3d92c915	0.071672596
86	0xbdff48fc	-0.124650925
87	0xbd96326f	-0.07333838
88	0xbda3e43d	-0.08002517
89	0xbf41afbc	-0.75658774
90	0x3ea86ff7	0.32897922
91	0xbf637a61	-0.8885861
92	0xbe140518	-0.14455068
93	0xbe9a809e	-0.30176252
94	0xbeb74a67	-0.35798952
95	0x3d3c1f3e	0.045928232
96	0xbc922f91	-0.017844947
97	0x3e0e3253	0.13886385
98	0x3dcc3385	0.09970764
99	0xbc3f94bd	-0.011693177
100	0x3c9efa56	0.019406479
101	0x3e1a532c	0.1507079
102	0xbe87e9a0	-0.2654543
103	0xbf37e1af	-0.7182874
104	0xbdee426f	-0.11633765
105	0x3ccb055f	0.024782835
106	0xbf0af1f8	-0.54275465
107	0xbdc7cae5	-0.09755496
108	0x3ce4134f	0.027841238
109	0x3e4d545c	0.20051712
110	0xbc3edfea	-0.011650065
111	0xbeed556e	-0.4635424
112	0x3e66e92f	0.2254989
113	0x3e50d811	0.20394923
114	0xbf2d3ffd	-0.67675763
115	0xbee7aedb	-0.45250592
116	0xbf4dd737	-0.80406517
117	0x3f1fd956	0.62441003
118	0x3e549c0a	0.20762649
119	0x3e8698d0	0.26288462
120	0x3e49c402	0.19703677
121	0xbe5e5841	-0.21713354
122	0x3d8e193c	0.06938407
123	0x3e0ccb94	0.13749534
124	0x3c1973b6	0.009365967
125	0x3d90a09f	0.07061886
126	0x3f4b72ce	0.79472053
127	0x3e64181c	0.22274822

running_var f4 [128]
0	0x3d2d3f40	0.042296648
1	0x3db083a5	0.08618859
2	0x3e034e0c	0.12822741
3	0x3dca70a7	0.09884768
4	0x3dc77e76	0.097409174
5	0x3d6ffe79	0.058592293
6	0x3e5a472f	0.21316217
7	0x3d9bdfda	0.07611056
8	0x3e360383	0.17774777
9	0x3dbbefaa	0.09176572
10	0x3ddc2508	0.10749251
11	0x3e7cb938	0.2468003
12	0x3db9f3a5	0.09079675
13	0x3da945fc	0.082653016
14	0x3d87c39a	0.06629105
15	0x3d4dbf70	0.050231397
16	0x3d90f6e4	0.07078341
17	0x3ced6f61	0.028983774
18	0x3e97321b	0.29530415
19	0x3e222391	0.1583388
20	0x3e319c41	0.17344762
21	0x3e39d13e	0.18146226
22	0x3def6c36	0.116905615
23	0x3e24ce01	0.16094209
24	0x3e358f60	0.17730474
25	0x3d91bdd5	0.07116286
26	0x3e080a0b	0.13285081
27	0x3d8783eb	0.06616958
28	0x3d74eee0	0.05979812
29	0x3db0c1b4	0.08630696
30	0x3daa6d19	0.0832159
31	0x3dd45fbc	0.103698224
32	0x3d92e801	0.071731575
33	0x3d949257	0.072544746
34	0x3cecd07d	0.028908009
35	0x3d8863dc	0.06659672
36	0x3dde428b	0.10852536
37	0x3d90777c	0.0705404
38	0x3daf7925	0.08568028
39	0x3e48d25e	0.19611499
40	0x3e4e36d3	0.20138101
41	0x3d119ce5	0.035550017
42	0x3def620a	0.11688621
43	0x3d967d61	0.07348133
44	0x3e41533e	0.1887941
45	0x3e1ab03f	0.15106295
46	0x3e728802	0.23684695
47	0x3d600992	0.054696627
48	0x3d4babc6	0.049724363
49	0x3de14526	0.10999517
50	0x3deee9b5	0.1166567
51	0x3e402d3f	0.1876726
52	0x3ddb51c1	0.10708953
53	0x3e44e9c9	0.19229807
54	0x3db732df	0.0894525
55	0x3d629dac	0.05532615
56	0x3dca15a3	0.09867408
57	0x3dad34a6	0.084573075
58	0x3de5bc60	0.1121757
59	0x3e45ecd6	0.19328627
60	0x3d82b18e	0.06381522
61	0x3d97632c	0.073919624
62	0x3dee88fe	0.11647223
63	0x3d53a57b	0.051671486
64	0x3ea3b9b4	0.31977618
65	0x3de9d222	0.11417033
66	0x3e6bcf6e	0.23028347
67	0x3d243a62	0.04009474
68	0x3d8b409f	0.06799435
69	0x3e4a8e2e	0.197808
70	0x3e07fe85	0.13280685
71	0x3d754f3a	0.05989001
72	0x3d3c2d5f	0.045941707
73	0x3d757f55	0.059935886
74	0x3dfb65d6	0.12275283
75	0x3df86630	0.12128866
76	0x3d0b290f	0.033974703
77	0x3d52a50b	0.05142693
78	0x3d97115c	0.07376358
79	0x3d91aad2	0.071126595
80	0x3e236473	0.15956287
81	0x3d1d2b4e	0.038371377
82	0x3d2b0112	0.041749068
83	0x3e122b2b	0.1427428
84	0x3ddbd30d	0.10733614
85	0x3d224b50	0.039622605
86	0x3e0546cb	0.13015287
87	0x3d3df7f2	0.046379037
88	0x3e19a73f	0.15005206
89	0x3de9dca0	0.11419034
90	0x3d8c949b	0.06864282
91	0x3e070a40	0.13187504
92	0x3e54f8d7	0.2079805
93	0x3dad3176	0.084566996
94	0x3e1577a2	0.14596418
95	0x3d3ba4c3	0.045811426
96	0x3c8f688c	0.017505907
97	0x3deb85de	0.115001425
98	0x3e0ca1d9	0.13733615
99	0x3d3b501a	0.045730688
100	0x3ddea636	0.10871546
101	0x3dbe526f	0.09293067
102	0x3dd2ce3d	0.10293243
103	0x3dfc5e96	0.12322728
104	0x3dc0860a	0.09400566
105	0x3d52e058	0.051483482
106	0x3db8cd9a	0.090235904
107	0x3d99d743	0.07511761
108	0x3d74ba5e	0.059748046
109	0x3e71639f	0.23573159
110	0x3dc43f30	0.095823646
111	0x3e399b5f	0.18125676
112	0x3d25de82	0.040495403
113	0x3e13ac1c	0.14421123
114	0x3e25b78b	0.16183297
115	0x3e22e42c	0.15907353
116	0x3e2e1c16	0.17002901
117	0x3d89a01d	0.06719992
118	0x3d860966	0.06544761
119	0x3e2ab270	0.16669631
120	0x3e6102ff	0.21973799
121	0x3dda15c8	0.10648686
122	0x3d84297a	0.064532235
123	0x3e5c488c	0.2151205
124	0x3db710e8	0.089387715
125	0x3d806d12	0.062708035
126	0x3eca7e78	0.39549613
127	0x3e072c58	0.1320051

weight f4 [1, 128, 4, 4]
0	0xbcb7cdaf	-0.022436945
1	0x3cd8602f	0.026413051
2	0xbc0e0920	-0.008669168
3	0xbbafaaed	-0.005360952
4	0xbbd80a4c	-0.0065930244
5	0x3ce1f3b5	0.027582029
6	0x3ad6285e	0.0016338935
7	0x3d6d9cf3	0.058011007
8	0xbc4ea9e5	-0.012613748
9	0xbc718988	-0.014742263
10	0xbc693791	-0.0142344395
11	0xbc81dfff	-0.01585388
12	0x3cdf25d5	0.02723972
13	0xbc76c250	-0.015060976
14	0xbd13c258	-0.036074013
15	0x3ae788ad	0.0017664634
16	0xbc5aa065	-0.013343905
17	0x3bbde79a	0.0057954313
18	0x3bcce263	0.0062525733
19	0xbc73ef3e	-0.014888583
20	0x3cc9e6ad	0.024646128
21	0x3cf7e85d	0.030262167
22	0x3cbbe5dc	0.022936754
23	0x3b9e752e	0.0048357463
24	0x3c647eeb	0.013946275
25	0x3bb8fcca	0.005645369
26	0x3c0daff8	0.008647911
27	0xbbb93330	-0.005651854
28	0x3d098034	0.03356953
29	0xbcd6b8fc	-0.026211254
30	0xbbaecfa9	-0.0053348136
31	0xbc04f8f0	-0.008115992
32	0x3bac8347	0.005264673
33	0xbc10889c	-0.008821633
34	0xba976bec	-0.0011552549
35	0xbc98bab9	-0.018643724
36	0xbcb0712f	-0.021538345
37	0xbc022051	-0.007942275
38	0xbcb1a1c1	-0.021683576
39	0xbb691ee1	-0.0035571384
40	0xbc12fefb	-0.008971925
41	0xbbf19283	-0.007372202
42	0xbc01bed5	-0.007919033
43	0xbbcaac59	-0.006185096
44	0xbc646bb1	-0.013941691
45	0x3bf54b00	0.0074857473
46	0xbbc495e7	-0.005999315
47	0xbd0dcd52	-0.034619637
48	0x3cad5265	0.021157453
49	0xbcb49d72	-0.022047732
50	0xbc86ccc8	-0.01645507
51	0xbc30c6ab	-0.010789554
52	0x3c21307c	0.00983822
53	0xbbf2eb3d	-0.0074132965
54	0x3cc06b92	0.023488794
55	0xbc498c76	-0.012301555
56	0x39f4976b	0.00046652122
57	0xbbb97e01	-0.005660773
58	0xbc36f9fb	-0.011167998
59	0x3bcde16b	0.0062829754
60	0xbb9d0ccc	-0.0047927853
61	0xbc9bceb6	-0.019019466
62	0x3cac9b56	0.021070164
63	0xbca6ae6b	-0.02034684
64	0x3ccdea48	0.025136128
65	0xbc6ace0c	-0.014331352
66	0xbbbbab2b	-0.005727192
67	0xbbcf8563	-0.0063330396
68	0xbd0bddad	-0.034146953
69	0x3c238055	0.009979327
70	0xba9d5160	-0.0012002401
71	0x3d390438	0.04517004
72	0x3bed4f34	0.0072421078
73	0xb9b21e16	-0.0003397322
74	0x3c77ebb8	0.015131883
75	0x3ca6f32a	0.020379622
76	0x3b75a582	0.0037482684
77	0x3a20a3d2	0.0006127927
78	0x3cba08bb	0.022709241
79	0x3ab50ce9	0.0013813052
80	0x3cfa1378	0.030526862
81	0xbc81065a	-0.015750099
82	0xbc0676fa	-0.008207077
83	0xba8d9403	-0.0010801557
84	0x3b6398da	0.0034728558
85	0xbc2defbf	-0.010616242
86	0x3cce7863	0.02520389
87	0xbd0e7328	-0.03477779
88	0xbc40b055	-0.011760791
89	0xbca40e45	-0.020026335
90	0xbd0e32d7	-0.034716453
91	0x3ce11ff6	0.02748106
92	0xbc9d5acc	-0.019208334
93	0x3c9814b7	0.018564565
94	0xbc14e6d3	-0.009088236
95	0x3b8c14db	0.004274947
96	0xbbb3ba90	-0.0054848865
97	0x3c9eb971	0.019375535
98	0xbd35c4ec	-0.044377252
99	0x3d641e01	0.055692676
100	0x3c4b423b	0.012405927
101	0xbba10e29	-0.004915018
102	0x3bb53686	0.0055301813
103	0xba81a1cc	-0.0009890138
104	0xbd085884	-0.03328754
105	0x3c826040	0.015915036
106	0x3b9ed6ad	0.0048473687
107	0xbcbd0d89	-0.023077743
108	0x3cd25bba	0.025678504
109	0xbc991e2d	-0.018691147
110	0xbc74b330	-0.0149353
111	0xbb866d65	-0.0041023963
112	0xbd188ec4	-0.037245527
113	0x3bc0d672	0.005884939
114	0x3c1a1292	0.009403842
115	0xbc74d79a	-0.014943982
116	0xbaf84659	-0.0018941864
117	0xbb9897b6	-0.004656757
118	0x3c677e87	0.014129288
119	0xbcbf575e	-0.02335709
120	0xbc934076	-0.017975073
121	0xbc7ff60e	-0.015622629
122	0x3ada87ea	0.0016672586
123	0x3b063a63	0.0020481579
124	0x3c85be93	0.016326224
125	0xbce9aaa2	-0.028523747
126	0xbbf20d1e	-0.0073868176
127	0x3c8f1b21	0.01746899
128	0x3bcd6800	0.0062685013
129	0x3d1743b1	0.03692979
130	0xbc1793a1	-0.009251506
131	0x3c5ee9f3	0.0136055825
132	0xbc13c596	-0.009019276
133	0xba9b98bb	-0.0011871079
134	0x3ca69b7f	0.020337818
135	0xbc0c54cf	-0.008565142
136	0x3c26dabe	0.010183988
137	0x3b6d80bd	0.0036240064
138	0x392c9d65	0.00016461832
139	0xbd1f8f43	-0.038954984
140	0xbcfadef3	-0.030623889
141	0x3bb544c1	0.0055318777
142	0x3c4f2f56	0.012645563
143	0xbbf49601	-0.007464171
144	0xbb93970e	-0.004504091
145	0xbc5a47be	-0.013322769
146	0xbba5a8da	-0.005055529
147	0xbb28f0d6	-0.0025778315
148	0x3c0aa7e5	0.008462881
149	0xbb8fed78	-0.004392322
150	0x3a5077bf	0.0007952414
151	0x3c53e159	0.012932145
152	0xbc20f07a	-0.009822959
153	0x3c66148f	0.0140429875
154	0xbca47f5f	-0.020080267
155	0xbbf24a98	-0.007394146
156	0xbc8c3231	-0.017113777
157	0xbc632b5e	-0.01386532
158	0xbb12ef0a	-0.002242031
159	0xbc8433a4	-0.016137905
160	0xbcbe045d	-0.02319544
161	0x3cb324d1	0.021868141
162	0x3d03c491	0.032169882
163	0x3a21bec2	0.0006170088
164	0xbc5e6038	-0.013572745
165	0xba901660	-0.0010992996
166	0xbc6a45d2	-0.014298873
167	0x3a8d0b8a	0.0010760885
168	0x3c108216	0.008820077
169	0xbb98a7aa	-0.004658659
170	0xbc914990	-0.017735273
171	0xbce1101e	-0.027473506
172	0xbd12c25b	-0.035829883
173	0xbc5e674b	-0.013574432
174	0x3b9fb3bb	0.0048737205
175	0xbce911d6	-0.028450888
176	0x3c8dd61b	0.017314008
177	0xbc6c42b4	-0.0144202
178	0x3ba3ecb1	0.005002581
179	0x3a17026c	0.0005760554
180	0x3bba4374	0.0056843106
181	0xbc8db0e6	-0.017296266
182	0xbc8c5959	-0.017132448
183	0x3c621535	0.013799001
184	0x3c3e90f3	0.011631238
185	0xba0c92b2	-0.00053624355
186	0x3cba2c22	0.022726122
187	0x3b898ff7	0.00419807
188	0x3d124114	0.035706595
189	0x3aebdace	0.0017994286
190	0xbb580ba1	-0.0032965916
191	0xbb8ac6b6	-0.004235114
192	0x3c6936bc	0.014234241
193	0xbc10403b	-0.008804376
194	0x3bf58011	0.0074920733
195	0x3c7839f8	0.01515054
196	0xbc81010b	-0.015747568
197	0xbbc13087	-0.0058956775
198	0xbd5bac11	-0.053630892
199	0xbc1c1e09	-0.009528645
200	0xbc8082e4	-0.015687414
201	0xbc93eaf2	-0.018056367
202	0xbc8d5a59	-0.017254995
203	0x3af94e6d	0.0019020565
204	0xbced8692	-0.028994832
205	0x3b9f01a9	0.004852493
206	0xbbcf00d6	-0.0063172383
207	0xbcfe1ea0	-0.031020463
208	0xbca050c3	-0.01956976
209	0xbc383fd4	-0.011245687
210	0x3c8ebee3	0.017425006
211	0x3cb0b0e3	0.021568721
212	0xbca6bdd1	-0.020354183
213	0x3afb1d09	0.0019158433
214	0x3a0e1fe2	0.0005421621
215	0x3cb0d97b	0.021588078
216	0x3c477f05	0.01217628
217	0xbc0aedbe	-0.008479534
218	0xbcaeacb0	-0.021322578
219	0x3c650fc1	0.013980807
220	0x3cb07ce8	0.021543935
221	0x3babcd00	0.0052429438
222	0xba3e6f52	-0.0007264513
223	0xbca47a75	-0.020077923
224	0xbc0df98d	-0.008665455
225	0xbd2201b5	-0.03955241
226	0xbc8491fb	-0.01618289
227	0xbc403f58	-0.011733852
228	0xbd176971	-0.03696579
229	0x3c6c7457	0.014432034
230	0xbb63e684	-0.003477485
231	0xbd0fc0a4	-0.035095826
232	0x3c3aeca2	0.011408957
233	0x3c4b2de7	0.012401081
234	0xbb6574f3	-0.0035012334
235	0xbb26e70e	-0.002546731
236	0xbb894647	-0.004189286
237	0x3b289920	0.0025726035
238	0xbcfa126d	-0.030526364
239	0xbc9db2d1	-0.019250305
240	0xbc909521	-0.017649235
241	0x3c344056	0.011001667
242	0xbcd0930c	-0.025460742
243	0xbc4adefb	-0.012382264
244	0xbc8005e0	-0.015627801
245	0x3c618603	0.013764861
246	0xbc17fbfc	-0.009276386
247	0xbc6c0064	-0.01440439
248	0xbcaf44a3	-0.021395033
249	0x3c52d580	0.012868285
250	0xbbc81478	-0.0061059557
251	0x3c93c87d	0.018039936
252	0x3bcb91d7	0.006212454
253	0xbab0dda2	-0.0013493786
254	0xbb844520	-0.0040365607
255	0x3cb627f7	0.022235854
