cifar-10/netD.pt (torch_old, 698395 bytes, 12 tensors)

weight f4 [32, 3, 4, 4]
000000 69 48 26 bd ec 2e f9 3a 4c c7 4e bd 32 34 59 3d
       -0.0405964 0.0019011176 -0.050483033 0.053028293
000010 a5 7b e0 bc 1c fe e7 bb 4f df 91 bb 66 4a 0e bd
       -0.027402708 -0.0070798527 -0.0044516693 -0.03473892
000020 61 59 cf 3c ab 6a 11 3d df 2d e0 bb 71 fd fa bb
       0.025311174 0.035502117 -0.0068414058 -0.007659607
000030 56 ff 4d 3c 2b d6 0a 3d eb fd 02 bb 4e 17 e1 bb
       0.012573084 0.033895653 -0.0019987773 -0.006869233
000040 a5 9e 97 bc 99 08 c1 3b eb 49 0b 3d 3a 65 ad bc
       -0.018508265 0.0058909175 0.03400604 -0.021166433
000050 ae 07 e7 3c 0b 41 9d bd 2a 08 d1 bc bb e6 73 bb
       0.028201904 -0.076784216 -0.025516588 -0.0037216383
000060 9f a6 16 3c 04 97 88 3c b3 d4 d1 bc 57 e1 1f 3c
       0.009194999 0.016673572 -0.025614118 0.009758315
000070 99 e0 93 bc f8 48 dc ba e6 c0 69 3c 8d e3 b0 3c
       -0.018051432 -0.0016806414 0.014267182 0.02159288
000080 14 bf 84 3c 8d 4e 3a 3d c1 9b 9e bc a2 5d f7 bc
       0.016204394 0.045485068 -0.019361379 -0.030196015
000090 77 3f 12 bc bd bb af 3d d2 2d 8e 3b cc ed 71 3c
       -0.008926264 0.0858073 0.0043389583 0.014766168
0000a0 1e d9 47 bd 3e 59 e2 bc cb f2 ac 3c d1 ec 23 3c
       -0.048791043 -0.027630445 0.021111866 0.010005192
0000b0 4b 70 b1 3b 75 b6 ae bc e8 f6 30 bc 9c 28 f8 bc
       0.0054149977 -0.021327237 -0.010801055 -0.030292802
0000c0 47 5a 98 3c 0a ca b7 3c 2e fd 33 3c e8 c9 4b 3c
       0.018597735 0.022435207 0.010985656 0.012438275
0000d0 17 12 04 3d a4 34 e1 3c 95 6a fe 3c e2 18 f5 3c
       0.032243814 0.027490921 0.031056682 0.029919092
0000e0 b6 82 fc 3c 27 c6 5e 3c d3 31 6a 3c b0 96 49 3d
       0.030824047 0.013597048 0.014294106 0.049215972
0000f0 9c e1 5d 3c a2 8c af 3c 8d 47 fc 3c 4f 5a 06 3d
       0.013542559 0.021429364 0.030795837 0.03280097
000100 fc f2 d7 3b 1a a1 85 3b 6c e1 55 bc 34 fd f4 bb
       0.0065902453 0.0040780427 -0.013054233 -0.007476473
000110 81 23 1b 3c b7 ec 62 3c 14 f8 af 3c ee f2 97 b8
       0.009468914 0.0138503825 0.021480598 -7.24549e-05
000120 ef ee f6 3b 12 11 ad 3b e0 a2 e6 3b 44 f5 be 3b
       0.0075358073 0.005281576 0.007038459 0.005827578
000130 e0 7b b1 bb 54 b7 54 bc fe 73 bc bc 78 49 a4 3c
       -0.0054163784 -0.012983162 -0.023004528 0.020054564
000140 43 57 c6 bc 1f ce 11 bd 44 69 83 bc d8 6b 45 3c
       -0.024211532 -0.035596963 -0.016041405 0.012049638
000150 5c ee d9 bc 9a d3 73 bc f4 ed 19 bc 6e b2 c4 3a
       -0.026602916 -0.014881993 -0.009395111 0.001500679
000160 9c 74 93 bc b7 c3 b5 bc f5 ae a8 bc ec 70 4e 3c
       -0.01799994 -0.02218805 -0.020591239 0.012600165
000170 20 e9 c2 bb 24 26 0e bd 62 e8 24 3a a8 26 be ba
       -0.005948201 -0.034704342 0.0006290731 -0.001450737
000180 87 7c 87 bc e5 0f 33 3d b3 91 96 3b 73 0d 1c 3c
       -0.016538871 0.04371633 0.0045950054 0.009524691
000190 26 e9 c9 3b 09 6d c2 bc d9 2a b4 3c f4 2d 9d 3c
       0.0061618267 -0.023733633 0.021993088 0.019186951
0001a0 7d 54 08 bd 6f e2 fb bc 07 99 b2 3c 46 72 b8 ba
       -0.0332837 -0.03074762 0.021801485 -0.0014072142
0001b0 aa 3e 0b 3d e3 eb 54 bb 7a 67 18 bd 5c 90 4f bc
       0.033995308 -0.0032489232 -0.037208058 -0.012668695
0001c0 13 00 6c 3c 6c 07 89 3c d9 71 40 bd 7f c5 f5 bc
       0.014404315 0.016727172 -0.046983574 -0.0300014
0001d0 82 9c 77 3d 11 f2 37 3d 1a cd 9a 3b cc 5d 1a 3d
       0.06045199 0.044908587 0.004724157 0.037687108
0001e0 86 ba 34 bc 4f 61 d4 bc 20 56 1a bd c8 47 3c ba
       -0.011030799 -0.025925307 -0.03767979 -0.0007182327
0001f0 e4 b5 4e bd ed 2c 9a 3b ef 20 38 bd e4 83 3e 3b
       -0.050466433 0.0047050626 -0.044953283 0.0029070312
000200 39 80 16 3b b6 af ee bb ed 69 82 bc c4 2d 41 3c
       0.002296461 -0.00728413 -0.01591965 0.0117906965
000210 b6 b0 2f bd f8 65 3d bb 30 ed af bc a3 11 83 3c
       -0.042893134 -0.002889989 -0.021475405 0.01599962
000220 fb 3a d0 3c e8 8f 7e 3d 5f ac 91 bc 41 81 1c bd
       0.02541875 0.06214896 -0.017782388 -0.038209204
000230 d3 3c 33 bc 0f 67 31 3d 3f db 6a 3c eb 9f f5 3b
       -0.010939795 0.043311175 0.014334499 0.0074958703
000240 b3 4f 22 3d 0e 77 bf bc 77 c1 b5 bc cf 46 03 3b
       0.03962679 -0.0233722 -0.022186978 0.002003122
000250 f6 f0 96 bc 18 57 d1 3c 8a e9 0c bd 2f ba 26 3d
       -0.018425446 0.025554225 -0.034402408 0.040704902
000260 5c ad 61 bd 06 e8 53 bc 86 5d ea ba 16 bb 42 3d
       -0.05509697 -0.012933737 -0.0017880655 0.0475417
000270 92 0b c6 3c 83 ac 70 bc 11 1b 64 3c 07 ee 2c bc
       0.024175439 -0.0146895675 0.013922469 -0.010554797
000280 43 5d 3c bd 1f 85 19 3c 0c fd 15 bd 19 73 50 3c
       -0.04598738 0.009370117 -0.036618277 0.012722754
000290 56 4d 0a bd a9 ab 7c 3d ba 74 18 3c e5 cb 1f bd
       -0.03376516 0.061687145 0.0093051735 -0.03901281
0002a0 a7 4f 45 3d 7d 75 9a bb e2 04 b5 bc a3 ba e1 bc
       0.048171666 -0.0047137127 -0.022097055 -0.027554816
0002b0 d4 f5 59 bd d5 92 31 3d de 3a af bc eb 72 b6 bb
       -0.053212956 0.04335292 -0.021390375 -0.0055678985
0002c0 ac b1 02 bc ad 09 28 3d 4c da 3b 3c 59 ad 2d bd
       -0.007976931 0.041024853 0.01146562 -0.042401645
0002d0 52 8d f3 3b 99 ba c3 3b ad a4 83 bc 1e 15 32 bc
       0.007432618 0.005973172 -0.016069734 -0.010869293
0002e0 38 7b d7 3c 85 f1 89 bc 15 07 ae 3b 4f b9 f3 bc
       0.026303872 -0.016838798 0.005310903 -0.029751448
0002f0 68 a4 f0 3a 21 75 13 3c e2 9f 0b bd e1 85 27 bc
       0.0018359544 0.009000094 -0.034088023 -0.01022479
000300 0c 2b 24 3a c7 df 31 bd 50 bb 87 3c f8 fa ac 3c
       0.0006262518 -0.0434263 0.01656881 0.021115765
000310 10 23 01 bd c8 5a c8 bc 53 73 93 3b fa b6 fb 3c
       -0.03152758 -0.02445735 0.0044998317 0.030726898
000320 6d 1f 27 bd 5e 1e 03 bc 5d 76 85 3b 2a 9b 0d 3d
       -0.040801454 -0.008002846 0.004072948 0.034571804
000330 77 23 c8 3c 07 56 4d bc 62 6b 67 3c 44 54 1c 3d
       0.024430973 -0.012532718 0.014124723 0.0381663
000340 50 b8 aa 3c 2b c9 d2 bc 0d cb b1 bc ef 2f 13 3d
       0.02083984 -0.02573069 -0.021703267 0.035934385
000350 c0 e4 91 bc f2 f5 0e bc a0 6c 4f bc 73 d8 68 3c
       -0.017809272 -0.00872563 -0.012660176 0.014211762
000360 a7 ba 02 3b 6e b7 91 bc c1 03 2a bc 4f 58 04 3c
       0.001994768 -0.017787661 -0.010376872 0.008077695
000370 3a ce f7 bc 12 74 6a 3c 20 49 b8 3c 52 fe a6 3c
       -0.030249704 0.0143099 0.022495806 0.020384941
000380 72 1c 85 bd 38 a1 a5 bb 71 7a d8 bc bb 1c 0e 3d
       -0.06499566 -0.005054619 -0.026425572 0.03469537
000390 ca a3 1f bd 70 b3 3c bd 89 88 4a bc 89 57 3d bb
       -0.03897456 -0.046069562 -0.012361654 -0.0028891286
0003a0 08 f2 51 3c 3f b3 34 ba 44 b0 39 3d 54 51 ad 3d
       0.012814052 -0.0006893165 0.045334116 0.08462778
0003b0 fc 42 17 bc 3a 76 20 3c 1c 9a e6 3b be c0 b8 3c
       -0.009232279 0.009793812 0.0070374142 0.022552844
0003c0 e3 57 21 3a 58 09 86 3b cd e9 5e bd 69 55 30 3c
       0.0006154759 0.0040904693 -0.05442219 0.010762551
0003d0 bc ec ac bc 67 d3 b9 bb 46 e7 6f 3c 2d dd 49 bc
       -0.021108977 -0.005670953 0.014642542 -0.012320799
0003e0 73 34 c1 3c f3 6f cd 3c aa c4 9e bc ea 93 50 3c
       0.02358458 0.025077796 -0.019380886 0.012730578
0003f0 8e ad 3c 3d b3 3c 8f bc 01 c9 9a 3c ad 40 a3 bc
       0.046063952 -0.017484998 0.018894674 -0.0199283

weight f4 [64, 32, 4, 4]
000000 0d de a4 bb 16 1c ee bb 94 00 cf 3c 82 9f 3c bc
       -0.0050313533 -0.0072665317 0.02526883 -0.011512639
000010 32 c1 75 bc 6e 84 fe bb 00 72 c0 3c a0 6d 84 bd
       -0.014999675 -0.0077672517 0.02349186 -0.06466222
000020 24 4b 4b bc 89 1d fb bc a9 2a 42 bd 69 09 96 3c
       -0.012408052 -0.030653732 -0.047403965 0.018315034
000030 e0 79 2a bd 5b 03 50 bd 54 3f 28 bd 86 cf 2c 3d
       -0.041620135 -0.05078445 -0.04107602 0.042190097
000040 ba 8b 18 3b 13 13 f4 bc 3d 3e 71 bc d1 e2 da bc
       0.0023276643 -0.029794252 -0.014724311 -0.026719483
000050 1b b3 26 3c a2 e9 89 bc 5a b9 e7 bc 71 fe 1d bc
       0.010174538 -0.016835038 -0.028286625 -0.009643183
000060 de db 0e bb 79 c4 9f bc e2 d7 75 3a ca 7c 43 3b
       -0.0021798532 -0.019502865 0.00093781773 0.0029829019
000070 74 aa 69 3c 8b 61 41 bd f9 94 a4 bd a4 67 a4 bc
       0.014261831 -0.047212165 -0.08036227 -0.020068951
000080 04 88 e0 3c 01 78 58 bc 57 87 d1 bc 41 de 19 3d
       0.027408607 -0.013212205 -0.02557723 0.037565473
000090 29 3a f5 3c ee 14 da 39 10 ff 80 bc 32 68 17 3d
       0.02993496 0.00041595794 -0.015746623 0.036964603
0000a0 d5 81 7a bb 68 8d bc 3b 6c 02 a2 bc fb df 39 3c
       -0.0038224359 0.0057541616 -0.019776545 0.011344905
0000b0 21 b8 d7 3c 8d 03 96 3a af 10 25 bb e6 61 12 3c
       0.026332917 0.001144515 -0.0025186946 0.008934474
0000c0 94 fc c3 3c e8 38 bf bc a8 aa b3 bb 94 27 8d bb
       0.02392415 -0.023342565 -0.0054829903 -0.0043076966
0000d0 89 46 6b bc 42 8a d1 3c fa 7c 47 3c 95 69 e4 bc
       -0.014360079 0.025578622 0.012175793 -0.027882377
0000e0 11 c4 4d b8 6a fa 36 bc d0 3f eb 3b 02 e9 36 bd
       -4.905841e-05 -0.011168102 0.007179238 -0.044655807
0000f0 2f e4 96 bc e8 3b 0c 3d 7e ca 3e 3c 15 d6 82 bc
       -0.018419353 0.03423682 0.011644958 -0.015971223
000100 78 69 1e bc 1a 21 c9 bc c5 4c 3a 3b 5d 88 5b 3d
       -0.0096687 -0.024551917 0.0028427106 0.053596843
000110 b3 e1 17 bd 48 4a bd bc 1f 79 10 3d c9 91 89 3c
       -0.037080478 -0.02310671 0.03527176 0.016793149
000120 43 36 9d 3b 7d 94 1a bc 79 34 ae 3c 7f ce ea ba
       0.0047977283 -0.009434816 0.021265255 -0.0017914324
000130 2d 65 2f bc 51 44 5c 3c 82 3b 53 3c df 28 15 bc
       -0.0107052745 0.013444022 0.012892606 -0.009103983
000140 e1 2c e7 bc 2e 06 54 bb 1e 30 4b bc 82 37 18 bb
       -0.028219642 -0.0032352316 -0.012401609 -0.0023226445
000150 48 64 e6 bc ed 3c b9 bc e7 dd 14 bb fb cc 1d bc
       -0.02812399 -0.02261206 -0.0022715272 -0.009631391
000160 6c f6 cc bc 67 c5 27 bc 4e 60 0f bd 7a 81 4a bd
       -0.025019847 -0.0102399355 -0.035003953 -0.049439885
000170 52 6b 18 bd 68 13 9e 3c ea 48 21 bd 07 67 0b bc
       -0.037211724 0.019296363 -0.039376177 -0.00850845
000180 3e 3b 7b bd cc e3 11 bc 89 97 0f 3c 4e b9 9b 3c
       -0.061335795 -0.008904409 0.008764156 0.019009259
000190 8e cf 5b bc a0 1b 03 3c 13 7a 01 3c 91 cc 67 3c
       -0.013416184 0.008002192 0.00790264 0.0141478935
0001a0 2a 6a 61 bd 7b 44 a0 bc 4f 46 05 bd ac 45 43 3b
       -0.055032887 -0.019563904 -0.032537755 0.0029796166
0001b0 1c 18 e7 bc 21 21 3f bd b5 b8 9c bc 36 33 f5 bc
       -0.028209738 -0.046662454 -0.019131044 -0.029931646
0001c0 6b 4f 89 bc 5b e6 b0 bc 6b e3 42 bb 5b 5a 85 3c
       -0.016761502 -0.021594217 -0.0029737602 0.016278436
0001d0 55 4f 8b bc 71 3c 1f b9 86 38 0c bd 15 c6 a1 bc
       -0.017005602 -0.00015185938 -0.034233592 -0.019747773
0001e0 a5 65 eb bc a6 d3 a9 bb 01 9e 05 3d ae f3 c9 3b
       -0.028734991 -0.005182701 0.032621387 0.006163082
0001f0 2b b9 cc bc 30 38 b9 3b 20 68 c2 bb 11 7b 7a 3c
       -0.024990639 0.00565245 -0.005932823 0.01528813
000200 2b 15 06 bd 58 db e2 bc 63 b1 36 bc d9 06 4f bc
       -0.03273503 -0.027692482 -0.011150691 -0.01263591
000210 c8 16 a7 bc 21 a3 e9 3b 00 07 88 3c e3 d8 93 bc
       -0.020396605 0.007130042 0.0166049 -0.018047756
000220 99 17 e7 bc c8 c0 45 bd fe 22 00 bd d6 cc 39 ba
       -0.028209494 -0.048279554 -0.03128337 -0.0007087713
000230 77 2a 38 bd e6 93 97 bc 56 8c b5 bb 2a ba d1 bb
       -0.044962373 -0.01850314 -0.005540411 -0.0064003663
000240 b8 77 ad bc c8 62 06 bd 86 96 7f bc 72 66 58 bd
       -0.02117525 -0.03280905 -0.015599852 -0.052832074
000250 07 9c cb bb 8e 64 9c 3b 64 9b 1b bc 62 52 e7 bc
       -0.0062136683 0.0047727292 -0.009497497 -0.028237525
000260 2f d3 e9 bc 20 0c 14 3c 3a fd fb bc 6f ec 14 bd
       -0.028543083 0.009036094 -0.030760396 -0.036358293
000270 65 d0 4a 3a e9 ee 3e bc 26 39 48 bd 07 8a d2 bc
       0.00077367417 -0.01165364 -0.048882626 -0.025700582
000280 e2 17 a8 bc 8d e4 5a 3c 0e f2 1e bd 3e 52 21 bd
       -0.0205192 0.013360155 -0.03880506 -0.039385073
000290 81 b9 d7 bc a1 c7 d9 bb 75 1a 98 3c d1 74 51 bc
       -0.026333572 -0.006646112 0.018567303 -0.012784199
0002a0 41 46 d7 bb 1a 5e 07 bd 46 12 32 3a c3 c8 98 bd
       -0.006569654 -0.033048727 0.0006792884 -0.07460167
0002b0 6d 10 f6 39 df d4 59 bc 8d 19 98 bd ed 88 26 bd
       0.00046933015 -0.013295381 -0.074267484 -0.040657926
0002c0 cd 23 63 38 d5 36 e1 3c db 81 da 3a 29 f5 9d bc
       5.415436e-05 0.027491966 0.001667078 -0.01928194
0002d0 47 95 fa 3b cf 46 9b bc 47 63 a2 bc 19 be a2 3c
       0.00764719 -0.018954663 -0.01982273 0.019866036
0002e0 e1 af c8 3c 70 54 42 bc 24 62 81 bc d3 81 f1 bc
       0.024497928 -0.011860952 -0.015793867 -0.02948085
0002f0 00 4b d6 bc 6a 94 b2 bc 4e 7f 40 3d a4 e2 90 3a
       -0.02615881 -0.021799285 0.046996407 0.0011053872
000300 35 ff 98 bb 40 7f 8b bc b4 d4 1b 3c 51 a6 08 3a
       -0.004669095 -0.017028451 0.009511162 0.00052127714
000310 c0 a1 1b bd 81 81 61 bd 9b 97 ed bc 8a d4 06 3d
       -0.037996054 -0.055055145 -0.029002955 0.032917537
000320 9e 3e 43 bd 97 fa b1 bc 54 ed d8 3a 0e b1 0b 3c
       -0.04766714 -0.021725936 0.0016550221 0.0085261
000330 d6 14 21 bd 2d 47 ab bb 60 77 63 bc 03 1a ae bc
       -0.03932651 -0.0052269907 -0.013883442 -0.021252638
000340 c3 13 80 bd 78 a9 9c 3c 2c 54 63 3c 49 2c f8 ba
       -0.06253769 0.019123778 0.013875049 -0.0018934096
000350 0d 84 53 3c f4 13 d2 bc 50 25 d3 3c 77 19 6d bc
       0.012909901 -0.02564428 0.025774628 -0.014471403
000360 ed 4d 81 bc d5 46 8e 3c 9c d2 17 3c e7 43 e6 bc
       -0.015784228 0.01736776 0.009266522 -0.02810855
000370 26 be 20 bd e7 a2 94 ba 11 26 68 3c 01 a5 b6 bc
       -0.03924384 -0.0011340053 0.014169232 -0.022295477
000380 76 e4 82 3b d7 34 e4 bc b7 be b9 bc 38 a1 de 3c
       0.00399452 -0.027857227 -0.022673948 0.027176484
000390 75 37 36 3c 88 bc 8d bd f6 5c c7 3c 99 62 d0 bc
       0.01112162 -0.06920725 0.02433632 -0.02543764
0003a0 2f 43 19 3c ce 74 9a bc 9a 91 8b 39 4d 2d 96 3c
       0.009354397 -0.018854525 0.00026620628 0.018332148
0003b0 10 c2 95 3c 78 8b 84 bc 3a f9 25 bc cf 97 b2 3c
       0.018281013 -0.016179785 -0.010130221 0.021800904
0003c0 db ee b4 bc 67 2e 33 bc 04 f3 67 bb 2f 8a ab bc
       -0.022086551 -0.010936356 -0.0035392651 -0.020939915
0003d0 ac fd 07 3c 8a 6f 41 bc 4c d2 f1 bb ce 8d 17 bd
       0.008300226 -0.011806378 -0.0073798057 -0.03700047
0003e0 f6 5d 95 3c 5e d1 9f 3b 76 93 62 3c de 5b 33 bd
       0.01823328 0.0048772534 0.013829103 -0.043788783
0003f0 5e 87 67 3c 77 c1 b6 3b f1 b4 a4 3c 29 ec eb bc
       0.014131395 0.005577262 0.02010581 -0.028799133

running_mean f4 [64]
000000 4d a2 dc bd 69 37 4c 3c 65 5d 19 bd 07 91 b4 3c
       -0.10773144 0.012464383 -0.037442584 0.02204181
000010 53 09 5d bd 0c 02 ea bc 85 8d 31 bd 2c fb 3c bd
       -0.05396397 -0.02856543 -0.043347854 -0.046137974
000020 0e a5 71 bd ff a0 d2 3c 93 6b 66 bd ec 42 93 bc
       -0.0589953 0.025711535 -0.056254935 -0.017976247
000030 89 20 ba bb 04 f4 c1 bd 6b 53 96 bd fc c4 80 bd
       -0.005680148 -0.094703704 -0.073401295 -0.06287572
000040 80 49 6b bb f9 96 a2 bc 1d b8 1c 3c 58 84 75 3d
       -0.0035901964 -0.01984738 0.00956538 0.059940666
000050 9d 09 34 bd 76 16 96 bd 43 4d 51 bd ed b6 46 3c
       -0.04395448 -0.07328503 -0.051099073 0.012128574
000060 15 4f 4a 3c f2 a1 6e bd a8 a2 af 3b fb e3 0e bd
       0.012347956 -0.05825991 0.0053599663 -0.034885388
000070 58 bf 9c bd 6e d4 90 3c bd b2 59 3d ba d9 c4 3b
       -0.076536834 0.01767942 0.053148974 0.0060074003
000080 26 ae 81 bd e7 9c 84 bd 6d ea 9d 3d a0 66 d7 bc
       -0.06332044 -0.06475239 0.07710729 -0.026294053
000090 ac 3b 12 3c 3b e2 49 bd 47 d1 2d 3c 33 27 9b bc
       0.00892536 -0.049288016 0.010608978 -0.01893959
0000a0 4a 5d aa bd ed 9c a5 bd b0 0e a1 bc 4d 4d d6 bc
       -0.08318575 -0.08086572 -0.019660324 -0.026159907
0000b0 47 f6 0e bd ce 03 f7 bc 01 22 fb bc 61 e6 41 bb
       -0.034902837 -0.030153181 -0.030655863 -0.002958678
0000c0 ae 43 57 3b ef d4 92 bc 3b 5c 0e bd 2e 08 18 3c
       0.0032846737 -0.0179238 -0.034755927 0.009279294
0000d0 38 67 1b bd 6f db e5 3c 3f df 2f bd c8 90 48 3c
       -0.037940234 0.028058736 -0.042937513 0.01224155
0000e0 a3 02 35 3d 57 4b 08 3d 19 c2 a2 bd c6 b1 8c bc
       0.044191968 0.033274975 -0.079471774 -0.017174613
0000f0 77 77 95 3d d6 29 92 3c 32 b1 86 3b 92 1d 11 bd
       0.07298177 0.017842215 0.004110479 -0.03542859

running_var f4 [64]
000000 d7 ee 86 3b cd e9 14 3b 2e b9 72 3b 64 85 fb 3a
       0.0041178274 0.0022722364 0.0037036645 0.0019189534
000010 57 c9 49 3b bf 80 f2 3a 28 6c 17 3b 56 f7 05 3b
       0.0030790174 0.0018501504 0.0023105238 0.0020441613
000020 a8 46 ab 3a 54 c3 32 3b 59 cf 2d 3b 3e e4 e6 3a
       0.0013067322 0.002727707 0.0026521294 0.0017615629
000030 1a fc 5b 3b 86 c0 30 3b c0 1a a1 3a e3 90 5a 3b
       0.0033567012 0.0026970222 0.0012291297 0.003335052
000040 b4 9c df 3b 8e 2b 6e 3b b8 7e 1d 3b 6f dd b6 3b
       0.0068241004 0.0036341879 0.002403183 0.005580596
000050 24 6b b2 3b e8 61 2c 3b b4 40 e1 3b b8 f8 90 3b
       0.005444901 0.0026303474 0.0068741683 0.004424181
000060 f2 e8 87 3b a9 da bb 3b 00 a0 8f 3b f0 e2 2c 3b
       0.0041476423 0.0057328534 0.004383087 0.0026380382
000070 76 bf fb 3a dc 11 2d 3b 47 7e 47 3b a9 1d a5 3a
       0.001920684 0.002640835 0.0030440257 0.001259734
000080 d9 68 da 3a ae 34 df 3a ba f8 86 3b 55 46 10 3b
       0.0016663327 0.001702925 0.004119006 0.0022014577
000090 5c d4 89 3a 92 e6 0b 3b 02 2b 6a 3b b4 43 ea 3a
       0.0010515559 0.0021347147 0.00357312 0.001787296
0000a0 ad ef 32 3b ab 32 5a 3b 0b 9d 86 3b 6c ef f9 3a
       0.0027303502 0.003329436 0.0041080764 0.0019068546
0000b0 18 f8 cb 3a 87 68 93 3b a9 8f 36 3b 4c 53 c1 3a
       0.0015561609 0.0044985446 0.0027856624 0.0014749556
0000c0 03 87 9f 3b 49 6e f7 3b d5 92 fc 3a 75 e4 09 3b
       0.0048683896 0.007550989 0.0019269834 0.0021040712
0000d0 c5 ca 29 3c 74 ed 3c 3b 10 e7 12 3b 98 00 0f 3b
       0.010363285 0.0028828057 0.0022415556 0.0021820422
0000e0 5b 9e cf 3a c5 b7 88 3b d4 6e 23 3b cd 09 63 3b
       0.001584004 0.0041722977 0.0024937885 0.0034643293
0000f0 ef 4b 78 3b 12 ed 48 3b 4d 5a 1c 3c bb 08 a5 3a
       0.0037887057 0.0030658883 0.009543014 0.0012591103

weight f4 [64]
000000 c2 05 80 3f ef b1 79 3f a7 0c 81 3f 44 93 7f 3f
       1.0001757 0.9753713 1.0081986 0.99834085
000010 0c 58 7c 3f 24 78 78 3f 2e a9 7c 3f 06 e4 85 3f
       0.9857185 0.9705832 0.9869565 1.0460212
000020 25 4c 82 3f 2b ca 81 3f 19 63 7c 3f 86 86 80 3f
       1.0179487 1.0139822 0.9858871 1.0041053
000030 cb 37 82 3f ad 47 7a 3f 38 e0 85 3f bd af 80 3f
       1.0173277 0.9776562 1.0459051 1.0053631
000040 51 d1 81 3f 08 1c 82 3f 26 40 7a 3f a3 42 74 3f
       1.0142003 1.0164804 0.9775413 0.9541418
000050 83 6a 80 3f 87 cf 88 3f c3 59 75 3f 8e dc 7c 3f
       1.0032505 1.0688332 0.9584009 0.9877404
000060 38 b5 80 3f d2 f6 7d 3f d9 48 7c 3f 1b 7d 81 3f
       1.0055304 0.9920474 0.98548657 1.0116304
000070 f0 0d 7c 3f 8e 69 7b 3f 10 08 81 3f 24 df 78 3f
       0.98458767 0.9820794 1.0080585 0.97215486
000080 de ee 7e 3f d8 bd 79 3f e3 3d 87 3f 14 a2 77 3f
       0.9958323 0.97555304 1.0565761 0.96731687
000090 aa 40 72 3f b1 39 7d 3f 81 6a 81 3f 41 2a 81 3f
       0.9462992 0.98916155 1.0110627 1.009102
0000a0 ca 74 74 3f 91 d3 7c 3f 3f aa 80 3f 89 3e 80 3f
       0.95490706 0.98760325 1.0051955 1.0019084
0000b0 8d 87 7a 3f 3c 55 84 3f a8 5f 74 3f e2 1c 81 3f
       0.97863084 1.0338511 0.9545846 1.0086939
0000c0 b1 95 7c 3f d1 d7 73 3f 90 80 87 3f ad 63 80 3f
       0.9866591 0.95251185 1.0586109 1.0030419
0000d0 9e 50 84 3f 52 e1 7c 3f ee 10 81 3f 2b 51 79 3f
       1.0337102 0.9878131 1.0083292 0.9738948
0000e0 1c be 72 3f 41 c8 78 3f 4b 79 7b 3f f9 7d 7f 3f
       0.94821334 0.97180563 0.98231953 0.99801594
0000f0 22 d7 7c 3f 5d 1a 7b 3f a9 05 82 3f 64 17 78 3f
       0.98765767 0.980871 1.0157977 0.9691069

bias f4 [64]
000000 b4 68 2d 3c 44 b0 3c bd 4c 6a 18 bc 59 9d 9e bc
       0.010584045 -0.046066537 -0.009302687 -0.019362139
000010 07 cf 3b bd 4f c7 1e bd 7a bb 30 3c a8 54 c2 bc
       -0.045851734 -0.038764294 0.010786885 -0.023722008
000020 81 03 8a 3a 96 24 59 3c 71 4c 7e bb 42 d5 cb 3a
       0.0010529609 0.013253352 -0.0038802887 0.0015551227
000030 20 2f 4f 3c ee 8b f4 3c fd 6f 7c 3c fd bc e5 ba
       0.012645513 0.02985188 0.015407559 -0.0017527636
000040 17 6d 3b bb cd 5a 1f 3b 2c 6a 2e bd dd 16 82 bc
       -0.0028598958 0.0024315596 -0.042581722 -0.015880043
000050 60 28 dd 3c 19 81 6b 3d 00 de 77 bc 6a 09 bb bc
       0.026996791 0.057496164 -0.0151286125 -0.022831637
000060 47 e1 49 bc 90 ae 17 3c ba d2 31 bb e6 8f ff bc
       -0.012321777 0.009257928 -0.002713366 -0.031196546
000070 40 d3 89 3b 77 16 6f bc 9e a6 ec bb 1f 02 39 bc
       0.004206091 -0.014592758 -0.0072220108 -0.01129201
000080 24 7e 29 3c eb 57 68 bc 83 f1 85 bc 2c ba 55 bc
       0.010345016 -0.0141811175 -0.016350513 -0.013044875
000090 55 15 02 bd aa af 6f bc 9a 75 e9 3b 5c 0f 52 bc
       -0.031758625 -0.014629284 0.007124615 -0.012821045
0000a0 24 bd 48 bc 6a d6 24 3c eb 2a 39 3c 8d 0a ed ba
       -0.012252126 0.010060886 0.011301736 -0.0018084809
0000b0 ff ec 82 bc d9 a8 e1 3c c0 ca db bc b5 53 ba bc
       -0.01598215 0.027546333 -0.026830077 -0.022744993
0000c0 f7 73 57 b9 17 e2 6d bd c2 31 d4 3b 59 a0 24 bd
       -0.00020547198 -0.058076944 0.006475658 -0.040191982
0000d0 f0 1c d7 3b 3c 93 95 3a c1 fa 9f bc b5 5b 06 bd
       0.006564729 0.0011411677 -0.019528748 -0.032802302
0000e0 d1 6c 89 bd ce 92 25 bd e1 c3 4d 3c ce 43 ac bc
       -0.06710208 -0.040423207 0.012558908 -0.021028426
0000f0 7f b5 db bc 2f e1 a3 bc 78 51 7b 3c c7 d4 4d bc
       -0.026819943 -0.020004837 0.015339248 -0.012562937

weight f4 [128, 64, 4, 4]
000000 ff 8a 10 3c 3e e8 31 bd 2f ad 8b bc c6 5c 36 3c
       0.008822202 -0.043434374 -0.017050354 0.011130517
000010 d1 9c db 3c 14 d1 e8 bb 88 c8 c6 3c 52 2b c4 3c
       0.026808174 -0.007105002 0.024265543 0.023946438
000020 57 47 8d 3c dc d1 54 bb df fe 8f bc 40 11 c5 bc
       0.017245932 -0.0032473719 -0.017577587 -0.024056077
000030 60 66 38 bc 27 62 70 3a 0b 9a 3f bc b3 a1 fa bb
       -0.011254877 0.0009169899 -0.011694442 -0.0076486706
000040 e5 a0 09 bc 28 ad 2a bc 0b 4f 03 bc 03 37 e0 3a
       -0.008400177 -0.01041726 -0.008014451 0.0017106239
000050 e9 34 50 3c 45 2b 20 bd 0f 4c d7 bb 82 fd e4 3c
       0.012707927 -0.039103765 -0.006570346 0.027952913
000060 27 22 9e 39 b7 07 99 3c de ab 89 3b e8 36 cb 3c
       0.00030161554 0.018680437 0.0042013964 0.024806455
000070 e3 14 1e 3d ad 91 24 bc d9 a8 c6 ba 89 5b da bc
       0.038594138 -0.010044497 -0.0015156522 -0.026654975
000080 21 7e 4d 3c 48 1c 71 bc 38 df ad bc 1c 4d 04 bc
       0.0125422785 -0.014716215 -0.021224603 -0.008075025
000090 e8 cc eb bc 77 e4 39 3d b8 39 9b bb c2 5d ac bc
       -0.02878423 0.045383897 -0.004737105 -0.021040801
0000a0 6a e1 46 3c e1 a3 c2 bc b1 59 c0 3a 6b 66 a4 bd
       0.012138704 -0.023759784 0.0014675168 -0.08027347
0000b0 3c d2 86 bc f9 a4 cd 3c 7e c9 02 bd 59 02 c7 3c
       -0.01645767 0.02510308 -0.03193044 0.024293112
0000c0 b8 24 0a 3d 00 74 82 bc 75 47 9d bc 4b d3 03 bd
       0.033726424 -0.015924454 -0.019199112 -0.032183927
0000d0 d4 a3 a6 bc 94 f4 6d 3c 10 23 14 3d 9b ed 44 ba
       -0.020341791 0.014523644 0.03616625 -0.00075122126
0000e0 02 e7 39 bd 6e e2 5f 3c a2 32 1d 3d 56 70 09 bd
       -0.04538632 0.013664825 0.038378365 -0.033554398
0000f0 c6 bb 2e bc a2 e1 3f 39 b6 e3 cf bb 0c 5c bd 3c
       -0.010664886 0.00018299234 -0.006344284 0.02311518
000100 83 8b a1 bc 6d 93 b9 3b 92 60 e5 3a 1c 23 0a 3c
       -0.019719845 0.0056633265 0.0017500094 0.008431222
000110 2b 79 e1 3b 58 08 96 bc a6 6b a9 bc 07 c9 46 bd
       0.0068808994 -0.018314525 -0.020681214 -0.04853156
000120 de 44 20 bc 33 f8 8d bc ff 29 ec 3c 59 83 d0 3c
       -0.009782044 -0.017330265 0.028828619 0.025453256
000130 29 f7 5b bc de 3a d6 bc 77 f8 20 3d da 8b a7 bc
       -0.013425627 -0.026151117 0.039299455 -0.020452429
000140 ac ab 55 bc c4 39 c0 3c c9 e0 d8 bb 6a 4d 44 bd
       -0.013041418 0.023465045 -0.0066185934 -0.04792539
000150 2b da be bc 75 8a 2b 3d 25 10 35 bb 78 bd d1 bc
       -0.02329739 0.04188009 -0.002762803 -0.025603041
000160 78 9c c8 bc 86 d2 6b bd 81 0c 6f bb 34 66 73 bd
       -0.024488673 -0.057573818 -0.0036475959 -0.05942364
000170 f7 1f 9a 3c 9c 93 ce 3c c6 9f fc 3b 69 be ba 3c
       0.01881407 0.02521687 0.007709476 0.022795873
000180 4c 09 2e bd e7 17 64 bd 49 b6 92 3c cc cc ea 3c
       -0.042489335 -0.055686858 0.017909186 0.028662108
000190 aa e6 76 3c 58 1d ec b9 8c eb 85 3c 6d 05 e6 3c
       0.015069643 -0.0004503529 0.016347669 0.02807876
0001a0 e4 08 b9 bc c9 ca 3f 3b a8 1a b5 3b 36 80 4d bb
       -0.022587247 0.0029265156 0.0055268593 -0.0031356937
0001b0 93 3d 0e 3c 1d a9 ef bb 77 82 3a bc 6e 23 bd 3c
       0.008681673 -0.007313861 -0.011383644 0.023088183
0001c0 c3 99 00 bd dc 36 2d 3c d5 3c b4 3a 7a b4 21 bb
       -0.03139664 0.0105721615 0.001375104 -0.0024674223
0001d0 72 7f 9c 3c 85 94 85 3c f9 78 07 3c 14 7a 75 3b
       0.01910374 0.016306171 0.008268588 0.0037456797
0001e0 07 94 2a bc 83 d3 68 3c 44 e6 ba 3b af c6 ae bc
       -0.010411269 0.014210585 0.0057037193 -0.021334974
0001f0 86 66 9a 3b de 3a d0 3c 87 3e b4 bc e6 41 1d 3c
       0.004711929 0.025418695 -0.022002472 0.009598231
000200 6c 9e 1c 3c a0 e0 2f 3b ff 89 00 bd 38 eb a6 3c
       0.009559255 0.0026836768 -0.031381603 0.020375833
000210 ab 09 91 bc ef aa 06 3c 3e cc e1 bc 01 aa 97 bc
       -0.017704805 0.008219465 -0.02756321 -0.018513681
000220 43 f4 5e ba ea 7d 16 3c 99 df a9 bb e4 7b b6 b8
       -0.0008505026 0.009185294 -0.0051841256 -8.701513e-05
000230 6b 16 9e 3c 81 d5 1e 3d f3 66 f0 3c 4b 13 a8 bb
       0.0192978 0.038777832 0.029345965 -0.005129253
000240 87 63 8b 3c 6f 50 70 bb da 57 2f bd 7b 5b 9a bc
       0.017015232 -0.0036669036 -0.04280839 -0.01884245
000250 28 35 7c bc 7e a0 5a bc c1 53 48 bd 26 15 34 bd
       -0.015393533 -0.013343928 -0.048908 -0.04396548
000260 f6 ba 3e 3c fd 43 e4 bc fe 8f b2 3c a0 1e 57 ba
       0.011641255 -0.02786445 0.021797176 -0.00082061626
000270 13 d8 28 3d 17 cc 82 39 f1 8d 6a bd b3 86 4d 3c
       0.04122169 0.0002494759 -0.057264272 0.012544322
000280 60 7f b5 3c 6c 73 52 3c 81 ef d0 3b ef cb d9 3c
       0.022155464 0.0128449015 0.0063762073 0.0265865
000290 b0 04 65 3c af 25 d8 bc 2e 0f 09 3d c0 a8 06 3d
       0.013978168 -0.026385156 0.033461742 0.032875776
0002a0 f9 a9 8a 3c 40 cd a0 3c ff 63 c3 bb da be 65 bb
       0.016926752 0.01962912 -0.005962848 -0.0035056383
0002b0 c0 67 08 bc fe 01 d6 3c 00 b8 b1 3c bb ed c4 3c
       -0.008325517 0.026123997 0.021694183 0.02403914
0002c0 68 31 e6 ba e5 8c ef 3b 64 50 11 bc 6b 40 8d b9
       -0.0017562332 0.007310497 -0.008869264 -0.0002694161
0002d0 24 13 16 bc 0f 1b 2d 3b 83 13 f9 3c 0f 75 5a 3b
       -0.009159837 0.0026413833 0.030404812 0.0033333933
0002e0 a6 17 fa bb c7 ed 91 3b ee 31 a4 3c c6 ef d1 bb
       -0.0076322136 0.004453394 0.02004334 -0.006406757
0002f0 ee 11 1e 3d d5 3c 29 bc b3 da 94 bc a0 ca b8 39
       0.038591318 -0.010329445 -0.01817069 0.00035246182
000300 2b ca 35 bd 9c 7c b7 3b cf 05 37 bd 67 3b b3 bc
       -0.044382256 0.0055995714 -0.044683274 -0.021878911
000310 ed 13 58 bc 5e e0 07 bc 84 0f 11 bd 94 d6 af 3c
       -0.013188344 -0.008293239 -0.035415187 0.021464624
000320 29 79 e1 3c 5d a6 3c bd e7 2c 98 bb 12 55 ef bc
       0.027523594 -0.046057094 -0.0046440247 -0.02921537
000330 ff d7 1d 3b 0c 63 92 3b 26 49 32 3d 61 34 5c 3d
       0.0024085043 0.0044673737 0.04352679 0.05376089
000340 d4 0b 89 3c 36 53 9b 3c 49 06 92 3b 96 9f 89 3a
       0.016729273 0.018960577 0.0044563157 0.0010499831
000350 20 d6 86 3c ce 52 11 3c 6a dc 9b bc a3 c2 ba 3c
       0.016459525 0.00886984 -0.019026 0.022797888
000360 24 1b 45 3b 7a f7 ac 3c 11 80 e1 3c af f1 1b bc
       0.0030075992 0.0211141 0.027526887 -0.009518071
000370 4a b4 6c bc ad 0b d9 3b 2b 85 a6 3c 04 a1 ba 3c
       -0.014447281 0.0066237063 0.020327171 0.022781856
000380 0f 86 c2 3c 4f 6a ca bc 67 98 92 bc 2d 1a 66 bd
       0.023745565 -0.024708895 -0.017894937 -0.056177307
000390 06 bf 46 3c c7 fe b6 3b 44 4c 30 3b f8 ab 52 ba
       0.0121305045 0.005584571 0.0026900927 -0.00080364896
0003a0 03 f3 0d bd 0b 61 ed 3b 01 d5 bf bc 5a f2 34 bd
       -0.034655582 0.0072442344 -0.023416998 -0.044176437
0003b0 47 e9 59 b7 9f 87 d7 bb a9 68 12 bd c5 04 c4 3c
       -1.2988522e-05 -0.0065774466 -0.035744343 0.023928056
0003c0 78 83 c2 bc cc 4d 84 3c 08 8d 1a bd 5b 55 13 3c
       -0.02374433 0.016150378 -0.037732154 0.008992518
0003d0 b9 0a f3 bc 62 ec ce 3b 60 96 8e 3c 62 fb b3 3c
       -0.029668199 0.0063148 0.017405689 0.021970455
0003e0 2a c3 8c bc bd 6c 23 bc 85 e9 95 bc 09 17 30 3b
       -0.017182905 -0.009974656 -0.018299827 0.0026869199
0003f0 bc 9e 60 3c 7a cc 21 3c 21 03 a4 3c e4 1f 69 ba
       0.01370972 0.009875411 0.020021023 -0.00088929967

running_mean f4 [128]
000000 1e c0 9a bd 18 7a 06 bf 31 9d 3e 3e 53 9a 7e bd
       -0.07556175 -0.5253005 0.18614651 -0.062158894
000010 03 c9 06 ba 2e 8f 85 be 7a 06 6a 3f 35 42 f8 bf
       -0.00051416474 -0.260858 0.9141613 -1.9395205
000020 7f ae 63 bf 46 b9 9e bd 2b 18 bc bf e2 eb 2d bf
       -0.88938135 -0.07750182 -1.4694875 -0.67938054
000030 dd 99 57 3f 37 45 a4 be 4a f6 e4 3e 0d 40 60 bf
       0.8421915 -0.32084057 0.44719154 -0.87597734
000040 16 9b 2d bf dc 08 14 be 44 f7 8c bf f3 64 bf be
       -0.6781477 -0.14456505 -1.101296 -0.37381706
000050 5e aa 86 3e 8e af b4 be 3d 0d fc be aa 95 97 bf
       0.26301855 -0.35290188 -0.4922885 -1.1842549
000060 68 75 b7 bf ba 76 e4 3e f9 c0 c4 be 7d 96 32 bf
       -1.4332705 0.4462183 -0.38428476 -0.69760877
000070 18 b2 dc be 5a 3c 9a be 76 ea df be 77 fa 48 bd
       -0.43104625 -0.3012417 -0.43733567 -0.049066987
000080 8a fe 0e bd 60 8f 17 bd 9a 22 94 be d0 09 95 3e
       -0.034910716 -0.037001967 -0.2893265 0.2910905
000090 b7 e2 d0 be b1 58 c2 be 33 63 08 3f 33 6a 41 bf
       -0.4079797 -0.3795829 0.53276366 -0.7555267
0000a0 76 b2 38 3e b8 21 14 bf fa 74 d7 be 6b b6 8e bf
       0.18036827 -0.5786395 -0.42081434 -1.114942
0000b0 36 7e 2e bf 3c ce 22 bf 89 21 81 bd e9 b5 0a bf
       -0.6816133 -0.6359594 -0.063052244 -0.5418382
0000c0 e8 5a 7e be e4 3b 31 bf d3 f2 b7 be 5d b6 19 bf
       -0.24839365 -0.6923201 -0.35927448 -0.6004389
0000d0 95 08 f4 be 99 ba f1 3d 8a 0b 7b be c7 2e 1c bf
       -0.47662798 0.11803169 -0.2451612 -0.61008877
0000e0 14 bf 8f 3e 16 87 93 3e 9f dc 8d bf cf 75 b4 3e
       0.2807547 0.28814 -1.1082953 0.3524613
0000f0 26 4e 53 bd a0 8b e9 bc ae a9 84 3e 6e f9 b9 bf
       -0.0515882 -0.028508961 0.25910705 -1.4529245
000100 c5 61 c9 3e 11 94 1b be e7 83 9a 3e 36 26 43 3f
       0.39332405 -0.15193202 0.30178759 0.7623018
000110 80 72 00 3e be a8 06 bf a9 3f cb be 77 53 55 3e
       0.12543678 -0.5260123 -0.39697006 0.2083262
000120 f9 be 1a bf e4 55 7b 3e fd b2 5f bf e2 73 0d be
       -0.6044765 0.24544483 -0.8738249 -0.13813737
000130 9d 48 14 bf 6d f9 23 be 1d 97 1c 3e dd 46 fd bb
       -0.579233 -0.16013117 0.1529202 -0.007729395
000140 da be e1 be 59 40 68 bd ca 86 fa 3e 26 aa 28 3e
       -0.4409092 -0.05670199 0.4893096 0.16471156
000150 a1 e2 d6 be 6c 8f 80 bf 3d 67 a9 be 4a c5 2d be
       -0.4196978 -1.0043769 -0.33086577 -0.16969791
000160 4c 80 0a 3e 8d 89 37 bf 06 d5 27 be 50 48 0f bf
       0.13525504 -0.7169426 -0.16389856 -0.55969715
000170 78 95 1c be d4 dc 5d be 24 28 81 be dd 62 41 3d
       -0.15291393 -0.2166627 -0.25225937 0.047213424
000180 62 d1 71 be 01 28 80 be 2e 83 28 be 2d cb 5f be
       -0.2361503 -0.2503052 -0.16456291 -0.21854849
000190 8f 25 e7 be 3d d4 0c 3d 10 30 61 be 91 c5 e9 be
       -0.45145842 0.034382094 -0.2199099 -0.45658544
0001a0 06 a6 04 3e 5a 84 c4 bd 24 fb 0c 3e ef 55 23 3e
       0.12953958 -0.095955566 0.13767678 0.1595075
0001b0 e9 56 d4 be a7 16 60 3d 39 e3 f2 be 8d bd 9a bf
       -0.41472557 0.054709103 -0.47438982 -1.2089096
0001c0 16 45 ca 3e 24 5a 8d 3e 45 7c a6 3e 3b bf 4f bf
       0.39505833 0.27607834 0.32516685 -0.8115117
0001d0 f3 13 77 bf 23 c4 90 3e b1 75 00 bf 33 c8 4c bd
       -0.96514815 0.2827464 -0.5017958 -0.049995612
0001e0 ea ca 01 bf 1b f5 23 be cb 49 30 bf b9 ee 51 be
       -0.5070025 -0.16011469 -0.688626 -0.20501222
0001f0 0e cc b7 be 75 7b 16 bf 37 a7 35 3f 67 1c 91 be
       -0.3589787 -0.5878213 0.70958275 -0.28341982

running_var f4 [128]
000000 a0 35 8b 3f a7 bc e7 3e 37 09 fd 3e d8 ea 1c 3f
       1.087574 0.45261118 0.49421093 0.61295843
000010 77 c8 da 3e f5 a5 96 3f ce 46 b3 3e 9e b0 af 3e
       0.42731068 1.1769396 0.35014957 0.34314436
000020 ea 48 ea 3e 1c 97 e2 3e b8 46 8b 3f 00 0a d5 3f
       0.45758754 0.44255912 1.0880957 1.6643677
000030 94 d6 8f 3e 6b 1f 84 3f 6f bc 42 3f 6e 20 9d 3e
       0.28093398 1.0322088 0.76068777 0.30688804
000040 fd 24 ac 3f 10 52 83 3f 91 ba ab 3e 2c 38 02 3f
       1.3448788 1.0259418 0.33540776 0.5086696
000050 72 c6 9b 3f f3 b9 20 3f 39 08 4b 3f 34 7a 1b 3f
       1.2169936 0.62783736 0.7930942 0.6073334
000060 df 61 1f 3f 70 63 f7 3e b9 64 80 3f 17 ba a9 3f
       0.62258714 0.48318052 1.0030738 1.3259915
000070 5a c3 01 3f 49 f4 38 3f c8 37 22 3f 71 48 ec 3f
       0.5068871 0.7224775 0.63366365 1.8459607
000080 59 6f 12 3f 2e 90 7d 3f fa 12 0b 3f d5 66 11 3f
       0.57201153 0.99048126 0.5432583 0.56797534
000090 6c e0 72 3f bb f2 7d 3f 4f 39 46 3f 3d 81 63 3f
       0.9487369 0.991985 0.77431196 0.88869077
0000a0 7e 03 c1 3f 92 da e0 3e 7d db c0 3e 0f 81 98 3e
       1.5079191 0.43916756 0.37667456 0.29785964
0000b0 23 df ed 3e 1e 77 09 3f a2 15 81 3f a5 2a 28 3f
       0.46459302 0.53697383 1.0084727 0.6569007
0000c0 2a c0 f8 3e 2e 3c 4c 3f 60 d3 f5 3e f3 d1 b5 3f
       0.4858411 0.79779327 0.4801283 1.4204696
0000d0 fe ee ee 3e 7d ed f7 3f 22 93 3f 3f 5f 79 e9 3e
       0.46666712 1.9369351 0.7483388 0.4560041
0000e0 ef f1 e4 3e e5 ed d7 3e 5e 12 17 3f e3 ac 8d 3f
       0.4471583 0.42173687 0.590124 1.1068386
0000f0 5f ae 83 3f c3 a1 b6 3f 23 bb 3f 3f 2c 20 21 3f
       1.0287589 1.4268116 0.7489492 0.62939715
000100 8b e1 3f 3f 93 18 23 3f d3 9b 54 3f 5b a6 d9 3e
       0.74953526 0.6370937 0.8305027 0.42509732
000110 07 61 42 3f f2 2f 84 3f 06 ad 84 3f 38 e8 b1 3f
       0.759293 1.0327132 1.0365303 1.3898993
000120 da 75 84 3f 2d ce 0c 3f 6b ac ed 3e 10 31 a2 3f
       1.0348465 0.550021 0.46420607 1.2671223
000130 65 6f ff 3e 94 b5 07 3f 25 7f 62 3f d0 d6 49 3f
       0.49889675 0.5301144 0.8847526 0.788434
000140 8a 9a 65 3f e8 83 8e 3f 56 8e 96 3e b9 ae 7b 3f
       0.8968893 1.1134005 0.2940547 0.9831348
000150 7b b0 10 3f a9 00 e2 3e b2 e5 9a 3f 08 b8 91 3f
       0.5651929 0.4414113 1.2101347 1.1384287
000160 60 ec be 3f a2 c0 c3 3e 4e 16 c9 3e de 8b 08 3f
       1.4915886 0.38232905 0.3927483 0.5333842
000170 ab b7 0f 3f 3a 50 35 3f 97 91 ff 3e 5b 97 0b 3f
       0.5613963 0.7082554 0.49915764 0.54527825
000180 64 ce d1 3e c2 f4 d2 3e 69 bd 94 3e 7b 76 ac 3f
       0.40977776 0.4120236 0.29050758 1.3473657
000190 ee d6 2d 3f 2d f7 72 3f f1 f9 fd 3e f4 68 b2 3f
       0.6790608 0.9490841 0.49604753 1.3938279
0001a0 0e 9d d3 3e 3a 7f b7 3e f0 f6 dd 3e 80 91 38 3f
       0.4133076 0.35839254 0.4335246 0.72097015
0001b0 87 27 8c 3f a2 f3 a7 3f 66 dd 06 3f 80 bb ff 3e
       1.0949563 1.3121226 0.5268158 0.4994774
0001c0 47 bb 17 3f 5e 17 7f 3f 77 4d 58 3f 91 23 28 3f
       0.5927014 0.9964503 0.844932 0.6567927
0001d0 aa 2e c5 3e 63 e7 82 3f f5 f3 c5 3f 9e d6 0f 3f
       0.38512164 1.0226864 1.5465075 0.56186855
0001e0 e5 33 66 3f 39 64 14 3f 39 86 15 3f d3 e7 f9 3e
       0.89922935 0.5796543 0.5840793 0.4880968
0001f0 0f 45 93 3e e4 58 07 3f 8f 0c 72 3f 09 d9 8a 3f
       0.28763625 0.5287001 0.9455041 1.0847484

weight f4 [128]
000000 f1 e9 6a 3f 5d 9e 86 3f 9f 0a 83 3f d8 3a 7b 3f
       0.91763216 1.0517079 1.0237616 0.98136663
000010 c7 69 78 3f c6 7b 77 3f 4e c2 6f 3f ed 8c 87 3f
       0.97036403 0.9667324 0.9365586 1.0589882
000020 1a b1 77 3f 93 95 7d 3f dc e4 7b 3f ea 97 86 3f
       0.9675461 0.9905636 0.98396087 1.051511
000030 82 cb 6f 3f 9f 41 74 3f fd e1 78 3f c8 5f 81 3f
       0.93669903 0.9541263 0.9721983 1.0107355
000040 94 f5 6f 3f 5b b6 78 3f 43 4d 7f 3f ac 00 7c 3f
       0.937341 0.9715325 0.9972727 0.98438525
000050 1c c1 81 3f ec 39 83 3f ee ca 69 3f 1b 76 86 3f
       1.0137057 1.0252051 0.9132527 1.0504793
000060 84 31 82 3f 23 7e 78 3f 37 38 75 3f 8b 39 6f 3f
       1.0171361 0.9706747 0.957889 0.9344718
000070 2a 39 73 3f 8f 80 7a 3f 1a 0b 78 3f 53 a0 7c 3f
       0.950091 0.97852415 0.9689194 0.98682135
000080 2f af 83 3f e5 ca 7d 3f 98 d3 7a 3f 49 69 73 3f
       1.0287837 0.9913772 0.97979116 0.9508253
000090 e9 ab 7d 3f 5b ed 81 3f eb 78 7f 3f e3 49 78 3f
       0.9909044 1.015056 0.9979388 0.9698774
0000a0 34 84 74 3f 8d bb 7d 3f ff d3 80 3f c3 98 88 3f
       0.95514226 0.99114305 1.0064696 1.0671619
0000b0 86 56 8b 3f c8 06 68 3f 75 f5 77 3f 44 4d 7b 3f
       1.088578 0.9063535 0.9685891 0.98164773
0000c0 89 6b 76 3f 97 4f 73 3f ce c1 7f 3f 4c cd 7d 3f
       0.96257836 0.9504332 0.999051 0.99141383
0000d0 cd f6 7d 3f cb 26 78 3f 3f 1a 7b 3f 6d e6 82 3f
       0.99204713 0.96934193 0.98086923 1.022657
0000e0 74 a9 6b 3f 5e c6 8b 3f 2d 07 81 3f 15 4c 7a 3f
       0.9205544 1.0919912 1.0080315 0.9777234
0000f0 71 d4 7c 3f 06 2b 7c 3f 2a d3 79 3f b1 f8 7f 3f
       0.9876166 0.9850315 0.97587836 0.9998885
000100 34 9e 77 3f e0 23 7d 3f 67 78 77 3f c6 00 74 3f
       0.96725774 0.98882866 0.96668094 0.9531368
000110 94 29 69 3f 33 43 81 3f db 42 74 3f bb d3 84 3f
       0.9107907 1.0098633 0.95414513 1.0377115
000120 42 3b 7e 3f af 65 7b 3f db 10 80 3f f4 ea 7b 3f
       0.9930917 0.9820203 1.0005144 0.98405385
000130 9a 2f 85 3f a4 90 7a 3f be 37 7d 3f c7 34 80 3f
       1.0405152 0.97876954 0.9891318 1.0016106
000140 7a 40 80 3f 2d 82 7f 3f 82 a9 80 3f 71 d0 79 3f
       1.0019677 0.9980801 1.005173 0.9758368
000150 73 5b 7c 3f e6 90 77 3f 89 a5 80 3f 9a 6a 77 3f
       0.9857704 0.9670547 1.0050517 0.96647036
000160 54 a7 72 3f 0d 60 87 3f 27 b7 79 3f fe be 79 3f
       0.9478657 1.0576187 0.97545093 0.97557056
000170 17 82 7f 3f 90 68 7a 3f 5e e4 78 3f c7 bd 8b 3f
       0.99807876 0.978158 0.9722346 1.091729
000180 dc 3f 7a 3f 30 ed 78 3f 45 d6 7c 3f 7c 38 75 3f
       0.9775369 0.9723692 0.9876445 0.95789313
000190 b3 f2 7a 3f 14 59 74 3f bc 68 7a 3f d3 b1 6e 3f
       0.9802658 0.9544842 0.9781606 0.9324009
0001a0 07 d9 72 3f 0d 13 78 3f 99 a0 81 3f 9d 10 82 3f
       0.9486241 0.9690407 1.0127136 1.016132
0001b0 5f ff 79 3f c8 7e 74 3f ba 61 6f 3f 08 2e 86 3f
       0.9765529 0.9550595 0.93508494 1.0482798
0001c0 12 c8 88 3f 58 b4 72 3f 05 2c 78 3f 5d fd 81 3f
       1.0686057 0.9480643 0.9694217 1.0155445
0001d0 3f b9 7b 3f f6 f9 80 3f 35 8e 85 3f b7 9e 7a 3f
       0.9832954 1.0076282 1.0434023 0.9789843
0001e0 4d 3f 7c 3f e4 ac 82 3f d8 06 81 3f ab a1 82 3f
       0.9853409 1.0209012 1.0080214 1.0205587
0001f0 44 47 79 3f b2 1e 81 3f 17 2b 81 3f 8d b2 84 3f
       0.9737437 1.0087492 1.0091275 1.0366989

bias f4 [128]
000000 ed f0 4e bd 08 75 b5 3d 79 c2 ec bc 71 11 40 bc
       -0.050522733 0.088602126 -0.028901326 -0.011722908
000010 25 1b b9 bc 28 71 2f bd 04 a1 4d bd eb f2 91 3c
       -0.022595951 -0.042832524 -0.050202385 0.017816028
000020 c9 a6 2a bd e0 e8 23 bd e9 49 a5 bc e4 d2 d5 3b
       -0.041662965 -0.04001701 -0.020176845 0.0065253843
000030 0d e1 90 bc cc c5 f6 bc 2f 88 12 bd fd ef 70 bc
       -0.017685438 -0.030123614 -0.035774406 -0.014705655
000040 90 80 81 bd 5d b4 e3 bc 92 a0 ee bb 2e e4 70 bc
       -0.063233495 -0.027795965 -0.007282325 -0.01470284
000050 ee 05 fb bb 86 b7 02 bc db 6b a9 bc 57 69 4c 3c
       -0.007660619 -0.007978326 -0.020681312 0.012476287
000060 14 97 0d 3d b8 1d 12 bc 8c 12 61 bd ad 00 c9 bc
       0.034567907 -0.008918218 -0.05494933 -0.024536455
000070 28 9e 73 bd a4 43 fa bb 30 e0 08 bd b4 12 00 bb
       -0.059477 -0.007637458 -0.033416927 -0.0019542398
000080 0d b2 66 3c a8 4c 5d bc f8 b3 a7 bc e1 51 85 bd
       0.014080537 -0.013507046 -0.020471558 -0.06509758
000090 66 fd 83 bc 78 d6 26 3b 03 ef 9b bc 6d b5 5e bc
       -0.01611204 0.0025457423 -0.019034868 -0.01359306
0000a0 89 1e 14 bd 6e a0 06 bd 83 08 2c 3a 00 2d 99 3d
       -0.036161933 -0.03286784 0.00065625476 0.07479286
0000b0 d8 ff 80 3d ef be 64 bd 6f 88 e0 bc 3c ed d4 bb
       0.06298798 -0.05584615 -0.027408807 -0.006498007
0000c0 15 ef 95 bc b9 d3 ae bc 34 5d de bc 46 60 0c bc
       -0.01830248 -0.021341192 -0.027144052 -0.008567875
0000d0 1e 70 d3 bc ab 48 55 3b b7 91 f5 bc 33 0d 81 3c
       -0.025810298 0.0032544534 -0.029976709 0.015753364
0000e0 31 40 1c bd a3 4d e6 3c ec ca 29 3c 5f 9e e3 bc
       -0.038147155 0.028113192 0.010363322 -0.027785478
0000f0 6c dc d2 bc 97 25 05 bc 30 b1 32 bc ba 07 98 3c
       -0.025739871 -0.008126638 -0.010906503 0.018558372
000100 eb 22 0b bd 8c 92 1f bd 45 7b 92 bc 1b 7f e3 bc
       -0.033968847 -0.038958117 -0.017881045 -0.02777057
000110 37 50 c5 bc 9a 0c 82 bc 1c fd 2e bd 72 15 37 3c
       -0.024086101 -0.01587515 -0.042721853 0.011174547
000120 c9 df 6d bc 1e 93 07 bd 6a bd cd bc b7 e5 06 3c
       -0.014518687 -0.033099286 -0.025114734 0.008233479
000130 74 0b 17 3d e0 30 2f bd 30 c0 75 bd 1d 4b ad bc
       0.036876157 -0.04277122 -0.059997737 -0.02115398
000140 f9 97 c4 3a 44 eb 0e bb 1f 2d f1 bc 2f bb 36 bc
       0.0014998905 -0.002180771 -0.02944046 -0.0111530265
000150 9a 37 16 bd e7 e1 bc bc fe e4 5b bb 69 37 b6 bc
       -0.03667412 -0.023056937 -0.0033553238 -0.022243218
000160 7d 41 64 bd 92 29 90 3b 43 d8 b3 bc b0 66 3f bd
       -0.055726517 0.004399487 -0.021953708 -0.04672879
000170 d1 69 dc bc a5 35 64 bc 8e 54 11 bd 8a 82 45 3d
       -0.026905926 -0.0139288055 -0.03548103 0.048220195
000180 4c ab 79 bd 30 3e f7 bc 82 c9 80 bd e3 7e 30 bd
       -0.060954377 -0.03018102 -0.062884346 -0.04308976
000190 eb 04 15 bd c7 c0 61 bc c1 d7 0a bd 9e a2 04 bd
       -0.036381643 -0.013778872 -0.033897165 -0.032381646
0001a0 f4 e5 90 bd 50 ac 5d bd 40 ac ba bc 3a cb bc bc
       -0.0707511 -0.054119408 -0.022787213 -0.023046125
0001b0 b1 4e 91 bc 33 4d 80 bc f9 c4 dd bb 25 01 ed bb
       -0.017737718 -0.015661811 -0.0067678657 -0.0072328025
0001c0 64 e0 9e 3c bd 75 85 bb 24 18 1b bd 95 73 c7 bc
       0.019394107 -0.0040728734 -0.03786482 -0.024347106
0001d0 db e5 77 bc aa 68 84 ba fa a3 e5 3b c1 1d 33 bd
       -0.015130485 -0.0010101993 0.007008073 -0.043729547
0001e0 52 d5 03 bc b5 3d 65 bc 27 e5 9b 3c 3e 98 e0 3a
       -0.008046465 -0.013991763 0.019030167 0.0017135215
0001f0 73 28 e1 bc b1 1a 21 bd ce a6 79 bc d4 cd ca 3b
       -0.027485108 -0.039332096 -0.015237523 0.0061890874

weight f4 [1, 128, 4, 4]
000000 18 06 3a bc d1 79 fa 3c cc c0 95 3b 61 aa 4b 3c
       -0.011353992 0.030575665 0.0045701023 0.012430758
000010 1a 56 f1 3b 5b 56 a1 3c 06 2c 48 bc ff 55 3d 3d
       0.0073650004 0.019694498 -0.012217527 0.04622459
000020 9f 1d 83 3b 23 7f ec 3b c9 70 7a 3b 99 71 f5 39
       0.004001334 0.0072173043 0.0038214198 0.00046814678
000030 94 96 1c 3c 71 1b d8 bc d2 f3 04 bd b9 98 e0 3c
       0.009557385 -0.026380273 -0.032459088 0.027416574
000040 e0 59 56 3c 14 44 6b 3c 90 52 81 3c 65 79 83 bd
       0.013082951 0.014359493 0.01578644 -0.064196385
000050 06 5b a2 3d f6 9d 87 3d e8 77 2d 3d f9 1c dd bc
       0.079275176 0.066219255 0.04235068 -0.026991354
000060 2e 32 8c 3d 50 8f cd 3c b7 a0 5b 3d 90 31 de bc
       0.068455085 0.02509275 0.053620066 -0.027123243
000070 28 c4 96 3d a7 65 2e 3b c6 d2 00 3d 83 a3 83 bd
       0.073616326 0.0026610882 0.03145101 -0.06427672
000080 9a 61 5c 3a 3c 07 a6 bc 85 93 93 bc c0 b1 02 bd
       0.0008406878 -0.020267121 -0.018014679 -0.031907797
000090 de a2 5b bc 0f 38 03 3c 57 df 29 3c ad 18 66 bc
       -0.01340553 0.008008971 0.01036819 -0.014043969
0000a0 c5 9b a2 bc 4d 7d 10 3c d0 39 a7 bc cb d7 28 bc
       -0.019849667 0.0088189365 -0.02041331 -0.010305355
0000b0 41 ab 1b 3d 35 30 06 3c 45 b4 35 3c 99 c2 51 3b
       0.038005117 0.008190204 0.011090343 0.0032006858
0000c0 15 9b 28 3d 13 fc ee bc dd 7f c5 bc ba bb 08 bd
       0.041163523 -0.029172933 -0.024108822 -0.033382155
0000d0 23 23 8f 3c 16 dc 70 3a ea 45 a1 3c 1f 5c ee bb
       0.01747281 0.0009188069 0.019686658 -0.0072741653
0000e0 15 81 b5 3c 7f 2d ce 3b f2 85 43 3b d5 35 34 bb
       0.022156278 0.0062920447 0.0029834476 -0.0027497907
0000f0 97 40 03 3d 67 b4 78 bc 26 4f 98 3c e4 62 36 bc
       0.03204402 -0.01517973 0.018592428 -0.011131976
000100 3b 57 d1 3c 22 d5 98 3b 7d 7f 78 bb 3a 92 1c bc
       0.02555429 0.0046640793 -0.0037917786 -0.0095563475
000110 36 cc 19 bc 8d f2 c4 3c c1 fb 46 bc e0 29 fc 3c
       -0.009387067 0.024041438 -0.012144984 0.030781686
000120 7c 76 a8 3a e7 77 1e 3c 50 34 01 3c 01 7a 63 3c
       0.0012852694 0.009672142 0.007886007 0.0138840685
000130 dd 59 ad 3c b9 f9 ea 3a 0d 98 3b 3c 18 51 dc 3c
       0.021161014 0.0017927206 0.011449826 0.026894137
000140 19 48 38 3d 04 70 b6 bc 82 ab 77 ba 49 2e 64 bc
       0.044990633 -0.02227021 -0.0009447859 -0.013927051
000150 a8 59 13 3c c4 69 a3 bb e3 4f cc 3c 33 5f 11 bd
       0.008993544 -0.0049869735 0.024940437 -0.03549118
000160 92 39 2e 39 ef 69 50 bc 68 85 01 bc 36 c8 81 3c
       0.0001661538 -0.012720569 -0.007905342 0.015842538
000170 67 aa c7 bb 2c c3 45 3c 05 d1 b5 3b ac 63 80 bb
       -0.0060933116 0.012070458 0.0055485987 -0.003918132
000180 7d 82 a9 38 7c ce e0 3c 94 b9 16 bd 8e 64 8d 3d
       8.082853e-05 0.02744221 -0.036798075 0.06903945
000190 3b a6 39 3c ba e4 b0 bb 11 e1 29 3c 81 25 cf 3a
       0.011331136 -0.00539836 0.010368601 0.0015804024
0001a0 8f 89 cc bc bf 34 56 3b d7 76 11 3b 5a ea 7a ba
       -0.024967937 0.0032685248 0.0022196078 -0.0009571664
0001b0 f0 e9 05 3d 9f 74 b6 bb 8f 3a 62 bb 6b 63 58 3b
       0.032693803 -0.0055681015 -0.0034519767 0.0033018242
0001c0 b2 70 ab bd 72 b4 ad bc 2a 41 92 bc 3d 08 30 bd
       -0.08371104 -0.021204207 -0.017853338 -0.042976607
0001d0 d9 79 84 ba b9 c9 33 3c ba 17 0c 3d 65 da d5 3b
       -0.0010107114 0.010973387 0.034202315 0.006526279
0001e0 b8 7e 6c bc d6 4e 39 3c 2f 1d 9f 3c 51 e5 0b 3d
       -0.014434509 0.0113103 0.019423096 0.03415424
0001f0 1f 18 6a 3d 15 23 d6 3c 90 07 30 3d 47 3a 80 3d
       0.05715191 0.026139775 0.042975962 0.062611155
000200 0f 91 93 39 63 31 b4 3c 04 2e 06 bb fe 80 00 3d
       0.00028146102 0.021996206 -0.0020474205 0.031373017
000210 d4 8b 50 3b 25 42 07 3c e6 d5 ba 3c fe 06 40 3b
       0.0031821625 0.008255516 0.022807073 0.0029301043
000220 45 d0 02 3c a7 eb 9f 3c 03 39 b1 3c 2f 68 58 3c
       0.007984226 0.019521547 0.02163363 0.013208433
000230 c5 f0 20 bd d1 05 1d 3b d6 d1 2d bb a1 e9 6f bc
       -0.039292116 0.0023959766 -0.0026522777 -0.014643104
000240 10 6c a7 3b ad 1b aa bc 71 6e 17 bc 64 57 34 3c
       0.0051093176 -0.02076515 -0.00924264 0.011007164
000250 0b 66 02 3d 24 69 4e bc 6a 2a 40 3c 9d 7c 90 bb
       0.031835597 -0.01259831 0.011728862 -0.0044093863
000260 31 36 ac 3c 78 bd 54 3c 92 1e d4 3b e8 51 f1 3a
       0.021021934 0.012984626 0.006473371 0.0018411251
000270 21 5e 51 bc be 7b 9e bc ef ea 66 bc d0 a2 9f bc
       -0.01277879 -0.019346114 -0.0140940985 -0.019486815
000280 42 5b 01 bc 9f 40 33 3d 90 c2 4b 3d 70 67 ee 3a
       -0.007895293 0.0437628 0.049746096 0.0018188786
000290 63 f3 a0 bc 52 e5 df 3b a8 28 d2 3b ba 49 1c bc
       -0.019647306 0.006832757 0.006413538 -0.009539062
0002a0 66 6d d5 3b 7b 72 39 3c 5e 28 9e bb 17 b6 9a bc
       0.0065132855 0.011318798 -0.0048265895 -0.018885655
0002b0 55 40 31 bd 2e 17 59 bc ee 80 e3 3a 1b aa 1a bd
       -0.043274242 -0.013250155 0.001735715 -0.03775988
0002c0 2c 5d 16 3d f8 ff b2 bc f7 74 b4 ba 59 d9 fe 3b
       0.03670995 -0.021850571 -0.0013767768 0.0077773747
0002d0 48 a0 d3 3c d9 43 a0 bc 59 2e 88 3b 76 9f 8f 3c
       0.025833264 -0.019563602 0.0041559157 0.017532092
0002e0 e7 e5 df 3c 5b a9 35 bc 1c bc d9 3c c7 ed 4b 3c
       0.027331306 -0.011087741 0.026578955 0.012446827
0002f0 71 21 63 3d 88 34 89 3b f7 88 d8 ba 78 86 b1 bc
       0.055451814 0.0041871704 -0.0016520311 -0.021670565
000300 14 ec 29 3c 71 e5 84 3b 37 50 aa 3c 17 d9 93 3c
       0.010371227 0.004055672 0.020790203 0.018047852
000310 0e 1c a3 bc 9c 82 1e 3a 5f 57 e9 bc 63 bc 8d bc
       -0.019910838 0.0006046684 -0.028484045 -0.017301744
000320 af d2 5b bc f9 76 4b bc 0d ae cf ba 1d fa 1d 3b
       -0.01341693 -0.012418502 -0.0015844718 0.0024105378
000330 35 05 b0 bc 83 30 1a bc 93 06 5e bc 7e 23 f8 bc
       -0.021486858 -0.00941098 -0.013551372 -0.030290361
000340 e2 0d 3b bb 13 0d a2 bc 0a 6e 34 3c 83 c5 d7 3c
       -0.002854221 -0.019781625 0.0110125635 0.026339298
000350 c3 fc 4e 3a 59 09 5f 3b 5b f1 3e bb ef 1c e3 3b
       0.0007895941 0.0034032671 -0.0029135558 0.0069309394
000360 12 6d 62 3c 40 3d 3b 3b 7d 7d e8 bb 27 36 80 3c
       0.01381995 0.0028570443 -0.0070950375 0.015650822
000370 0a 39 05 3d a5 f1 7b 3b d2 d8 0a b9 d6 82 94 bc
       0.0325251 0.0038443592 -0.00013241477 -0.018128794
000380 30 00 96 ba 79 95 e3 bc 69 b4 55 bb 21 db e6 bc
       -0.0011444148 -0.027781235 -0.0032608754 -0.02818066
000390 df 14 e5 bc 5c 35 3d 3c 3e 11 18 bc 24 8f 3b bc
       -0.027964054 0.011548366 -0.009281455 -0.011447702
0003a0 ab f9 4a 3c ec 54 85 3b 68 7d b3 3b 75 c1 01 3b
       0.012388627 0.0040689614 0.005477596 0.0019799147
0003b0 da c7 c5 3a 46 31 42 3b f5 57 a5 bc 0d 28 52 bc
       0.0015089468 0.002963142 -0.020183543 -0.012826932
0003c0 37 cd 20 bd 1b 0a f9 3b b7 76 19 bc b0 6a 0e bd
       -0.039258208 0.0076000816 -0.009366683 -0.034769714
0003d0 40 93 33 bc c0 6d d7 3c 66 a5 61 3b 93 61 d7 3b
       -0.0109604 0.02629745 0.003443086 0.006572911
0003e0 2d 2f bf bc 6e 48 27 3d 89 bf 0d 3c ac 05 bf 3c
       -0.023337925 0.04084056 0.008651623 0.023318134
0003f0 85 2c 6c 3c 05 2b dd 3c cf 82 8e 3c e7 7d 18 3d
       0.014414911 0.026998052 0.017396359 0.037229445
