cifar-10/netD.pt (torch_old, 698411 bytes, 12 tensors)

weight f4 [32, 3, 4, 4]
0	0xbb56a259	-0.0032750575
1	0x3d38ffcc	0.045165822
2	0xbb8f1834	-0.004366899
3	0x3da06d07	0.07833295
4	0xbd31f501	-0.043446545
5	0xbc5fa0d6	-0.013649186
6	0xbd1f7700	-0.038931847
7	0xbd63dd00	-0.055630684
8	0x3cdddc77	0.027082665
9	0x3d8e495a	0.069475845
10	0x3c93cc41	0.018041732
11	0x3ca08f35	0.019599536
12	0xbd2e4ea2	-0.04255546
13	0x3be4af43	0.0069789006
14	0xbcba8ce3	-0.022772258
15	0xbc8123c2	-0.015764121
16	0xbce4c471	-0.027925702
17	0x3d0863c3	0.033298265
18	0x3cc35ead	0.023848856
19	0xba9aaf1e	-0.0011801457
20	0x3c642819	0.013925576
21	0xbda6d383	-0.081458114
22	0xbca36d55	-0.019949595
23	0xbcc76c5b	-0.02434366
24	0xbc8374e3	-0.016046947
25	0xbbbd9b3e	-0.0057863286
26	0xbd7bb974	-0.06145616
27	0x3c7aa8fe	0.01529908
28	0x3bc6df0b	0.0060690693
29	0x3b6277f5	0.0034556363
30	0x3d6a2af1	0.05716986
31	0x3aa62f71	0.0012678934
32	0x3c09d409	0.0084123695
33	0x3d16b974	0.036797956
34	0xbc1510b8	-0.009098224
35	0xbd025b58	-0.031825393
36	0x3b4ca5e6	0.0031226813
37	0x3d4dc683	0.050238144
38	0xbb835c66	-0.0040088175
39	0x3c51ca1e	0.012804536
40	0xbcfcc12c	-0.03085383
41	0x3c01603f	0.007896482
42	0x3c599256	0.013279518
43	0x3d02b0a9	0.031906758
44	0x3c34e387	0.011040575
45	0xbceda9a2	-0.029011551
46	0x3c8d5f5c	0.017257385
47	0xbcd544b4	-0.026033737
48	0x3b7dc5a6	0.0038722544
49	0x3cc7ba08	0.024380699
50	0xbc11e1a9	-0.008903899
51	0x3cb356f8	0.021892056
52	0xbbd70e34	-0.0065629724
53	0x3ba59994	0.0050537083
54	0xbc7c38c5	-0.015394394
55	0x3abd100c	0.0014424338
56	0x3cd69781	0.02619529
57	0x3c6fd44a	0.014638016
58	0x3bed274f	0.007237352
59	0x3d894164	0.067019254
60	0x3bcd7e68	0.0062711723
61	0x3c877e3e	0.01653969
62	0x3ca4c0bb	0.020111432
63	0x3c531025	0.012882267
64	0x3bb072e5	0.0053847902
65	0x3c30248c	0.010750901
66	0xbc77c402	-0.0151224155
67	0x3c4bffa7	0.012451089
68	0xba4bbb49	-0.0007771743
69	0x3c0d22c8	0.0086142495
70	0x3b9f1427	0.0048546973
71	0xbca191d3	-0.019722855
72	0xb92bd754	-0.00016388047
73	0x3cb8761d	0.022517258
74	0xbbe88239	-0.007095602
75	0x3c9dfcbd	0.019285554
76	0xba58749a	-0.0008257121
77	0xbcb70db4	-0.022345401
78	0xbced13af	-0.02894005
79	0xba672daa	-0.0008818755
80	0xbd239342	-0.039935358
81	0xbd568710	-0.0523749
82	0xbc50e379	-0.012749546
83	0xbba793f0	-0.005114071
84	0xbcb3262b	-0.021868786
85	0xbc19c08f	-0.009384288
86	0xbcb6aabb	-0.022298208
87	0xbacd6dd2	-0.0015672988
88	0xbd178574	-0.036992505
89	0xbd00bac7	-0.031428125
90	0xbd021d87	-0.03176644
91	0xbcc73ed8	-0.024321958
92	0xbd00a373	-0.031405877
93	0xbd10d8c6	-0.03536298
94	0xbae522b0	-0.0017481651
95	0xbc021187	-0.007938749
96	0xbd0660bc	-0.032807097
97	0x3d4873b1	0.048938457
98	0xbc09cd30	-0.008410737
99	0xbbd1af07	-0.0063990387
100	0xbc71c616	-0.0147567
101	0xbd15604d	-0.036468793
102	0x3c386d15	0.011256476
103	0x3cfbd6d2	0.030742083
104	0xbd35e8b2	-0.04441137
105	0xbbcc2d35	-0.006230975
106	0x3b104b95	0.0022017707
107	0x3cc903a5	0.02453787
108	0x3ccbba1f	0.024869023
109	0x3cb2a040	0.021804929
110	0xbd2e2c7f	-0.042522904
111	0x3cbb1f5c	0.022842102
112	0x3c5845dd	0.01320025
113	0xba78e678	-0.0009494792
114	0xbc798ef3	-0.015231836
115	0xbcc7d455	-0.02439324
116	0x3c5e673a	0.013574416
117	0x3d1639e9	0.03667632
118	0xbd067c9d	-0.032833684
119	0x3d6c63cd	0.057712365
120	0x3ce8486c	0.028354846
121	0xbc87e16e	-0.016586985
122	0x3b98abf4	0.0046591703
123	0x3cc95baf	0.024579851
124	0xbdabfd3f	-0.08397912
125	0x3d0e87d2	0.034797497
126	0xbd622001	-0.055206303
127	0x3ce81e4b	0.028334757
128	0xba234d67	-0.00062294904
129	0xbc974677	-0.018466217
130	0xbc7d2199	-0.015449905
131	0x3c9ae47c	0.018907778
132	0xbd387754	-0.045035675
133	0x3c5d8e42	0.013522686
134	0xbcee38ad	-0.02907976
135	0x3d8071a9	0.06271679
136	0x3c0c861f	0.008576899
137	0x3cc2dab2	0.023785923
138	0xbcdd94a8	-0.027048424
139	0xbd388f58	-0.04505858
140	0xbcb54617	-0.022128148
141	0x3d26b55f	0.040700313
142	0xbc63df3a	-0.013908202
143	0x3ca3a53a	0.019976247
144	0x3c2d503e	0.010578213
145	0xbd8bbb92	-0.068228856
146	0xbcd1d4e8	-0.025614217
147	0x3b11f99c	0.0022274023
148	0xbaa5d1de	-0.0012651046
149	0x3d38d31f	0.045123216
150	0x3b15b426	0.0022842973
151	0x3d660bf3	0.05616374
152	0xbcc3d171	-0.02390358
153	0x3b26b7a0	0.002543904
154	0x3cf5d68e	0.030009534
155	0x3d9ef2ab	0.07761129
156	0xbb23a6e6	-0.0024971305
157	0xbd18b985	-0.0372863
158	0xbcb2c4f7	-0.021822436
159	0xbd0670af	-0.032822307
160	0xbd7dc4ec	-0.061955377
161	0xbcab433c	-0.020906083
162	0xbd1aaa00	-0.03775978
163	0x3c0190fe	0.007908104
164	0xbbee8bdb	-0.0072798557
165	0x3d9fd777	0.078047685
166	0x3d16c268	0.036806494
167	0xbbd9264c	-0.00662688
168	0x3d475149	0.048661504
169	0x3ce2647e	0.027635809
170	0xbb81c31d	-0.003960027
171	0xb899057a	-7.2966286e-05
172	0xbd3e535b	-0.046466213
173	0x3b804520	0.0039144903
174	0xbd2eadcc	-0.042646214
175	0xbd151c2d	-0.036403824
176	0xbcee214b	-0.02906861
177	0x3c6e96e8	0.014562346
178	0xbb08671e	-0.0020813416
179	0xbd4fc4e5	-0.050724883
180	0x3d10a1e2	0.035310633
181	0xba6cc9ea	-0.0009032773
182	0x3cc9c744	0.02463115
183	0x3c9b4918	0.018955752
184	0x3cfd6788	0.030933157
185	0x3d07d1ed	0.033159185
186	0x3ccd0f17	0.02503161
187	0x3ad54981	0.0016272516
188	0xbc19daa0	-0.009390503
189	0xbc8dfcef	-0.017332522
190	0xbd2591df	-0.040422317
191	0xbd03ef26	-0.03221049
192	0x3c074a67	0.008257485
193	0xbd1b125d	-0.03785931
194	0x3cb809ed	0.02246567
195	0x3d0adfc0	0.03390479
196	0xbceb699f	-0.028736887
197	0xbcc3a95a	-0.023884464
198	0x3ba46c59	0.005017799
199	0x3b94f5b7	0.004545893
200	0xbd252c6d	-0.04032557
201	0xbca05ee3	-0.019576496
202	0xbc722e09	-0.014781483
203	0xbbc3fa04	-0.005980732
204	0x3c4f1464	0.012639139
205	0xbd0d6ae4	-0.034525767
206	0x3c534fe0	0.012897462
207	0x3c043ead	0.008071584
208	0x3be9f8e9	0.007140268
209	0xbc2b3ff3	-0.010452258
210	0xbcb1bbab	-0.021695932
211	0x3cbc065f	0.022952257
212	0xbc0761c8	-0.008263059
213	0x3c13803b	0.0090027405
214	0x3bf8280a	0.0075731324
215	0x3ce7fced	0.028318847
216	0xbc24d5c4	-0.010060731
217	0xb9726a5c	-0.0002311854
218	0xbcb604d2	-0.022219095
219	0x3ba996bb	0.005175439
220	0xbd02dc5d	-0.031948436
221	0x3c7cc776	0.015428415
222	0x3cc41302	0.023934845
223	0x3c022083	0.007942322
224	0xbd5853e4	-0.05281438
225	0x3bf55fd8	0.007488232
226	0xbd0a3adc	-0.03374754
227	0x3d1438e7	0.03618708
228	0xbcefb80c	-0.029262565
229	0xbd28d4a8	-0.04121843
230	0xba5b42a7	-0.0008364119
231	0x3bff2476	0.007786329
232	0x3c2b4898	0.010454319
233	0x3c9e55ea	0.019328076
234	0x3bd95b53	0.006633201
235	0x3d776a23	0.060403954
236	0xbbdf8a75	-0.0068219253
237	0x3b565cc5	0.0032709104
238	0x3c9d32b2	0.019189212
239	0x3c365430	0.01112847
240	0x3cdad0bf	0.026710866
241	0x3c1e82b1	0.009674714
242	0xbca5c62f	-0.020236103
243	0x3d282ce3	0.041058432
244	0xbcd4d3c2	-0.02597988
245	0xbc07b0e3	-0.008281919
246	0x3bf1b221	0.007375971
247	0x392a83ba	0.00016261535
248	0x3d0a15a6	0.03371205
249	0x3c19642c	0.009362262
250	0x3c7a4a60	0.015276521
251	0x3d3d254f	0.04617816
252	0x3bd5b743	0.0065220906
253	0xbd83b817	-0.06431597
254	0x3c7f09ae	0.015566273
255	0xbd19b071	-0.037521783

weight f4 [64, 32, 4, 4]
0	0xbca14202	-0.019684795
1	0xbc4151a4	-0.01179925
2	0x3c2d53a3	0.010579023
3	0x3c4ef117	0.0126307225
4	0xbb8e61d0	-0.0043451563
5	0x3bf62b11	0.007512458
6	0x3d7a3064	0.061081305
7	0xbd011e9f	-0.031523343
8	0xbd724d2b	-0.059155624
9	0xbd9e317c	-0.07724282
10	0xbd8b6696	-0.06806676
11	0xbc5f1d79	-0.013617867
12	0xbdaf266e	-0.08552252
13	0xbd17144e	-0.0368846
14	0xbd054b76	-0.03254267
15	0xbaa476e9	-0.0012547645
16	0x3b824a2a	0.003976126
17	0xbc56ad75	-0.013102879
18	0x3c32e42f	0.010918661
19	0xbd008259	-0.03137431
20	0x3c9e6791	0.019336494
21	0x3c0395cc	0.00803132
22	0x3baf6680	0.005352795
23	0x3c91c418	0.0177937
24	0x3c00d033	0.007862139
25	0xbb1e3660	-0.0024141297
26	0x3ce08c57	0.02741067
27	0x3c1f2702	0.00971389
28	0x3cee46a7	0.029086424
29	0x3c12a2f1	0.008949981
30	0xbd0d103f	-0.03443932
31	0x3cade4c0	0.02122724
32	0x3caba33b	0.020951858
33	0xbd1f1463	-0.0388378
34	0xbc00fbc9	-0.00787253
35	0x3cf603c5	0.030031094
36	0x3c404c45	0.011736934
37	0xbc9a6edb	-0.018851688
38	0xbce96816	-0.028492015
39	0x3ccb14b3	0.024790144
40	0x3ce77195	0.028252402
41	0x3d2605fb	0.040533047
42	0x3c7575ce	0.0149817
43	0x3d297f4e	0.041381173
44	0x3d255510	0.040364325
45	0xbc9adb5c	-0.018903427
46	0x3a0fc0cc	0.0005483746
47	0x3cda6310	0.026658565
48	0x3cc22d6e	0.023703303
49	0x3ca9e65c	0.020739727
50	0x3c88032f	0.01660308
51	0x3ce4d7a1	0.027934851
52	0x3c0b0839	0.008485847
53	0x3d86e43b	0.065865
54	0x3d12fcca	0.03588561
55	0x3d0c5a5c	0.03426586
56	0x3c889949	0.016674655
57	0x3cc46271	0.023972722
58	0x3d854964	0.06508139
59	0xbd23ae05	-0.03996088
60	0xbbdeac05	-0.0067954087
61	0x3bf68669	0.007523347
62	0x3c8b94b7	0.017038686
63	0xbc231856	-0.009954533
64	0xbce1bcaa	-0.027555782
65	0x3b6976f2	0.0035623875
66	0xbba655ac	-0.005076131
67	0x3ceabc26	0.02865417
68	0xbcc64c3d	-0.024206275
69	0x3c052124	0.008125577
70	0x3c436eee	0.011928303
71	0xbc2bf02b	-0.010494272
72	0x3cfe0acb	0.031011006
73	0x3d23a124	0.039948598
74	0x3cf8619d	0.030319983
75	0xbb8dad73	-0.0043236553
76	0xbbce75af	-0.00630065
77	0x3d203e8a	0.039122142
78	0x3bcf47c6	0.0063256947
79	0xbd0dcb5a	-0.03461776
80	0xbd032d77	-0.03202578
81	0x3c15c9e3	0.009142372
82	0xbc4afb49	-0.012389013
83	0x3bc985fc	0.0061500054
84	0xbd6e752a	-0.058217205
85	0xbd3aab63	-0.045573603
86	0xbd13723b	-0.03599761
87	0xbce41597	-0.027842326
88	0xbc6c0e1f	-0.014407664
89	0x3a9b68e2	0.0011856819
90	0xba91dd4e	-0.0011128576
91	0xbd444019	-0.04791269
92	0xbd254052	-0.040344544
93	0xbcda9f4a	-0.026687283
94	0x3be07339	0.006849673
95	0x3bb9c0e9	0.0056687486
96	0xbd63d8da	-0.055626728
97	0xbc13bba8	-0.009016909
98	0xbd1e4aae	-0.03864544
99	0xbd4a14bf	-0.04933619
100	0x3d5deb27	0.054179337
101	0x3d1add6b	0.037808817
102	0x3bd28486	0.0064244894
103	0xbc748338	-0.014923863
104	0x3c3ad9b5	0.011404444
105	0x3d0b3d38	0.03399393
106	0xbc0652b8	-0.008198433
107	0x3b14850e	0.0022662315
108	0x3c510beb	0.012759189
109	0xbc7b5926	-0.015341079
110	0xbcab03ba	-0.0208758
111	0xbd356424	-0.044284955
112	0xbb68e84c	-0.003553885
113	0x3c6e17bf	0.014532029
114	0x3cf803ad	0.03027519
115	0x3c4efb37	0.0126331365
116	0x3a8362c6	0.0010023944
117	0x3cecc67b	0.028903237
118	0xbcad7a1e	-0.021176394
119	0xbd2a2406	-0.04153826
120	0x3c1966e4	0.00936291
121	0x3beed622	0.00728871
122	0x3d96ff19	0.07372875
123	0x3aaa8f57	0.0013012689
124	0x3c807ea4	0.015685387
125	0x3d361346	0.044451974
126	0x3d174262	0.036928542
127	0xbcaa0a8d	-0.020756984
128	0xbd5a4b1e	-0.053294294
129	0xbd0bd335	-0.03413697
130	0xba8bd027	-0.0010666893
131	0xbd1c000d	-0.038085986
132	0x3c07089e	0.008241801
133	0x3d047ca1	0.032345418
134	0x3d235b8c	0.039882228
135	0xbbe11106	-0.0068684844
136	0x3c400003	0.011718753
137	0xbc951387	-0.018197788
138	0x3cc5c813	0.024143254
139	0xbbd603b8	-0.006531205
140	0xbbd8cdef	-0.006616346
141	0xbbf6a8b6	-0.007527436
142	0x3d11919a	0.035539247
143	0x3c88b3df	0.016687332
144	0xbd1c758f	-0.03819805
145	0xbcebf207	-0.028801931
146	0xbc4181a6	-0.011810696
147	0xbd30ef6b	-0.043197077
148	0xbcbce568	-0.023058608
149	0xbbd7ff00	-0.0065916777
150	0x3c90501d	0.017616326
151	0xbca9122b	-0.020638546
152	0xbc684f72	-0.0141790975
153	0x3d394b18	0.04523763
154	0x3b96cf28	0.0046023317
155	0xbd09e19e	-0.03366243
156	0x3af3d8f3	0.0018604085
157	0x3cbe16ea	0.023204286
158	0x3b26bb1f	0.0025441123
159	0xbb7a1668	-0.0038160328
160	0xbc40d9d2	-0.011770682
161	0x3c1cdb9a	0.0095738415
162	0xbc27389f	-0.010206371
163	0xbcc9907b	-0.024605026
164	0xbc7258b7	-0.014791659
165	0x3c5add8d	0.013358486
166	0x3d799c19	0.060939882
167	0x3cddfff0	0.02709958
168	0xbc70c088	-0.0146943405
169	0xbc241f52	-0.010017233
170	0x3c1942c4	0.009354297
171	0xbd74ce67	-0.059767153
172	0x3c10e033	0.008842516
173	0xbb49c7a0	-0.0030789152
174	0xbcc0ad89	-0.023520248
175	0xbc44eb6a	-0.012019018
176	0x3c90c1a1	0.017670454
177	0x3c702d66	0.014659261
178	0x3c81ad23	0.015829628
179	0xbc9581b8	-0.018250331
180	0x3d3fa9fa	0.04679296
181	0x3cfa2063	0.030533021
182	0x3ca9b349	0.020715373
183	0x3ce29e1a	0.02766328
184	0x3c91eca3	0.017813032
185	0xbcb9cf3c	-0.022681825
186	0xbd1612dc	-0.03663908
187	0xbd4ae740	-0.049536943
188	0xbd1fea00	-0.03904152
189	0x3b66a83f	0.0035195497
190	0x3c81d1a9	0.015847044
191	0xbce45704	-0.027873524
192	0x3c55e544	0.0130551495
193	0xbc180876	-0.009279361
194	0xbcf0531a	-0.0293365
195	0xbcc89eaf	-0.024489729
196	0xbc54a9a3	-0.012979898
197	0xbceb51c4	-0.028725512
198	0xbc9d0184	-0.019165762
199	0x3cc68d00	0.024237156
200	0xbd43127b	-0.047625046
201	0xbcbb939a	-0.02289753
202	0xbbe230d9	-0.0069027958
203	0x3c781790	0.0151423365
204	0x3cd57096	0.026054662
205	0x3c9b05df	0.018923698
206	0x3ad68ab9	0.0016368247
207	0xbcc40f65	-0.023933122
208	0xbdb182e6	-0.08667545
209	0xbce2f7c5	-0.027706036
210	0xbd873888	-0.06602579
211	0xbd9159a3	-0.07097175
212	0x3c0b9f2d	0.008521837
213	0xbcc6edfb	-0.0242834
214	0xbcd3170d	-0.025767827
215	0xbcbb5047	-0.022865428
216	0x3bfd4cfe	0.0077301254
217	0x3d360dc6	0.04444673
218	0x3c911271	0.017708989
219	0xbc7ce7eb	-0.015436153
220	0xbc796ed7	-0.01522418
221	0x3cc846dc	0.02444785
222	0x3c914f93	0.01773814
223	0x3a16255f	0.00057276146
224	0x3cb7b8c1	0.022426965
225	0x3d1355b8	0.03597042
226	0x3c8476c1	0.016169908
227	0xbc5bcc77	-0.013415447
228	0x3c44d506	0.012013679
229	0xbc7a374d	-0.015271974
230	0x3d11fd76	0.03564211
231	0xb984f420	-0.0002535889
232	0xbd039ec7	-0.032133844
233	0x3ca5fb1e	0.020261344
234	0xbbc8584e	-0.0061140424
235	0xbcdc07d7	-0.026859207
236	0x3cfda473	0.030962205
237	0x3c899594	0.016794957
238	0xbc19feda	-0.00939914
239	0x3d07c4e0	0.03314674
240	0xbc93a3b6	-0.0180224
241	0xba1fd9c2	-0.0006097817
242	0xbb6ae54f	-0.0035842245
243	0xbc0480cc	-0.008087348
244	0xbba5f2aa	-0.005064328
245	0xbd03dd08	-0.032193214
246	0xbc894fa2	-0.016761605
247	0xbd2dc0d6	-0.04242023
248	0x3ab72481	0.0013972671
249	0x3b15f55e	0.0022881846
250	0x3b69bb48	0.0035664607
251	0xbd3dc3df	-0.046329375
252	0x3bb053c7	0.005381081
253	0xbd06a0c5	-0.032868166
254	0x3be04253	0.006843844
255	0xbb278d95	-0.0025566567

running_mean f4 [64]
0	0x3b8d1cf3	0.0043064295
1	0xbc7940f1	-0.015213237
2	0xbc95e7bb	-0.018298974
3	0xbd77feab	-0.060545605
4	0xbd43cf45	-0.04780509
5	0xbde8522b	-0.11343797
6	0xbceb3163	-0.028710073
7	0xbdddb003	-0.10824587
8	0xbcaab7ef	-0.02083966
9	0x3debff8e	0.115233526
10	0xbb402a30	-0.002932202
11	0xbaad277b	-0.0013210619
12	0xbd057c12	-0.032589026
13	0xbdddb012	-0.10824598
14	0x3af702d9	0.0018845453
15	0x3b85e033	0.0040855645
16	0xbb9963ad	-0.0046810717
17	0xbd2961d2	-0.041353054
18	0xbc980cc8	-0.018560782
19	0xbd9fdc95	-0.078057446
20	0xbd4a59db	-0.0494021
21	0xbe13a378	-0.14417827
22	0x3d867afa	0.06566425
23	0xbd7c7370	-0.061633527
24	0x3c0c6c3a	0.008570725
25	0xbd4110bb	-0.047135096
26	0x3cd2cc1a	0.025732089
27	0xbd97565f	-0.07389521
28	0xbcab0880	-0.020878077
29	0x3c52c2ee	0.012863858
30	0xbcae377a	-0.021266688
31	0x3d8ca1a4	0.06866768
32	0xbd7bfa25	-0.061517853
33	0xbd95fdbf	-0.07323789
34	0x3c8582df	0.016297756
35	0xbd5131f0	-0.051073015
36	0xbc857288	-0.016289964
37	0xbd15538f	-0.03645664
38	0x3d81cbab	0.06337675
39	0xbd47c4d3	-0.04877169
40	0xbce6f479	-0.028192746
41	0xbc609435	-0.01370721
42	0xbce39665	-0.027781675
43	0xbc73a9cc	-0.014872026
44	0xbcb199dc	-0.021679811
45	0x3d5540d0	0.052063763
46	0xbd92b8de	-0.07164167
47	0x3d603aec	0.054743692
48	0x3bf0604f	0.0073356996
49	0xbc7e9f14	-0.015540857
50	0xbd5302b6	-0.051516257
51	0xbda30734	-0.07960358
52	0x3d69e613	0.05710418
53	0x3c897b81	0.016782524
54	0xbd95a345	-0.07306532
55	0x3ca4f76c	0.020137511
56	0x3d508278	0.050905675
57	0x39a70329	0.00031855077
58	0xbc930e70	-0.01795122
59	0x3cc20a42	0.023686532
60	0x3c88e7f8	0.016712174
61	0x3d1b9d7d	0.03799199
62	0xbcdb9059	-0.026802229
63	0xbb8170ad	-0.0039501996

running_var f4 [64]
0	0x3b5046ae	0.003178041
1	0x3c23f1e2	0.0100064
2	0x3b52e21c	0.0032178229
3	0x3aadadc2	0.0013250636
4	0x3b3384cc	0.0027392386
5	0x3bddf09c	0.0067730676
6	0x3b1477b3	0.0022654354
7	0x3b7c38b3	0.0038485944
8	0x3b167561	0.0022958147
9	0x3b6ae1f5	0.0035840247
10	0x3b6cf151	0.0036154578
11	0x3b2d80f1	0.002647456
12	0x3b4b4fbc	0.0031022867
13	0x3b9c4edb	0.0047701425
14	0x3b969bac	0.0045961943
15	0x3ba46ccb	0.005017852
16	0x3b941459	0.004519027
17	0x3aef65e9	0.0018264625
18	0x3ae71f81	0.001763329
19	0x3b27e225	0.002561697
20	0x3b6597b3	0.0035033047
21	0x3bd7e926	0.0065890728
22	0x3beb6f32	0.0071848864
23	0x3b26f86b	0.0025477658
24	0x3b88cb2b	0.00417461
25	0x3b9e3992	0.0048286403
26	0x3be0530c	0.0068458375
27	0x3b6b56a7	0.0035909803
28	0x3c007c4e	0.007842137
29	0x3bc7f7b3	0.006102526
30	0x3a9c7db1	0.0011939314
31	0x3c5788ea	0.013155201
32	0x3b6baaaa	0.0035959878
33	0x3ba33523	0.0049806996
34	0x3c053f90	0.00813283
35	0x3bb076cb	0.005385255
36	0x3b2cc7b4	0.002636415
37	0x3b20686e	0.0024476307
38	0x3b97af8b	0.0046290806
39	0x3bfee047	0.007778201
40	0x3b2281ea	0.0024796673
41	0x3b3f0c9e	0.0029151808
42	0x3b886a33	0.0041630506
43	0x3be03058	0.0068417005
44	0x3b40bf7e	0.0029411013
45	0x3af3dea7	0.0018605784
46	0x3b29ec3f	0.0025928167
47	0x3bbebfb1	0.0058211912
48	0x3b96e2a7	0.004604656
49	0x3bde03c8	0.006775353
50	0x3b18408f	0.002323184
51	0x3b815d5b	0.0039478964
52	0x3b272701	0.0025505426
53	0x3b98a78e	0.004658646
54	0x3bc9926f	0.0061514894
55	0x3bea8ca1	0.0071578776
56	0x3b884ad1	0.0041593094
57	0x3b6cf4cb	0.003615665
58	0x3bc7ac3c	0.00609353
59	0x3b378deb	0.0028008174
60	0x3b69fa5c	0.0035702204
61	0x3c0a7438	0.00845056
62	0x3b61b68a	0.0034441077
63	0x3ae91716	0.0017783369

weight f4 [64]
0	0x3f80d214	1.0064111
1	0x3f8087df	1.0041465
2	0x3f834dfe	1.0258176
3	0x3f84e528	1.0382433
4	0x3f81f945	1.0154196
5	0x3f7a1b13	0.9769756
6	0x3f805953	1.002726
7	0x3f84e969	1.0383731
8	0x3f775319	0.9661117
9	0x3f813bb4	1.0096345
10	0x3f80bd36	1.0057743
11	0x3f807877	1.0036763
12	0x3f8108d0	1.0080814
13	0x3f810234	1.0078797
14	0x3f86734d	1.0503937
15	0x3f8262f0	1.0186443
16	0x3f7db9f4	0.99111867
17	0x3f80dc94	1.0067315
18	0x3f78bb77	0.9716105
19	0x3f765f46	0.96239126
20	0x3f82a400	1.0206299
21	0x3f86eb40	1.0540543
22	0x3f814f0a	1.0102246
23	0x3f7e23b0	0.99273205
24	0x3f85ce72	1.0453627
25	0x3f807d9e	1.0038335
26	0x3f767cfb	0.96284455
27	0x3f81f761	1.0153619
28	0x3f805020	1.0024452
29	0x3f7d824a	0.9902693
30	0x3f7ac288	0.9795308
31	0x3f7a7a52	0.97842896
32	0x3f830c12	1.0238059
33	0x3f778ce5	0.96699363
34	0x3f80a913	1.0051597
35	0x3f6cc43f	0.9248695
36	0x3f7e2595	0.99276096
37	0x3f7f95c2	0.9983789
38	0x3f7d45b8	0.9893451
39	0x3f7cf970	0.9881811
40	0x3f7bc359	0.9834495
41	0x3f6cb962	0.9247037
42	0x3f7ff070	0.99976254
43	0x3f805569	1.0026065
44	0x3f7b5e81	0.98191077
45	0x3f82b8cd	1.0212647
46	0x3f7aa3d4	0.9790623
47	0x3f7bcaa8	0.98356104
48	0x3f81e86d	1.0149056
49	0x3f7d317d	0.9890364
50	0x3f84f384	1.0386815
51	0x3f75796a	0.9588839
52	0x3f856734	1.042212
53	0x3f789324	0.9709952
54	0x3f822c92	1.0169852
55	0x3f7bea3e	0.984043
56	0x3f7dd915	0.99159366
57	0x3f792c4f	0.97333235
58	0x3f78f421	0.9724751
59	0x3f6f3222	0.9343587
60	0x3f808642	1.0040972
61	0x3f7ebb6c	0.99504733
62	0x3f83d00f	1.029787
63	0x3f7a9918	0.9788985

bias f4 [64]
0	0x3cc5af68	0.024131492
1	0xbcf53391	-0.029931815
2	0xbc7ad046	-0.015308445
3	0xbc8f3f78	-0.017486319
4	0x3c127bec	0.008940678
5	0xba1c4304	-0.0005960914
6	0x3b50403f	0.0031776575
7	0x3a2ea7fa	0.00066626037
8	0xbd75ab08	-0.05997756
9	0xbc690622	-0.014222654
10	0x3bf14fd0	0.0073642507
11	0xbc8be1ee	-0.017075505
12	0x3b313047	0.0027036832
13	0x3b8e111d	0.004335536
14	0x3c442dc6	0.011973804
15	0xbc7b15b4	-0.015324999
16	0xbce9212d	-0.028458202
17	0xbc2acff0	-0.010425553
18	0xbcd448ee	-0.025913682
19	0xbc914fc3	-0.017738229
20	0x3a76510b	0.00093962316
21	0x3c3f6873	0.0116826175
22	0xbca85f0e	-0.020553138
23	0xbcf22621	-0.029559197
24	0xbc31ce1c	-0.010852363
25	0xba1dfcd8	-0.00060267514
26	0xbca7b646	-0.020472657
27	0xbc895b3b	-0.016767135
28	0xbcdf1ca1	-0.027235331
29	0xbd49f5ce	-0.049306683
30	0xbd222aaf	-0.039591487
31	0xbc1f4245	-0.00972039
32	0xbb5669fc	-0.003271698
33	0xbd00ac3a	-0.031414248
34	0xbd0222ed	-0.03177159
35	0xbd868d5c	-0.06569931
36	0xbc3cdd97	-0.0115274405
37	0xbbda441e	-0.006660952
38	0xbd087317	-0.033312883
39	0xbd0e24a5	-0.034702916
40	0xbbedf5c8	-0.0072619654
41	0xbd31f93c	-0.04345058
42	0xbd8c8418	-0.068611324
43	0xbc6f75c0	-0.014615476
44	0xbc93ac7c	-0.018026583
45	0xbc802707	-0.01564361
46	0xbc9d0ba2	-0.019170586
47	0xbcf67b9b	-0.030088237
48	0x3c2166c2	0.0098511595
49	0xbcf33db7	-0.029692514
50	0xbd03f4d4	-0.03221591
51	0xbd591e33	-0.053007316
52	0xba318012	-0.0006771098
53	0xbd39ac6f	-0.04533046
54	0xbc85b950	-0.016323715
55	0xbd333a9b	-0.043757062
56	0xbce669c7	-0.02812661
57	0xbd35f8a0	-0.04442656
58	0xba91a23e	-0.0011110974
59	0xbd5d5fed	-0.05404656
60	0xbc50f889	-0.012754568
61	0xbca52abe	-0.020161983
62	0x3c44b885	0.0120068835
63	0xbc0b9ba5	-0.008520995

weight f4 [128, 64, 4, 4]
0	0x3c858ea9	0.016303377
1	0xbd0fee73	-0.035139512
2	0xbc450aa1	-0.01202646
3	0x3b8a7f1e	0.0042265793
4	0xbcb646f2	-0.022250626
5	0xbd0ccc65	-0.034374613
6	0x3c40215a	0.011726702
7	0x3d1d4b97	0.038402166
8	0xbc5a78f3	-0.013334501
9	0x3c36998a	0.011145005
10	0xbcc6a533	-0.024248695
11	0xbc8d30ce	-0.017235186
12	0xbc3db448	-0.011578627
13	0x3c7e3c5a	0.015517319
14	0x3b146e22	0.0022648652
15	0xba4d5225	-0.000783237
16	0x3b98bd42	0.004661233
17	0xba03875f	-0.0005017425
18	0x3c06ee80	0.008235574
19	0xbd36d70d	-0.044638682
20	0x3c905d63	0.017622655
21	0xbce89a36	-0.028393846
22	0xbc011697	-0.007878921
23	0xbc299b5a	-0.01035198
24	0xba2bf093	-0.00065589807
25	0x3c5630fd	0.013073203
26	0x3af57263	0.0018726107
27	0x3cf28fb1	0.029609533
28	0x3c02961e	0.007970361
29	0xbb12586d	-0.0022330538
30	0xbc57512a	-0.01314191
31	0xbc3a79c5	-0.011381571
32	0xbc88b4ee	-0.016687836
33	0xbd726576	-0.059178792
34	0xbcbbb040	-0.022911191
35	0xbcb88ee6	-0.022529077
36	0xbd287241	-0.041124586
37	0x3d2050ce	0.03913956
38	0x3c81c3c7	0.015840424
39	0xbca9020f	-0.020630864
40	0x3ca9ca0c	0.020726226
41	0xbc119369	-0.008885243
42	0x3cbb40b4	0.022858001
43	0xbcc7b4b5	-0.02437816
44	0xbc59dfd3	-0.013297993
45	0x3bd1e222	0.006405131
46	0xbd1c2a8a	-0.038126506
47	0xbc01851e	-0.007905273
48	0x3c8b5c1a	0.01701169
49	0x3ab32f31	0.001367068
50	0xbce537a4	-0.027980633
51	0xbd27293b	-0.040810805
52	0xbd0e1b98	-0.034694284
53	0x3cc5290c	0.024067424
54	0x3d268dfa	0.040662743
55	0x3cf74f83	0.030189281
56	0xbd38abef	-0.045085844
57	0x3c6e67ba	0.0145510975
58	0x3d2f3729	0.042777214
59	0xbcb19267	-0.021676255
60	0xbcb4e10b	-0.022079965
61	0x3a87dd2f	0.00103656
62	0xbcd5bb4e	-0.02609029
63	0x3c5c3e16	0.013442537
64	0xbb047fe4	-0.002021783
65	0x3c279864	0.010229204
66	0xbc9e3344	-0.019311555
67	0xbcfce61b	-0.030871442
68	0xbbc4e4d4	-0.0060087238
69	0xbcaaee10	-0.02086547
70	0x3c9ac248	0.018891469
71	0xbcf329e4	-0.029683061
72	0x3acc96e1	0.001560893
73	0x39a0487b	0.0003057158
74	0x3d550b5c	0.052012786
75	0x3c856653	0.016284144
76	0xbccc22d4	-0.024918951
77	0xbcb553b2	-0.022134636
78	0x3d4c60e4	0.04989709
79	0x3c2011de	0.009769885
80	0xb953ae14	-0.00020187377
81	0x3d63455c	0.055486068
82	0xbbce0ae7	-0.0062879208
83	0xbcf434d1	-0.029810341
84	0xbc96cd46	-0.018408429
85	0x3d8bce3a	0.06826444
86	0x3c030cc8	0.007998653
87	0x3bbe47cc	0.0058068987
88	0xbca190f9	-0.019722449
89	0xbd614dd6	-0.05500587
90	0x3b049de0	0.0020235702
91	0xbc531471	-0.012883292
92	0x3ca72118	0.020401523
93	0x3caeffbf	0.021362184
94	0x3adee852	0.0017006493
95	0xbbc0e603	-0.0058867945
96	0xbccaa43f	-0.024736522
97	0xbd699b0e	-0.057032637
98	0x3be0834b	0.006851589
99	0xbb2eff1d	-0.0026702352
100	0xbc875bae	-0.016523208
101	0xbc825d93	-0.01591376
102	0x3bd06438	0.0063596033
103	0x3c459c6f	0.012061222
104	0xbd39f74d	-0.04540186
105	0xbb8bcc6e	-0.0042663133
106	0xbbc1fd2d	-0.0059200735
107	0xbbaae09a	-0.005214763
108	0xbc6adc47	-0.014334745
109	0xbc4ad2a3	-0.012379321
110	0xbd21eed0	-0.03953439
111	0x3c523db9	0.012832099
112	0xbacfa220	-0.0015841164
113	0x3cb29e40	0.021803975
114	0x3bf474d7	0.0074602175
115	0x3c9e3632	0.019312952
116	0xbc229259	-0.009922587
117	0x3ce6bf1b	0.028167298
118	0x3c8de99a	0.017323304
119	0x3d152255	0.036409695
120	0xbce13417	-0.027490659
121	0x3bed84f7	0.0072485167
122	0xbbd644ea	-0.006538977
123	0x3c0da4bf	0.008645236
124	0xbc118e92	-0.008884089
125	0x3bead9a1	0.0071670567
126	0xbcaee0b6	-0.021347385
127	0xbba1a5c7	-0.0049330923
128	0x3cbf768f	0.023371963
129	0x3c2bd892	0.010488646
130	0xbcbd960b	-0.023142835
131	0x3b6b8205	0.0035935652
132	0xbacb5c4c	-0.0015515178
133	0xb96026fb	-0.00021376826
134	0xbcd73071	-0.026268216
135	0x3c91e4c5	0.017809281
136	0xbcdfeafa	-0.027333725
137	0xbccb8932	-0.024845693
138	0xbc5e2af1	-0.013560043
139	0x3c6accd7	0.014331064
140	0xbc64cc3a	-0.013964707
141	0x3cde38de	0.027126726
142	0x3c035d56	0.0080178585
143	0xbbdd5d37	-0.006755497
144	0x3c539f89	0.012916454
145	0xbc526436	-0.012841275
146	0xbca93067	-0.020652963
147	0x3d1b2a39	0.037882064
148	0xbd10ca64	-0.035349265
149	0xbcefe36b	-0.029283246
150	0xbd258ffd	-0.04042052
151	0xbce3def3	-0.027816271
152	0xbc597a39	-0.013273769
153	0xbcd3eaa6	-0.025868725
154	0x3d00b921	0.031426553
155	0xbb64f3c3	-0.0034935332
156	0x3d1bf528	0.038075596
157	0xbc96974f	-0.018382696
158	0xbd1e174d	-0.03859644
159	0xb9c1f1e7	-0.0003699206
160	0x3cc4198c	0.023937963
161	0x3cb91b72	0.022596095
162	0xbcb9e7a4	-0.022693463
163	0xbce6f017	-0.028190656
164	0xbbab126e	-0.005220703
165	0xbca97b28	-0.020688608
166	0x3cbf2f61	0.023338022
167	0x3d0e0248	0.034670144
168	0xbc43581a	-0.0119228605
169	0x3c2bb5af	0.010480328
170	0xbc7ee325	-0.015557085
171	0x3c6ce1c4	0.014458124
172	0xbcc65dac	-0.024214588
173	0x3d28cc45	0.04121043
174	0x3c6576d7	0.014005384
175	0x3c954180	0.01821971
176	0xb9c68369	-0.0003786341
177	0xb95189bb	-0.00019983102
178	0xbd6837e6	-0.056693934
179	0xbcf7f1d7	-0.030266685
180	0xbbbec6ec	-0.005822053
181	0xbb32763f	-0.0027231125
182	0xbb14263a	-0.0022605793
183	0xbc41e190	-0.011833563
184	0x3ba87fbe	0.005142181
185	0x3cbce6ab	0.02305921
186	0x3cb5271f	0.022113381
187	0xb9ec417f	-0.00045062226
188	0x3cbc1b91	0.022962363
189	0xbc2c4a3c	-0.010515746
190	0xbcb1553d	-0.02164709
191	0x3c013680	0.007886529
192	0xbd467da7	-0.048459675
193	0x3d102cf0	0.035199106
194	0xbc81ce8f	-0.015845565
195	0xbd06023e	-0.032716982
196	0xbd08657c	-0.033299908
197	0xbc8bc923	-0.017063683
198	0xbc78b927	-0.0151808625
199	0xbb38413f	-0.0028115062
200	0x3c0402aa	0.008057276
201	0xbd56d465	-0.05244865
202	0x3cabf019	0.02098851
203	0xbc9fe64a	-0.01951899
204	0xbd0171ae	-0.031602554
205	0xbccd0082	-0.025024656
206	0x3d866d58	0.065638244
207	0x3d461022	0.04835523
208	0x3b090c8d	0.0020912022
209	0xbc700bc1	-0.01465124
210	0xbc4ad754	-0.01238044
211	0xbca2e44b	-0.01988425
212	0x3c62c3f8	0.013840668
213	0x3bb0f0fd	0.005399822
214	0xbc9caeb7	-0.01912628
215	0xbbb6f31b	-0.0055831796
216	0xbc5955a8	-0.013265051
217	0x3a87f165	0.0010371624
218	0x3c7a04fa	0.015259976
219	0x3b87ba95	0.0041421154
220	0xbc577259	-0.013149821
221	0x3ce117ae	0.027477112
222	0x3c4ff341	0.012692274
223	0x3d1e793d	0.03868984
224	0xbc92c9af	-0.017918436
225	0xbd588193	-0.052857947
226	0xbca47079	-0.020073162
227	0xbd37fb4a	-0.044917382
228	0xbd0287c5	-0.03186776
229	0xbc2c4aa9	-0.010515847
230	0x3b99827d	0.004684745
231	0xbccfd9d2	-0.02537242
232	0xbd4c3484	-0.04985477
233	0xbc6adddf	-0.014335125
234	0xbbeaeb82	-0.007169188
235	0xbcf3d309	-0.029763715
236	0xbd22b5e7	-0.039724257
237	0xbd26a1e6	-0.040681742
238	0xbb8d647c	-0.004314957
239	0x3d22c27c	0.039736256
240	0xbcfa6d91	-0.030569823
241	0x3a527dd5	0.00080296147
242	0xbd1a2e73	-0.037641954
243	0xbcb86b2f	-0.022512047
244	0xbdb6ae8a	-0.089200094
245	0xbce7d1c9	-0.028298276
246	0x3aac5924	0.0013149125
247	0xbc7a96d7	-0.015294752
248	0xbd77c4d1	-0.060490433
249	0xbd36db98	-0.044643015
250	0xbc925a16	-0.017865222
251	0xbcf873e7	-0.030328704
252	0x3c4e2e15	0.012584229
253	0xbc6ff0f2	-0.014644848
254	0x3d0aada2	0.033856995
255	0x3c46522d	0.012104553

running_mean f4 [128]
0	0xbf44bf3b	-0.76854295
1	0xbed1271e	-0.40850157
2	0xbf04f37a	-0.51934016
3	0xbd46faf7	-0.048579182
4	0xbea1dc30	-0.31613302
5	0x3f02e826	0.5113548
6	0xbc882a5b	-0.01662176
7	0xbfc34b68	-1.5257387
8	0xbec9ac12	-0.39389092
9	0xbb805a9e	-0.0039170524
10	0xbf683113	-0.9069988
11	0xbee9cd84	-0.45664608
12	0xbefd9246	-0.4952566
13	0x3d87d119	0.06631679
14	0x3e6c6bc9	0.23087992
15	0xbf8358b3	-1.0261444
16	0xbf2e3199	-0.6804443
17	0xbe1d11cd	-0.15338822
18	0xbf918334	-1.1368165
19	0xbf0565b1	-0.52108294
20	0xbef7c0b0	-0.48389196
21	0xbf669e69	-0.90085465
22	0x3f190946	0.59779775
23	0xbe44314e	-0.19159433
24	0xbe5dd558	-0.21663415
25	0xbf39f31d	-0.72636586
26	0xbf4c0fbd	-0.79711515
27	0xbdad9069	-0.0847481
28	0xbf0aa546	-0.5415844
29	0x3e942964	0.2893783
30	0xbd077824	-0.03307356
31	0x3e85cf34	0.26134646
32	0xbe53d6aa	-0.20687357
33	0xbd48b681	-0.049002174
34	0xbe818887	-0.25299475
35	0x3d43785e	0.047722213
36	0xbf0b966b	-0.54526395
37	0x3ed7ebf5	0.42172208
38	0x3f3fe3a6	0.7495674
39	0xbfa181e3	-1.2617763
40	0xbe8d76f7	-0.27629825
41	0xbe384e91	-0.1799872
42	0xbf2e84d5	-0.68171436
43	0xbeac0c75	-0.33603254
44	0x3e7eed0a	0.2489511
45	0xbf656a99	-0.8961578
46	0x3f0b507a	0.5441967
47	0xbf19de19	-0.6010452
48	0xbf8516ae	-1.0397546
49	0xbf532a58	-0.82486486
50	0xbe0bd56d	-0.13655634
51	0xbf144a20	-0.57925606
52	0xbe47938d	-0.1948988
53	0x3eaceb53	0.33773288
54	0xbedb39c3	-0.42817506
55	0xbf3c5015	-0.73559695
56	0xbef0c54c	-0.47025526
57	0xbf15197d	-0.5824202
58	0xbe88ccd5	-0.26718774
59	0xbf24c556	-0.6436361
60	0xbe18ef12	-0.14934948
61	0xbddfc5bd	-0.109263875
62	0x3ef7bf54	0.4838816
63	0xbed2fc11	-0.41207936
64	0x3ea3d0d7	0.3199527
65	0xbde516f7	-0.11186021
66	0xbe7b5410	-0.24543786
67	0xbebd9473	-0.3702732
68	0xbd8357b9	-0.06413216
69	0xbdc5c0a5	-0.09655885
70	0xbf2ecc2e	-0.68280303
71	0xbe67f498	-0.22651899
72	0xbef10ba6	-0.470792
73	0xbf6b19c4	-0.9183619
74	0xbf049312	-0.5178691
75	0x3ec7317e	0.38904947
76	0xbe6f4ccb	-0.23369138
77	0xbf3500d2	-0.70704377
78	0xbead80a9	-0.33887222
79	0x3e8f8e27	0.2803814
80	0xbf2e0b41	-0.6798592
81	0xbe66a8d4	-0.2252534
82	0x3caf0c8f	0.021368293
83	0x3dd17a41	0.10228396
84	0xbbf94d50	-0.0076080933
85	0xbf9a1c72	-1.2039931
86	0xbefb8a36	-0.49128884
87	0x3dbe4c92	0.092919484
88	0x3f112611	0.5669871
89	0xbf6c7a71	-0.9237433
90	0xbe9ee84d	-0.31036606
91	0xbfa36f2f	-1.2768306
92	0xbe06ad8d	-0.13152142
93	0xbe504e56	-0.20342383
94	0x3ed26465	0.4109222
95	0x3e47d42e	0.19514534
96	0x3dd8b7e3	0.105819486
97	0x3e3d110e	0.18463537
98	0x3ea07459	0.31338766
99	0x3ee0c9fb	0.439041
100	0xbf13dcaf	-0.5775861
101	0xbd032e66	-0.03202667
102	0xbd9de726	-0.07710104
103	0xbeae2e5f	-0.34019753
104	0x3f3c4fa4	0.7355902
105	0xbeec869f	-0.46196458
106	0xbfb19578	-1.3873739
107	0xbefa8306	-0.48928088
108	0xbe9936f2	-0.29924732
109	0xbf0ff461	-0.5623227
110	0xbf302d61	-0.6881924
111	0xbf76b3c4	-0.9636805
112	0x3e9a3e54	0.30125678
113	0xbe4fb1f2	-0.20282724
114	0x3c061912	0.008184688
115	0x3ede2b0d	0.4339222
116	0xbf354fdd	-0.70824987
117	0x3e5dfb86	0.2167798
118	0xbcb240e0	-0.02175945
119	0xbcaf8f71	-0.021430703
120	0xbf365835	-0.71228343
121	0xbf0f9a3e	-0.5609473
122	0xbeb0f408	-0.3456118
123	0x3f201c6e	0.6254338
124	0xbf030553	-0.5118
125	0xbd6dc433	-0.05804844
126	0x3f1e36d2	0.618024
127	0x3e0872d2	0.1332505

running_var f4 [128]
0	0x3f172717	0.5904402
1	0x3f52e613	0.82382315
2	0x3f3bef0e	0.73411644
3	0x3f9d4287	1.2285928
4	0x3f76d35e	0.9641627
5	0x3f54c672	0.83115304
6	0x3e95f838	0.29290938
7	0x3f4f66ff	0.81016535
8	0x3ee51864	0.4474517
9	0x3f3986e1	0.72471434
10	0x3fa4569b	1.283893
11	0x3f5acf5d	0.8547266
12	0x3f190782	0.5977708
13	0x3f4c9b4a	0.7992445
14	0x3f5e288e	0.8678063
15	0x3f805408	1.0025644
16	0x3f589d76	0.84615266
17	0x3fc87be7	1.5662812
18	0x3f2d4400	0.67681885
19	0x3f1bba19	0.6083084
20	0x3f888ad0	1.0667362
21	0x3f8cc1ab	1.0996603
22	0x3f1ba59f	0.6079959
23	0x3f611a89	0.87931114
24	0x3f15936c	0.5842807
25	0x3f8812b3	1.0630707
26	0x3f3cb596	0.7371458
27	0x3ef37bad	0.47555295
28	0x3f11eeb7	0.57004875
29	0x3f651d00	0.89497375
30	0x3f8a3962	1.0798762
31	0x3f924443	1.1427082
32	0x3ee7f7ef	0.45306346
33	0x3f89b993	1.0759758
34	0x3efa87ae	0.4893164
35	0x3f6cc89f	0.92493623
36	0x3fa2c73a	1.2717049
37	0x3f349aa6	0.70548475
38	0x3f159b53	0.5844013
39	0x3f8d2c7e	1.1029203
40	0x3f087519	0.53303677
41	0x3f5a9b30	0.8539305
42	0x3f389790	0.72106266
43	0x3f444a4e	0.7667588
44	0x3f02c50e	0.5108193
45	0x3f4ff73e	0.81236637
46	0x3f3dde4f	0.7416734
47	0x3f2227e0	0.63342094
48	0x3f27aed6	0.65501153
49	0x3ea47da6	0.32127112
50	0x3f0bdc81	0.5463334
51	0x3f28147a	0.65656245
52	0x3f2406d2	0.64072907
53	0x3f61744b	0.88068074
54	0x3fac5e78	1.346633
55	0x3f2ca0fc	0.6743314
56	0x3f41ffb2	0.75780785
57	0x3eaf9aa3	0.34297666
58	0x3f23bc20	0.6395893
59	0x3f6e328e	0.9304589
60	0x3effd7c8	0.49969316
61	0x3f830fd6	1.0239208
62	0x3f5ba732	0.85801995
63	0x3fa59a17	1.293765
64	0x3f4e6725	0.80626136
65	0x3f0e3ab4	0.55558324
66	0x3ef53b15	0.4789664
67	0x3f1018d5	0.5628789
68	0x3f227f7d	0.6347578
69	0x3fd6579a	1.6745484
70	0x3f8b11ed	1.0864846
71	0x3fc450e2	1.5337183
72	0x3f17b26c	0.59256625
73	0x3f4d8e2b	0.80295056
74	0x3f9bd3f9	1.2174064
75	0x3f236371	0.6382361
76	0x3ff5d038	1.9204168
77	0x3f852d22	1.0404398
78	0x3f52ab75	0.8229287
79	0x3f1ca664	0.6119139
80	0x3fb47bea	1.4100316
81	0x3f951b36	1.1648929
82	0x3f9e2f06	1.23581
83	0x3f9b1c86	1.211808
84	0x3eeaba05	0.45845047
85	0x3f074d04	0.5285189
86	0x3efe2ab0	0.49641943
87	0x3f0601fb	0.5234677
88	0x3f06fecc	0.5273254
89	0x3f54971b	0.8304307
90	0x3fb86e80	1.4408722
91	0x3f4219e0	0.7582073
92	0x3f815e4c	1.0106902
93	0x3f44a973	0.7682106
94	0x3fbcd388	1.4752054
95	0x3f8eadc8	1.1146784
96	0x3f4d8a74	0.8028939
97	0x3f44a68a	0.7681662
98	0x3f5ff10a	0.8747717
99	0x3f11d74a	0.5696913
100	0x3f9aefa4	1.2104383
101	0x3f1f9650	0.62338734
102	0x3f82f2f9	1.0230399
103	0x3f29fd08	0.6640172
104	0x3f130c18	0.5744033
105	0x3f45e09b	0.77295846
106	0x3f9499b3	1.1609405
107	0x3f88cd77	1.0687703
108	0x3f28cb59	0.65935284
109	0x3fa35146	1.2759178
110	0x3f3cf876	0.7381662
111	0x3fe0b7d9	1.7556106
112	0x3f35a87b	0.70960206
113	0x3f027511	0.5095988
114	0x3feab808	1.8337412
115	0x3eb889c9	0.36042622
116	0x3f2ef8f6	0.68348634
117	0x3f97a971	1.1848584
118	0x3f9ddeb9	1.2333595
119	0x3f0d21da	0.5512978
120	0x3f04e249	0.51907784
121	0x3f56b1d5	0.838651
122	0x3f0462b9	0.5171314
123	0x3f2f57cf	0.6849336
124	0x3fbfd55f	1.4986991
125	0x3f1d7680	0.6150894
126	0x3f4e481e	0.8057879
127	0x3f2ce955	0.67543536

weight f4 [128]
0	0x3f72fd5e	0.9491786
1	0x3f7aa96f	0.97914785
2	0x3f8927f3	1.0715317
3	0x3f7d8464	0.9903014
4	0x3f81c198	1.0137205
5	0x3f7cad97	0.9870238
6	0x3f821ca9	1.0164996
7	0x3f866cef	1.0501994
8	0x3f868bfd	1.0511471
9	0x3f836d0d	1.0267655
10	0x3f7999a8	0.97500086
11	0x3f88ed62	1.0697443
12	0x3f76e4a4	0.9644263
13	0x3f820227	1.0156907
14	0x3f7c8d0d	0.98652726
15	0x3f85ba25	1.0447432
16	0x3f774a4e	0.96597755
17	0x3f83df39	1.0302497
18	0x3f894f7d	1.0727383
19	0x3f7f5331	0.99736315
20	0x3f88558f	1.065111
21	0x3f81c137	1.013709
22	0x3f77f3eb	0.96856564
23	0x3f84c401	1.0372316
24	0x3f81ce74	1.014113
25	0x3f80e18b	1.006883
26	0x3f83f489	1.0309001
27	0x3f80043e	1.0001295
28	0x3f7eced9	0.99534374
29	0x3f809685	1.0045935
30	0x3f827711	1.0192586
31	0x3f820635	1.0158144
32	0x3f8216c5	1.0163199
33	0x3f851008	1.0395517
34	0x3f81b6ba	1.0133889
35	0x3f7eecfe	0.9958037
36	0x3f834308	1.0254831
37	0x3f854ec2	1.041466
38	0x3f82c582	1.0216525
39	0x3f80d706	1.006562
40	0x3f80253e	1.0011365
41	0x3f834ce3	1.0257839
42	0x3f885450	1.065073
43	0x3f82f6c4	1.0231557
44	0x3f8aec1c	1.0853305
45	0x3f77e7fc	0.96838355
46	0x3f820257	1.0156964
47	0x3f82e6fc	1.0226741
48	0x3f813d35	1.0096804
49	0x3f79165e	0.97299755
50	0x3f84b87f	1.0368804
51	0x3f83aab2	1.0286467
52	0x3f886a58	1.0657454
53	0x3f7e3899	0.9930511
54	0x3f8393a4	1.0279431
55	0x3f8bdd1f	1.0926856
56	0x3f7f0e8a	0.9963156
57	0x3f8a3558	1.0797529
58	0x3f880d6a	1.0629094
59	0x3f7d9cb0	0.9906721
60	0x3f86176b	1.0475897
61	0x3f85a0c7	1.043969
62	0x3f85531e	1.041599
63	0x3f81bf1c	1.0136447
64	0x3f81b2c9	1.0132686
65	0x3f7dfc8d	0.99213487
66	0x3f7d6cd0	0.9899416
67	0x3f847102	1.0346987
68	0x3f6f5278	0.9348521
69	0x3f839572	1.0279982
70	0x3f84d136	1.0376346
71	0x3f874188	1.0566874
72	0x3f80d4a9	1.0064899
73	0x3f8548cf	1.0412844
74	0x3f7bf7bf	0.98424906
75	0x3f78c04f	0.9716844
76	0x3f859d8e	1.0438707
77	0x3f829802	1.0202639
78	0x3f8070dc	1.0034442
79	0x3f7bf9a8	0.9842782
80	0x3f8156a2	1.0104563
81	0x3f822634	1.0167909
82	0x3f88eda4	1.0697522
83	0x3f7f7eba	0.99802744
84	0x3f85ffea	1.0468724
85	0x3f7cfe2a	0.98825324
86	0x3f851379	1.0396568
87	0x3f7ed7f2	0.99548256
88	0x3f6ebe1f	0.9325885
89	0x3f89194e	1.0710847
90	0x3f80001c	1.0000033
91	0x3f84e98a	1.038377
92	0x3f868b45	1.0511252
93	0x3f856f1d	1.0424534
94	0x3f76b0f9	0.9636379
95	0x3f88cdb8	1.068778
96	0x3f8458b0	1.0339565
97	0x3f806625	1.0031172
98	0x3f887be8	1.0662813
99	0x3f80bcd3	1.0057625
100	0x3f7dbd77	0.99117225
101	0x3f803c19	1.001834
102	0x3f83c855	1.0295511
103	0x3f75e201	0.9604798
104	0x3f850f1a	1.0395234
105	0x3f81d970	1.0144482
106	0x3f865538	1.0494757
107	0x3f862269	1.0479251
108	0x3f8148cf	1.0100344
109	0x3f845170	1.0337353
110	0x3f74ce06	0.95626867
111	0x3f86a4ea	1.0519078
112	0x3f872f77	1.056136
113	0x3f7a7b5e	0.97844493
114	0x3f81ce3a	1.014106
115	0x3f78a349	0.97124153
116	0x3f827a1f	1.0193518
117	0x3f832165	1.0244566
118	0x3f8ab486	1.0836341
119	0x3f7e248c	0.99274516
120	0x3f83c56b	1.0294622
121	0x3f8622dd	1.047939
122	0x3f7e7474	0.99396443
123	0x3f7ae82f	0.98010534
124	0x3f82088c	1.0158858
125	0x3f81dd43	1.0145649
126	0x3f8602db	1.0469621
127	0x3f893432	1.0719054

bias f4 [128]
0	0xbbb24b5e	-0.0054411134
1	0x3d30d0f4	0.043168023
2	0xbce3e9ff	-0.027821539
3	0x3bf18b04	0.0073713083
4	0x3c823622	0.015894953
5	0xbc841817	-0.016124768
6	0x3c979829	0.018505173
7	0x3b0fe87c	0.002195864
8	0x3c833d76	0.016020518
9	0xbc79b40d	-0.015240681
10	0xbd30ad36	-0.043133937
11	0x3cd66b62	0.026174251
12	0xbd214553	-0.039372753
13	0x3c9d0458	0.01916711
14	0xbd560157	-0.05224737
15	0x3cb72c5e	0.022360023
16	0xbc3073e3	-0.010769817
17	0x3d4e68e2	0.050392993
18	0x3d8e92f8	0.06961626
19	0x3c8bfd30	0.017088503
20	0x3ce6ea19	0.028187798
21	0xbc756813	-0.0149784265
22	0x3c471456	0.012150845
23	0xbb229940	-0.0024810582
24	0x3d23d16b	0.03999464
25	0x3d24f382	0.04027129
26	0x3b9630d3	0.004583457
27	0xbbdcc281	-0.006737054
28	0xbce175b9	-0.027521955
29	0xbbd497db	-0.006487829
30	0x3c554db7	0.013019017
31	0x3c1ba4a1	0.0094997
32	0x3ce1d448	0.027567044
33	0x3cd242f9	0.0256667
34	0xbaa5ea4d	-0.0012658328
35	0xbcb54345	-0.022126803
36	0x3c9bc5b2	0.019015167
37	0x3c65a4dc	0.014016356
38	0x3bb5a12e	0.0055428958
39	0x3c71c0d2	0.014755445
40	0xbc186657	-0.0093017435
41	0x3b3751a1	0.0027972239
42	0x3d2be324	0.041964665
43	0x3c6ba635	0.014382889
44	0x3d352613	0.044225764
45	0x3becf73b	0.0072316206
46	0x3cb2f909	0.021847265
47	0x3cf3ef57	0.029777212
48	0x3d1310de	0.035904758
49	0xbb9b8a6c	-0.004746726
50	0xba8ac184	-0.0010586237
51	0x3d01c89c	0.031685457
52	0x3cdb7b86	0.026792299
53	0x3a970505	0.0011521882
54	0x3c891d05	0.01673747
55	0x3d661cce	0.056179814
56	0x3c38069c	0.011232045
57	0xbcb6b566	-0.022303294
58	0x3d12cc12	0.035839148
59	0xbd2b452f	-0.041814025
60	0xbb86b683	-0.0041111126
61	0x3d14f7e7	0.03636923
62	0x3ccfd765	0.025371263
63	0x3ca21e81	0.019789936
64	0xbca6ed5e	-0.020376857
65	0xbb8fc196	-0.004387091
66	0x3c25be21	0.010116131
67	0x3cf0933d	0.029367084
68	0x3cc35e4c	0.023848675
69	0xbb4cbccd	-0.0031240464
70	0x3d1ace9e	0.0377947
71	0x3c910132	0.017700765
72	0xba0eef44	-0.00054525235
73	0x3c77be03	0.015120986
74	0xbd3652c7	-0.044512536
75	0xbbfb957c	-0.007677732
76	0x3ca3add4	0.019980349
77	0xbc2fb694	-0.010724682
78	0xbc4ea2a2	-0.012612017
79	0xbce0d1c6	-0.027443778
80	0x3bea9b0d	0.007159597
81	0x3c9d1d34	0.019178964
82	0x3d027a66	0.03185501
83	0x3c9e0af2	0.019292329
84	0x3cba6c5a	0.022756744
85	0xbc94f69f	-0.018184004
86	0x3c3ce07b	0.01152813
87	0xbcf64ac4	-0.030064948
88	0xbd5c996b	-0.05385725
89	0x3d013be4	0.031551257
90	0x3c75cee9	0.0150029445
91	0x3c8635cb	0.016383072
92	0x3c779259	0.015110576
93	0x3d30d8ea	0.043175615
94	0xbcbcee66	-0.023062896
95	0x3d0f380e	0.034965567
96	0xbcdce05c	-0.026962452
97	0xbd107365	-0.0352663
98	0xbc648ab3	-0.013949084
99	0xbcbfc1bb	-0.023407808
100	0xbd1888c2	-0.037239797
101	0x3c4d448b	0.012528549
102	0x3c9eaf2a	0.019370634
103	0xbd091626	-0.033468388
104	0x3cf3b139	0.029747592
105	0xbd03b8de	-0.032158725
106	0xbbb4e910	-0.0055209473
107	0xbc0d1f83	-0.00861347
108	0x3cf02fcd	0.029319668
109	0x3d5047ee	0.050849847
110	0x3ce0f4e1	0.027460517
111	0xbc9bf0f7	-0.0190358
112	0x3c23240c	0.009957325
113	0x3c859f67	0.01631136
114	0x3c87fda8	0.016600445
115	0xbd564129	-0.052308235
116	0x3c135386	0.0089920815
117	0x3ce0e026	0.027450632
118	0x3d13ad4d	0.036053944
119	0xbd04cb2a	-0.032420315
120	0x3c5610f4	0.013065565
121	0xbbcdfe93	-0.006286451
122	0xbc27527d	-0.010212538
123	0xbcef21e1	-0.02919096
124	0xbb9e5e6a	-0.0048330324
125	0xbd74d353	-0.059771847
126	0x3c520892	0.012819426
127	0x3cdbda27	0.026837422

weight f4 [1, 128, 4, 4]
0	0xbd0f4025	-0.034973282
1	0x3d1b6c08	0.037944824
2	0x3be8d730	0.0071057305
3	0xbb8c9904	-0.004290702
4	0x3c03f734	0.008054543
5	0x3d39dc46	0.045376085
6	0x3c750d2b	0.014956753
7	0x3d5b51a0	0.05354464
8	0xbbfcc589	-0.0077139777
9	0x3bcb59e8	0.006205786
10	0x3c615986	0.013754254
11	0xbc8a05a6	-0.016848397
12	0x3d4f788b	0.050652068
13	0x3c523c61	0.012831778
14	0x3bd665bd	0.00654289
15	0x3c7562cd	0.014977169
16	0x3a8065de	0.0009795984
17	0x3b856215	0.00407053
18	0x3c128795	0.008943458
19	0xbc7c675d	-0.015405503
20	0x3d5a0c0e	0.053234152
21	0x3d2ffbd5	0.042964775
22	0x3d3e491a	0.046456434
23	0x3cc144e5	0.023592422
24	0x3d2b002a	0.041748203
25	0x3b658ee7	0.0035027803
26	0x3c1c3cda	0.0095359925
27	0x3b15326b	0.0022765647
28	0x3d373c99	0.044735525
29	0xbca4b0e5	-0.020103881
30	0x3cf496bd	0.029857034
31	0xbc1012df	-0.008793562
32	0x3cfd6ed1	0.03093663
33	0xbb97902f	-0.0046253423
34	0x3a0e7f72	0.0005435861
35	0xbd889c8d	-0.06670485
36	0x3d0d924d	0.03456335
37	0x3cf5c955	0.03000323
38	0x3cfa29bb	0.030537477
39	0x3c75dcb4	0.015006233
40	0x3d1a4495	0.03766306
41	0x3c344ffa	0.011005396
42	0x3ca32bd2	0.019918356
43	0xbca62f00	-0.020286083
44	0x3c8a30b7	0.016868932
45	0x3cb39b2d	0.02192458
46	0x3c2ea183	0.010658625
47	0xbd87190c	-0.06596574
48	0x3d3e6e0a	0.04649166
49	0xbd02ce8f	-0.03193527
50	0xbbc9010c	-0.006134158
51	0xbc343f16	-0.011001369
52	0x3ce7e31c	0.028306536
53	0x3c7c2687	0.015390045
54	0x3d4862d3	0.04892237
55	0x39a52025	0.00031495202
56	0x3ccb9752	0.024852429
57	0x3c0964fa	0.008385891
58	0x3c0bda4f	0.008535936
59	0x3c91c7e6	0.017795514
60	0x3c264679	0.010148638
61	0xbcca6fd7	-0.024711533
62	0x3c267303	0.010159257
63	0xbd05c282	-0.0326562
64	0x3c9ce818	0.01915364
65	0xbc8a27b3	-0.016864633
66	0xbb9c00a1	-0.004760817
67	0xbc8a5925	-0.01688821
68	0xbb30bf06	-0.0026969328
69	0x3cffec37	0.031240566
70	0x3c2f5b53	0.010702926
71	0x3d508131	0.050904457
72	0x3c3ba499	0.011452817
73	0x3d0e1ddf	0.034696456
74	0x3ce80340	0.028321862
75	0x3cbcb20a	0.023034114
76	0x3bd7ee89	0.006589715
77	0x3cac156a	0.021006305
78	0x3d2f3768	0.04277745
79	0x3c1f0565	0.009705876
80	0x3d697ea3	0.057005536
81	0xbb93600f	-0.004497535
82	0xbbb38280	-0.0054782033
83	0xbbe9d2c4	-0.007135721
84	0x3ac2f1d3	0.0014873095
85	0xbc178950	-0.009249046
86	0x3cefcb32	0.029271696
87	0xbd04478c	-0.032294795
88	0x3c781944	0.015142743
89	0xbc9a45e7	-0.01883216
90	0xbc481dd2	-0.012214141
91	0x3c3e2845	0.011606281
92	0x3b72df94	0.0037059532
93	0x3d3aaeb3	0.045576762
94	0x3cb3c1c4	0.02194298
95	0x3cc89cb4	0.024488784
96	0x3b2a0751	0.0025944302
97	0x3cd72b4f	0.026265768
98	0xbd246ed7	-0.040144768
99	0x3dd3e5fa	0.10346599
100	0xbcc5d3f9	-0.024148928
101	0x3c7c6a85	0.015406256
102	0x3c3c03b8	0.011475496
103	0x3bbeaae3	0.005818711
104	0xbd6f55c7	-0.058431413
105	0x3d355ad4	0.044276074
106	0x3ad8b203	0.0016532544
107	0xbc330fa4	-0.010929022
108	0x3b8c8fbc	0.0042895954
109	0x3c1c8fa4	0.009555731
110	0xbb9f528f	-0.0048621367
111	0x3c931661	0.017955007
112	0xbda4c3bb	-0.08045145
113	0x390acdc4	0.00013237359
114	0xb9ee37b7	-0.00045436408
115	0xbc704d0b	-0.014666806
116	0xbb780588	-0.0037845094
117	0x3d28a8ed	0.041176725
118	0x3d3cff9d	0.04614221
119	0x3b3c32d8	0.0028716829
120	0xbb386100	-0.0028133988
121	0x3cf14066	0.029449653
122	0x3cdc0afe	0.02686071
123	0x3d072699	0.032995794
124	0x3cd5ef71	0.026115151
125	0x3b844a59	0.0040371832
126	0x3cec2d83	0.028830295
127	0x3d50527b	0.05085991
128	0x3bae7007	0.0053234133
129	0x3d862030	0.06549108
130	0x3ccbc7d1	0.024875553
131	0x3d39b9ac	0.045343086
132	0xbca51b9e	-0.02015477
133	0x3d3991e9	0.045305166
134	0x3d80e149	0.0629297
135	0xbd2840b9	-0.04107735
136	0xb98bd695	-0.00026672022
137	0x3cda9416	0.026681941
138	0x3d215084	0.039383426
139	0xbd297571	-0.041371766
140	0xbd17a13c	-0.037019
141	0x3cf1f9d7	0.029538078
142	0x3d0b85a1	0.034062985
143	0xbc932346	-0.017961156
144	0x3d1625ad	0.036657024
145	0x3b6f285e	0.0036492567
146	0x3bc1ec55	0.0059180656
147	0x3cb1880e	0.021671321
148	0x3d6c2246	0.057649873
149	0x3c8b8364	0.017030425
150	0x3d0af5f3	0.03392596
151	0x3c706499	0.014672422
152	0x3c831a4d	0.016003752
153	0x3c5181b5	0.012787272
154	0xbc0912e3	-0.008366319
155	0xbbfff3c6	-0.0078110425
156	0xbcb9a0a9	-0.022659617
157	0xbc26def2	-0.01018499
158	0xbb3b7e0e	-0.002860907
159	0xbd1e55f2	-0.038656183
160	0xbc7bd913	-0.015371579
161	0x3d1b814a	0.037965097
162	0x3d5f10d7	0.05445942
163	0x3bd709bd	0.00656244
164	0xbc887002	-0.016654972
165	0x3b23bfbc	0.0024986109
166	0x3c4a2aa4	0.012339268
167	0x3c3a483b	0.01136976
168	0x3c6e9f4f	0.014564349
169	0x3c3f997f	0.011694311
170	0x3bd1ba1f	0.006400361
171	0x3c1f9350	0.009739712
172	0xbd229f0f	-0.03970247
173	0xbb673429	-0.0035278893
174	0x3c536602	0.0129027385
175	0xbcfa1203	-0.030526167
176	0x3d2d3ec5	0.04229619
177	0xbc82fe13	-0.015990293
178	0x3c8a2eb6	0.016867977
179	0xbcaf05b3	-0.021365022
180	0x3d0e553e	0.034749262
181	0xbc0be1aa	-0.008537689
182	0xbbf5d48c	-0.007502144
183	0xbbd40198	-0.0064699166
184	0x3d063981	0.032769684
185	0x3c14b95f	0.009077399
186	0x3d33b1c6	0.04387071
187	0xbc6ca22f	-0.014442964
188	0x3d8de431	0.0692829
189	0x3c9054bd	0.017618531
190	0x3c9ccab3	0.019139623
191	0xbc534433	-0.012894678
192	0x3cdb9f86	0.026809465
193	0x3b80e592	0.003933617
194	0x3cbfed89	0.023428695
195	0x3d173ddd	0.03692423
196	0xbc5c51ef	-0.013447269
197	0x3cb4d91c	0.022076182
198	0xbb83f7a2	-0.004027323
199	0x39c4cfcd	0.00037538857
200	0xbcb69ceb	-0.022291621
201	0x3b17aa38	0.002314223
202	0x3be90276	0.007110889
203	0x3b88de2e	0.0041768765
204	0xbd3a140b	-0.04542927
205	0x3cc273c8	0.02373685
206	0x3bc4b0ed	0.0060025365
207	0xbd4ad1b3	-0.04951639
208	0xbcff2361	-0.0311448
209	0xbb98b341	-0.0046600406
210	0xbbd0c4c7	-0.006371114
211	0x3d7042e1	0.05865753
212	0xbc16d31e	-0.009205608
213	0x3ca15640	0.019694448
214	0x3af99453	0.0019041396
215	0x3d008966	0.031381033
216	0x3b94270e	0.0045212572
217	0xbc09adbe	-0.00840324
218	0xbd0d34d9	-0.034474228
219	0x3cbc76b4	0.02300582
220	0x3c8279c3	0.015927201
221	0x3d01b4a8	0.031666428
222	0x3cf271e2	0.02959532
223	0x3c7fd14e	0.015613867
224	0x3bc9b758	0.0061558895
225	0xbcb8b065	-0.022545049
226	0x3c6a2758	0.014291607
227	0xbc8c8cd3	-0.017156994
228	0xbc187d77	-0.009307257
229	0x3d0343b8	0.032047004
230	0x3cc9370d	0.024562383
231	0xbd17156d	-0.036885668
232	0x3cb9ef31	0.022697063
233	0x3bb0f6b3	0.0054005026
234	0x3bbb9ce8	0.005725492
235	0xbce0ebe0	-0.027456224
236	0x3c848946	0.016178738
237	0x3c30c15d	0.010788289
238	0xbbee1e97	-0.00726683
239	0xbcd165b4	-0.025561191
240	0xbd635645	-0.055502195
241	0x3d1e3829	0.038627777
242	0x3c82122f	0.015877811
243	0xbc9857a3	-0.018596476
244	0xbcb7f33b	-0.022454849
245	0x3d36a621	0.044592027
246	0x3cf126a8	0.029437378
247	0xbc8d8f1d	-0.017280156
248	0xbc9dfff5	-0.019287089
249	0x3d1bd9ce	0.03804951
250	0x3cd063d4	0.025438227
251	0x3c9567a1	0.01823789
252	0x3ca4887e	0.020084616
253	0x3c9a12a1	0.018807711
254	0x3cd4d2f6	0.0259795
255	0x3d65957c	0.056050763
